INFO 11-03 11:30:42 [__init__.py:241] Automatically detected platform rocm.
/sgl-workspace/sglang/python/sglang/srt/layers/quantization/awq.py:67: UserWarning: HIP does not support fused_marlin_moe currently.
  warnings.warn(f"HIP does not support fused_marlin_moe currently.")
/sgl-workspace/sglang/python/sglang/srt/layers/quantization/gguf.py:46: UserWarning: Only CUDA support GGUF q uantization currently.
  warnings.warn(f"Only CUDA support GGUF q uantization currently.")
[2025-11-03 11:30:42] WARNING model_config.py:714: quark quantization is not fully optimized yet. The speed can be slower than non-quantized models.
[2025-11-03 11:30:42] WARNING server_args.py:1159: Attention backend not explicitly specified. Use aiter backend by default.
[2025-11-03 11:30:42] WARNING server_args.py:1348: DP attention is enabled. The chunked prefill size is adjusted to 16384 to avoid MoE kernel issues. 
[2025-11-03 11:30:42] INFO trace.py:52: opentelemetry package is not installed, tracing disabled
[2025-11-03 11:30:42] server_args=ServerArgs(model_path='/mnt/raid/models/deepseek-ai/amd-DeepSeek-R1-MXFP4-Preview', tokenizer_path='/mnt/raid/models/deepseek-ai/amd-DeepSeek-R1-MXFP4-Preview', tokenizer_mode='auto', tokenizer_worker_num=1, skip_tokenizer_init=False, load_format='auto', model_loader_extra_config='{}', trust_remote_code=True, context_length=None, is_embedding=False, enable_multimodal=None, revision=None, model_impl='auto', host='127.0.0.1', port=30000, grpc_mode=False, skip_server_warmup=False, warmups=None, nccl_port=None, checkpoint_engine_wait_weights_before_ready=False, dtype='auto', quantization=None, quantization_param_path=None, kv_cache_dtype='auto', enable_fp32_lm_head=False, modelopt_quant=None, modelopt_checkpoint_restore_path=None, modelopt_checkpoint_save_path=None, modelopt_export_path=None, quantize_and_serve=False, mem_fraction_static=0.68, max_running_requests=None, max_queued_requests=None, max_total_tokens=None, chunked_prefill_size=16384, max_prefill_tokens=16384, schedule_policy='fcfs', enable_priority_scheduling=False, abort_on_priority_when_disabled=False, schedule_low_priority_values_first=False, priority_scheduling_preemption_threshold=10, schedule_conservativeness=0.3, page_size=1, hybrid_kvcache_ratio=None, swa_full_tokens_ratio=0.8, disable_hybrid_swa_memory=False, radix_eviction_policy='lru', device='cuda', tp_size=8, pp_size=1, pp_max_micro_batch_size=None, stream_interval=1, stream_output=False, random_seed=1071228179, constrained_json_whitespace_pattern=None, constrained_json_disable_any_whitespace=False, watchdog_timeout=300, dist_timeout=None, download_dir=None, base_gpu_id=0, gpu_id_step=1, sleep_on_idle=False, log_level='info', log_level_http=None, log_requests=False, log_requests_level=2, crash_dump_folder=None, show_time_cost=False, enable_metrics=False, enable_metrics_for_all_schedulers=False, tokenizer_metrics_custom_labels_header='x-custom-labels', tokenizer_metrics_allowed_custom_labels=None, bucket_time_to_first_token=None, bucket_inter_token_latency=None, bucket_e2e_request_latency=None, collect_tokens_histogram=False, prompt_tokens_buckets=None, generation_tokens_buckets=None, gc_warning_threshold_secs=0.0, decode_log_interval=40, enable_request_time_stats_logging=False, kv_events_config=None, enable_trace=False, otlp_traces_endpoint='localhost:4317', api_key=None, served_model_name='/mnt/raid/models/deepseek-ai/amd-DeepSeek-R1-MXFP4-Preview', weight_version='default', chat_template=None, completion_template=None, file_storage_path='sglang_storage', enable_cache_report=False, reasoning_parser=None, tool_call_parser=None, tool_server=None, sampling_defaults='model', dp_size=8, load_balance_method='round_robin', load_watch_interval=0.1, prefill_round_robin_balance=False, dist_init_addr=None, nnodes=1, node_rank=0, json_model_override_args='{}', preferred_sampling_params=None, enable_lora=None, max_lora_rank=None, lora_target_modules=None, lora_paths=None, max_loaded_loras=None, max_loras_per_batch=8, lora_eviction_policy='lru', lora_backend='csgmv', max_lora_chunk_size=16, attention_backend='aiter', decode_attention_backend=None, prefill_attention_backend=None, sampling_backend='pytorch', grammar_backend='xgrammar', mm_attention_backend=None, nsa_prefill_backend='flashmla_sparse', nsa_decode_backend='fa3', speculative_algorithm=None, speculative_draft_model_path=None, speculative_draft_model_revision=None, speculative_draft_load_format=None, speculative_num_steps=None, speculative_eagle_topk=None, speculative_num_draft_tokens=None, speculative_accept_threshold_single=1.0, speculative_accept_threshold_acc=1.0, speculative_token_map=None, speculative_attention_mode='prefill', speculative_ngram_min_match_window_size=1, speculative_ngram_max_match_window_size=12, speculative_ngram_min_bfs_breadth=1, speculative_ngram_max_bfs_breadth=10, speculative_ngram_match_type='BFS', speculative_ngram_branch_length=18, speculative_ngram_capacity=10000000, ep_size=1, moe_a2a_backend='none', moe_runner_backend='auto', flashinfer_mxfp4_moe_precision='default', enable_flashinfer_allreduce_fusion=False, deepep_mode='auto', ep_num_redundant_experts=0, ep_dispatch_algorithm='static', init_expert_location='trivial', enable_eplb=False, eplb_algorithm='auto', eplb_rebalance_num_iterations=1000, eplb_rebalance_layers_per_chunk=None, eplb_min_rebalancing_utilization_threshold=1.0, expert_distribution_recorder_mode=None, expert_distribution_recorder_buffer_size=1000, enable_expert_distribution_metrics=False, deepep_config=None, moe_dense_tp_size=None, elastic_ep_backend=None, mooncake_ib_device=None, max_mamba_cache_size=None, mamba_ssm_dtype='float32', mamba_full_memory_ratio=0.9, enable_hierarchical_cache=False, hicache_ratio=2.0, hicache_size=0, hicache_write_policy='write_through', hicache_io_backend='kernel', hicache_mem_layout='layer_first', hicache_storage_backend=None, hicache_storage_prefetch_policy='best_effort', hicache_storage_backend_extra_config=None, enable_lmcache=False, kt_amx_weight_path=None, kt_amx_method='AMXINT4', kt_cpuinfer=None, kt_threadpool_count=2, kt_num_gpu_experts=None, enable_double_sparsity=False, ds_channel_config_path=None, ds_heavy_channel_num=32, ds_heavy_token_num=256, ds_heavy_channel_type='qk', ds_sparse_decode_threshold=4096, cpu_offload_gb=0, offload_group_size=-1, offload_num_in_group=1, offload_prefetch_step=1, offload_mode='cpu', multi_item_scoring_delimiter=None, disable_radix_cache=False, cuda_graph_max_bs=16, cuda_graph_bs=[1, 2, 4, 8, 12, 16], disable_cuda_graph=False, disable_cuda_graph_padding=False, enable_profile_cuda_graph=False, enable_cudagraph_gc=False, enable_nccl_nvls=False, enable_symm_mem=False, disable_flashinfer_cutlass_moe_fp4_allgather=False, enable_tokenizer_batch_encode=False, disable_tokenizer_batch_decode=False, disable_outlines_disk_cache=False, disable_custom_all_reduce=False, enable_mscclpp=False, enable_torch_symm_mem=False, disable_overlap_schedule=False, enable_mixed_chunk=False, enable_dp_attention=True, enable_dp_lm_head=False, enable_two_batch_overlap=False, enable_single_batch_overlap=False, tbo_token_distribution_threshold=0.48, enable_torch_compile=True, enable_piecewise_cuda_graph=False, torch_compile_max_bs=32, piecewise_cuda_graph_max_tokens=4096, piecewise_cuda_graph_tokens=[4, 8, 12, 16, 20, 24, 28, 32, 48, 64, 80, 96, 112, 128, 144, 160, 176, 192, 208, 224, 240, 256, 288, 320, 352, 384, 416, 448, 480, 512, 640, 768, 896, 1024, 1152, 1280, 1408, 1536, 1664, 1792, 1920, 2048, 2176, 2304, 2432, 2560, 2688, 2816, 2944, 3072, 3200, 3328, 3456, 3584, 3712, 3840, 3968, 4096], piecewise_cuda_graph_compiler='eager', torchao_config='', enable_nan_detection=False, enable_p2p_check=False, triton_attention_reduce_in_fp32=False, triton_attention_num_kv_splits=16, triton_attention_split_tile_size=None, num_continuous_decode_steps=1, delete_ckpt_after_loading=False, enable_memory_saver=False, enable_weights_cpu_backup=False, allow_auto_truncate=False, enable_custom_logit_processor=False, flashinfer_mla_disable_ragged=False, disable_shared_experts_fusion=False, disable_chunked_prefix_cache=False, disable_fast_image_processor=False, keep_mm_feature_on_device=False, enable_return_hidden_states=False, scheduler_recv_interval=1, numa_node=None, enable_deterministic_inference=False, rl_on_policy_target=None, enable_dynamic_batch_tokenizer=False, dynamic_batch_tokenizer_batch_size=32, dynamic_batch_tokenizer_batch_timeout=0.002, debug_tensor_dump_output_folder=None, debug_tensor_dump_layers=-1, debug_tensor_dump_input_file=None, debug_tensor_dump_inject=False, disaggregation_mode='null', disaggregation_transfer_backend='mooncake', disaggregation_bootstrap_port=8998, disaggregation_decode_tp=None, disaggregation_decode_dp=None, disaggregation_prefill_pp=1, disaggregation_ib_device=None, disaggregation_decode_enable_offload_kvcache=False, num_reserved_decode_tokens=512, disaggregation_decode_polling_interval=1, custom_weight_loader=[], weight_loader_disable_mmap=False, remote_instance_weight_loader_seed_instance_ip=None, remote_instance_weight_loader_seed_instance_service_port=None, remote_instance_weight_loader_send_weights_group_ports=None, enable_pdmux=False, pdmux_config_path=None, sm_group_num=8, mm_max_concurrent_calls=32, mm_per_request_timeout=10.0)
[2025-11-03 11:30:42] quark quantization is not fully optimized yet. The speed can be slower than non-quantized models.
[2025-11-03 11:30:42] Using default HuggingFace chat template with detected content format: string
INFO 11-03 11:30:49 [__init__.py:241] Automatically detected platform rocm.
INFO 11-03 11:30:49 [__init__.py:241] Automatically detected platform rocm.
/sgl-workspace/sglang/python/sglang/srt/layers/quantization/awq.py:67: UserWarning: HIP does not support fused_marlin_moe currently.
  warnings.warn(f"HIP does not support fused_marlin_moe currently.")
/sgl-workspace/sglang/python/sglang/srt/layers/quantization/awq.py:67: UserWarning: HIP does not support fused_marlin_moe currently.
  warnings.warn(f"HIP does not support fused_marlin_moe currently.")
/sgl-workspace/sglang/python/sglang/srt/layers/quantization/gguf.py:46: UserWarning: Only CUDA support GGUF q uantization currently.
  warnings.warn(f"Only CUDA support GGUF q uantization currently.")
[2025-11-03 11:30:49] INFO trace.py:52: opentelemetry package is not installed, tracing disabled
/sgl-workspace/sglang/python/sglang/srt/layers/quantization/gguf.py:46: UserWarning: Only CUDA support GGUF q uantization currently.
  warnings.warn(f"Only CUDA support GGUF q uantization currently.")
[2025-11-03 11:30:50] INFO trace.py:52: opentelemetry package is not installed, tracing disabled
INFO 11-03 11:30:57 [__init__.py:241] Automatically detected platform rocm.
/sgl-workspace/sglang/python/sglang/srt/layers/quantization/awq.py:67: UserWarning: HIP does not support fused_marlin_moe currently.
  warnings.warn(f"HIP does not support fused_marlin_moe currently.")
/sgl-workspace/sglang/python/sglang/srt/layers/quantization/gguf.py:46: UserWarning: Only CUDA support GGUF q uantization currently.
  warnings.warn(f"Only CUDA support GGUF q uantization currently.")
[2025-11-03 11:30:58] INFO trace.py:52: opentelemetry package is not installed, tracing disabled
INFO 11-03 11:30:58 [__init__.py:241] Automatically detected platform rocm.
[2025-11-03 11:30:58 DP3 TP3] Process 512 gpu_id 3 is running on CPUs: [48, 49, 50, 51, 52, 53, 54, 55, 56, 57, 58, 59, 60, 61, 62, 63, 176, 177, 178, 179, 180, 181, 182, 183, 184, 185, 186, 187, 188, 189, 190, 191]
[2025-11-03 11:30:58 DP3 TP3] quark quantization is not fully optimized yet. The speed can be slower than non-quantized models.
INFO 11-03 11:30:58 [__init__.py:241] Automatically detected platform rocm.
[2025-11-03 11:30:58 DP3 TP3] quark quantization is not fully optimized yet. The speed can be slower than non-quantized models.
[2025-11-03 11:30:58 DP3 TP3] Init torch distributed begin.
INFO 11-03 11:30:58 [__init__.py:241] Automatically detected platform rocm.
INFO 11-03 11:30:58 [__init__.py:241] Automatically detected platform rocm.
INFO 11-03 11:30:58 [__init__.py:241] Automatically detected platform rocm.
/sgl-workspace/sglang/python/sglang/srt/layers/quantization/awq.py:67: UserWarning: HIP does not support fused_marlin_moe currently.
  warnings.warn(f"HIP does not support fused_marlin_moe currently.")
INFO 11-03 11:30:58 [__init__.py:241] Automatically detected platform rocm.
/sgl-workspace/sglang/python/sglang/srt/layers/quantization/gguf.py:46: UserWarning: Only CUDA support GGUF q uantization currently.
  warnings.warn(f"Only CUDA support GGUF q uantization currently.")
[2025-11-03 11:30:58] INFO trace.py:52: opentelemetry package is not installed, tracing disabled
INFO 11-03 11:30:58 [__init__.py:241] Automatically detected platform rocm.
[2025-11-03 11:30:58 DP7 TP7] Process 516 gpu_id 7 is running on CPUs: [112, 113, 114, 115, 116, 117, 118, 119, 120, 121, 122, 123, 124, 125, 126, 127, 240, 241, 242, 243, 244, 245, 246, 247, 248, 249, 250, 251, 252, 253, 254, 255]
[2025-11-03 11:30:58 DP7 TP7] quark quantization is not fully optimized yet. The speed can be slower than non-quantized models.
/sgl-workspace/sglang/python/sglang/srt/layers/quantization/awq.py:67: UserWarning: HIP does not support fused_marlin_moe currently.
  warnings.warn(f"HIP does not support fused_marlin_moe currently.")
/sgl-workspace/sglang/python/sglang/srt/layers/quantization/awq.py:67: UserWarning: HIP does not support fused_marlin_moe currently.
  warnings.warn(f"HIP does not support fused_marlin_moe currently.")
/sgl-workspace/sglang/python/sglang/srt/layers/quantization/awq.py:67: UserWarning: HIP does not support fused_marlin_moe currently.
  warnings.warn(f"HIP does not support fused_marlin_moe currently.")
[2025-11-03 11:30:58 DP7 TP7] quark quantization is not fully optimized yet. The speed can be slower than non-quantized models.
[2025-11-03 11:30:58 DP7 TP7] Init torch distributed begin.
/sgl-workspace/sglang/python/sglang/srt/layers/quantization/awq.py:67: UserWarning: HIP does not support fused_marlin_moe currently.
  warnings.warn(f"HIP does not support fused_marlin_moe currently.")
/sgl-workspace/sglang/python/sglang/srt/layers/quantization/awq.py:67: UserWarning: HIP does not support fused_marlin_moe currently.
  warnings.warn(f"HIP does not support fused_marlin_moe currently.")
/sgl-workspace/sglang/python/sglang/srt/layers/quantization/gguf.py:46: UserWarning: Only CUDA support GGUF q uantization currently.
  warnings.warn(f"Only CUDA support GGUF q uantization currently.")
[2025-11-03 11:30:58] INFO trace.py:52: opentelemetry package is not installed, tracing disabled
/sgl-workspace/sglang/python/sglang/srt/layers/quantization/gguf.py:46: UserWarning: Only CUDA support GGUF q uantization currently.
  warnings.warn(f"Only CUDA support GGUF q uantization currently.")
/sgl-workspace/sglang/python/sglang/srt/layers/quantization/gguf.py:46: UserWarning: Only CUDA support GGUF q uantization currently.
  warnings.warn(f"Only CUDA support GGUF q uantization currently.")
[2025-11-03 11:30:59] INFO trace.py:52: opentelemetry package is not installed, tracing disabled
/sgl-workspace/sglang/python/sglang/srt/layers/quantization/gguf.py:46: UserWarning: Only CUDA support GGUF q uantization currently.
  warnings.warn(f"Only CUDA support GGUF q uantization currently.")
[2025-11-03 11:30:59] INFO trace.py:52: opentelemetry package is not installed, tracing disabled
/sgl-workspace/sglang/python/sglang/srt/layers/quantization/gguf.py:46: UserWarning: Only CUDA support GGUF q uantization currently.
  warnings.warn(f"Only CUDA support GGUF q uantization currently.")
[2025-11-03 11:30:59 DP0 TP0] Process 509 gpu_id 0 is running on CPUs: [0, 1, 2, 3, 4, 5, 6, 7, 8, 9, 10, 11, 12, 13, 14, 15, 128, 129, 130, 131, 132, 133, 134, 135, 136, 137, 138, 139, 140, 141, 142, 143]
[2025-11-03 11:30:59 DP0 TP0] quark quantization is not fully optimized yet. The speed can be slower than non-quantized models.
[2025-11-03 11:30:59] INFO trace.py:52: opentelemetry package is not installed, tracing disabled
[2025-11-03 11:30:59] INFO trace.py:52: opentelemetry package is not installed, tracing disabled
[2025-11-03 11:30:59 DP1 TP1] Process 510 gpu_id 1 is running on CPUs: [16, 17, 18, 19, 20, 21, 22, 23, 24, 25, 26, 27, 28, 29, 30, 31, 144, 145, 146, 147, 148, 149, 150, 151, 152, 153, 154, 155, 156, 157, 158, 159]
[2025-11-03 11:30:59 DP1 TP1] quark quantization is not fully optimized yet. The speed can be slower than non-quantized models.
[2025-11-03 11:30:59 DP5 TP5] Process 514 gpu_id 5 is running on CPUs: [80, 81, 82, 83, 84, 85, 86, 87, 88, 89, 90, 91, 92, 93, 94, 95, 208, 209, 210, 211, 212, 213, 214, 215, 216, 217, 218, 219, 220, 221, 222, 223]
[2025-11-03 11:30:59 DP5 TP5] quark quantization is not fully optimized yet. The speed can be slower than non-quantized models.
/sgl-workspace/sglang/python/sglang/srt/layers/quantization/awq.py:67: UserWarning: HIP does not support fused_marlin_moe currently.
  warnings.warn(f"HIP does not support fused_marlin_moe currently.")
[2025-11-03 11:30:59 DP2 TP2] Process 511 gpu_id 2 is running on CPUs: [32, 33, 34, 35, 36, 37, 38, 39, 40, 41, 42, 43, 44, 45, 46, 47, 160, 161, 162, 163, 164, 165, 166, 167, 168, 169, 170, 171, 172, 173, 174, 175]
[2025-11-03 11:30:59 DP2 TP2] quark quantization is not fully optimized yet. The speed can be slower than non-quantized models.
[2025-11-03 11:30:59 DP4 TP4] Process 513 gpu_id 4 is running on CPUs: [64, 65, 66, 67, 68, 69, 70, 71, 72, 73, 74, 75, 76, 77, 78, 79, 192, 193, 194, 195, 196, 197, 198, 199, 200, 201, 202, 203, 204, 205, 206, 207]
[2025-11-03 11:30:59 DP4 TP4] quark quantization is not fully optimized yet. The speed can be slower than non-quantized models.
/sgl-workspace/sglang/python/sglang/srt/layers/quantization/gguf.py:46: UserWarning: Only CUDA support GGUF q uantization currently.
  warnings.warn(f"Only CUDA support GGUF q uantization currently.")
[2025-11-03 11:30:59] INFO trace.py:52: opentelemetry package is not installed, tracing disabled
[2025-11-03 11:30:59 DP0 TP0] quark quantization is not fully optimized yet. The speed can be slower than non-quantized models.
[2025-11-03 11:30:59 DP0 TP0] Init torch distributed begin.
[2025-11-03 11:30:59 DP6 TP6] Process 515 gpu_id 6 is running on CPUs: [96, 97, 98, 99, 100, 101, 102, 103, 104, 105, 106, 107, 108, 109, 110, 111, 224, 225, 226, 227, 228, 229, 230, 231, 232, 233, 234, 235, 236, 237, 238, 239]
[2025-11-03 11:30:59 DP6 TP6] quark quantization is not fully optimized yet. The speed can be slower than non-quantized models.
[2025-11-03 11:30:59 DP1 TP1] quark quantization is not fully optimized yet. The speed can be slower than non-quantized models.
[2025-11-03 11:30:59 DP1 TP1] Init torch distributed begin.
[2025-11-03 11:30:59 DP5 TP5] quark quantization is not fully optimized yet. The speed can be slower than non-quantized models.
[2025-11-03 11:30:59 DP5 TP5] Init torch distributed begin.
[2025-11-03 11:30:59 DP2 TP2] quark quantization is not fully optimized yet. The speed can be slower than non-quantized models.
[2025-11-03 11:30:59 DP2 TP2] Init torch distributed begin.
[2025-11-03 11:30:59 DP4 TP4] quark quantization is not fully optimized yet. The speed can be slower than non-quantized models.
[2025-11-03 11:30:59 DP4 TP4] Init torch distributed begin.
[2025-11-03 11:30:59 DP6 TP6] quark quantization is not fully optimized yet. The speed can be slower than non-quantized models.
[2025-11-03 11:30:59 DP6 TP6] Init torch distributed begin.
[Gloo] Rank 0 is connected to 7 peer ranks. Expected number of connected peer ranks is : 7
[Gloo] Rank 1 is connected to 7 peer ranks. Expected number of connected peer ranks is : 7
[Gloo] Rank 2 is connected to 7 peer ranks. Expected number of connected peer ranks is : 7
[Gloo] Rank 4 is connected to 7 peer ranks. Expected number of connected peer ranks is : 7
[Gloo] Rank 3 is connected to 7 peer ranks. Expected number of connected peer ranks is : 7
[Gloo] Rank 5 is connected to 7 peer ranks. Expected number of connected peer ranks is : 7
[Gloo] Rank 7 is connected to 7 peer ranks. Expected number of connected peer ranks is : 7
[Gloo] Rank 6 is connected to 7 peer ranks. Expected number of connected peer ranks is : 7
[Gloo] Rank 2 is connected to 7 peer ranks. Expected number of connected peer ranks is : 7
[Gloo] Rank 0 is connected to 7 peer ranks. Expected number of connected peer ranks is : 7
[Gloo] Rank 1 is connected to 7 peer ranks. Expected number of connected peer ranks is : 7
[Gloo] Rank 3 is connected to 7 peer ranks. Expected number of connected peer ranks is : 7
[Gloo] Rank 4 is connected to 7 peer ranks. Expected number of connected peer ranks is : 7
[Gloo] Rank 5 is connected to 7 peer ranks. Expected number of connected peer ranks is : 7
[Gloo] Rank 7 is connected to 7 peer ranks. Expected number of connected peer ranks is : 7
[Gloo] Rank 6 is connected to 7 peer ranks. Expected number of connected peer ranks is : 7
[2025-11-03 11:30:59 DP0 TP0] sglang is using nccl==2.26.6
[Gloo] Rank 0 is connected to 0 peer ranks. Expected number of connected peer ranks is : 0
[Gloo] Rank 0 is connected to 0 peer ranks. Expected number of connected peer ranks is : 0
[Gloo] Rank 0 is connected to 0 peer ranks. Expected number of connected peer ranks is : 0
[Gloo] Rank 0 is connected to 0 peer ranks. Expected number of connected peer ranks is : 0
[Gloo] Rank 0 is connected to 0 peer ranks. Expected number of connected peer ranks is : 0
[Gloo] Rank 0 is connected to 0 peer ranks. Expected number of connected peer ranks is : 0
[Gloo] Rank 0 is connected to 0 peer ranks. Expected number of connected peer ranks is : 0
[Gloo] Rank 0 is connected to 0 peer ranks. Expected number of connected peer ranks is : 0
[Gloo] Rank 0 is connected to 0 peer ranks. Expected number of connected peer ranks is : 0
[Gloo] Rank 0 is connected to 0 peer ranks. Expected number of connected peer ranks is : 0
[Gloo] Rank 0 is connected to 0 peer ranks. Expected number of connected peer ranks is : 0
[Gloo] Rank 0 is connected to 0 peer ranks. Expected number of connected peer ranks is : 0
[Gloo] Rank 0 is connected to 0 peer ranks. Expected number of connected peer ranks is : 0
[Gloo] Rank 0 is connected to 0 peer ranks. Expected number of connected peer ranks is : 0
[Gloo] Rank 0 is connected to 0 peer ranks. Expected number of connected peer ranks is : 0
[Gloo] Rank 0 is connected to 0 peer ranks. Expected number of connected peer ranks is : 0
[Gloo] Rank 0 is connected to 0 peer ranks. Expected number of connected peer ranks is : 0
[Gloo] Rank 0 is connected to 0 peer ranks. Expected number of connected peer ranks is : 0
[Gloo] Rank 0 is connected to 0 peer ranks. Expected number of connected peer ranks is : 0
[Gloo] Rank 0 is connected to 0 peer ranks. Expected number of connected peer ranks is : 0
[Gloo] Rank 0 is connected to 0 peer ranks. Expected number of connected peer ranks is : 0
[Gloo] Rank 0 is connected to 0 peer ranks. Expected number of connected peer ranks is : 0
[Gloo] Rank 0 is connected to 0 peer ranks. Expected number of connected peer ranks is : 0
[Gloo] Rank 0 is connected to 0 peer ranks. Expected number of connected peer ranks is : 0
[2025-11-03 11:31:08 DP7 TP7] Init torch distributed ends. mem usage=3.10 GB
[2025-11-03 11:31:08 DP5 TP5] Init torch distributed ends. mem usage=3.17 GB
[2025-11-03 11:31:08 DP6 TP6] Init torch distributed ends. mem usage=3.11 GB
[2025-11-03 11:31:08 DP4 TP4] Init torch distributed ends. mem usage=3.10 GB
[2025-11-03 11:31:08 DP0 TP0] Init torch distributed ends. mem usage=3.22 GB
[2025-11-03 11:31:08 DP2 TP2] Init torch distributed ends. mem usage=3.24 GB
[2025-11-03 11:31:08 DP3 TP3] Init torch distributed ends. mem usage=3.24 GB
[2025-11-03 11:31:08 DP1 TP1] Init torch distributed ends. mem usage=2.82 GB
/opt/venv/lib/python3.10/site-packages/apex/transformer/functional/fused_rope.py:49: UserWarning: Aiter backend is selected for fused RoPE. This has lower precision. To disable aiter, export USE_ROCM_AITER_ROPE_BACKEND=0
  warnings.warn("Aiter backend is selected for fused RoPE. This has lower precision. To disable aiter, export USE_ROCM_AITER_ROPE_BACKEND=0", UserWarning)
/opt/venv/lib/python3.10/site-packages/apex/transformer/functional/fused_rope.py:49: UserWarning: Aiter backend is selected for fused RoPE. This has lower precision. To disable aiter, export USE_ROCM_AITER_ROPE_BACKEND=0
  warnings.warn("Aiter backend is selected for fused RoPE. This has lower precision. To disable aiter, export USE_ROCM_AITER_ROPE_BACKEND=0", UserWarning)
/opt/venv/lib/python3.10/site-packages/apex/transformer/functional/fused_rope.py:49: UserWarning: Aiter backend is selected for fused RoPE. This has lower precision. To disable aiter, export USE_ROCM_AITER_ROPE_BACKEND=0
  warnings.warn("Aiter backend is selected for fused RoPE. This has lower precision. To disable aiter, export USE_ROCM_AITER_ROPE_BACKEND=0", UserWarning)
/opt/venv/lib/python3.10/site-packages/apex/transformer/functional/fused_rope.py:49: UserWarning: Aiter backend is selected for fused RoPE. This has lower precision. To disable aiter, export USE_ROCM_AITER_ROPE_BACKEND=0
  warnings.warn("Aiter backend is selected for fused RoPE. This has lower precision. To disable aiter, export USE_ROCM_AITER_ROPE_BACKEND=0", UserWarning)
/opt/venv/lib/python3.10/site-packages/apex/transformer/functional/fused_rope.py:49: UserWarning: Aiter backend is selected for fused RoPE. This has lower precision. To disable aiter, export USE_ROCM_AITER_ROPE_BACKEND=0
  warnings.warn("Aiter backend is selected for fused RoPE. This has lower precision. To disable aiter, export USE_ROCM_AITER_ROPE_BACKEND=0", UserWarning)
/opt/venv/lib/python3.10/site-packages/apex/transformer/functional/fused_rope.py:49: UserWarning: Aiter backend is selected for fused RoPE. This has lower precision. To disable aiter, export USE_ROCM_AITER_ROPE_BACKEND=0
  warnings.warn("Aiter backend is selected for fused RoPE. This has lower precision. To disable aiter, export USE_ROCM_AITER_ROPE_BACKEND=0", UserWarning)
/opt/venv/lib/python3.10/site-packages/apex/transformer/functional/fused_rope.py:49: UserWarning: Aiter backend is selected for fused RoPE. This has lower precision. To disable aiter, export USE_ROCM_AITER_ROPE_BACKEND=0
  warnings.warn("Aiter backend is selected for fused RoPE. This has lower precision. To disable aiter, export USE_ROCM_AITER_ROPE_BACKEND=0", UserWarning)
/opt/venv/lib/python3.10/site-packages/apex/transformer/functional/fused_rope.py:49: UserWarning: Aiter backend is selected for fused RoPE. This has lower precision. To disable aiter, export USE_ROCM_AITER_ROPE_BACKEND=0
  warnings.warn("Aiter backend is selected for fused RoPE. This has lower precision. To disable aiter, export USE_ROCM_AITER_ROPE_BACKEND=0", UserWarning)
[2025-11-03 11:31:09 DP4 TP4] Load weight begin. avail mem=284.40 GB
[2025-11-03 11:31:09 DP5 TP5] Load weight begin. avail mem=284.33 GB
[2025-11-03 11:31:09 DP0 TP0] Load weight begin. avail mem=284.28 GB
[2025-11-03 11:31:09 DP0 TP0] Only Deepseek V3/R1 on NV-platform with capability >= 80 can use shared experts fusion optimization. Shared experts fusion optimization is disabled.
[2025-11-03 11:31:09 DP1 TP1] Load weight begin. avail mem=284.68 GB
[2025-11-03 11:31:09 DP7 TP7] Load weight begin. avail mem=284.40 GB
[2025-11-03 11:31:09 DP2 TP2] Load weight begin. avail mem=284.26 GB
[2025-11-03 11:31:09 DP3 TP3] Load weight begin. avail mem=284.26 GB
[2025-11-03 11:31:09 DP6 TP6] Load weight begin. avail mem=284.39 GB
Loading safetensors checkpoint shards:   0% Completed | 0/73 [00:00<?, ?it/s]
Loading safetensors checkpoint shards:   1% Completed | 1/73 [00:00<00:13,  5.45it/s]
Loading safetensors checkpoint shards:   3% Completed | 2/73 [00:00<00:19,  3.72it/s]
Loading safetensors checkpoint shards:   4% Completed | 3/73 [00:00<00:20,  3.43it/s]
Loading safetensors checkpoint shards:   5% Completed | 4/73 [00:01<00:20,  3.30it/s]
Loading safetensors checkpoint shards:   7% Completed | 5/73 [00:01<00:24,  2.79it/s]
Loading safetensors checkpoint shards:   8% Completed | 6/73 [00:01<00:22,  2.97it/s]
Loading safetensors checkpoint shards:  10% Completed | 7/73 [00:02<00:21,  3.05it/s]
Loading safetensors checkpoint shards:  11% Completed | 8/73 [00:02<00:22,  2.88it/s]
Loading safetensors checkpoint shards:  12% Completed | 9/73 [00:02<00:21,  3.03it/s]
Loading safetensors checkpoint shards:  14% Completed | 10/73 [00:03<00:19,  3.28it/s]
Loading safetensors checkpoint shards:  15% Completed | 11/73 [00:03<00:18,  3.31it/s]
Loading safetensors checkpoint shards:  16% Completed | 12/73 [00:03<00:17,  3.41it/s]
Loading safetensors checkpoint shards:  18% Completed | 13/73 [00:03<00:17,  3.51it/s]
Loading safetensors checkpoint shards:  19% Completed | 14/73 [00:04<00:18,  3.15it/s]
Loading safetensors checkpoint shards:  21% Completed | 15/73 [00:05<00:28,  2.04it/s]
Loading safetensors checkpoint shards:  22% Completed | 16/73 [00:05<00:25,  2.25it/s]
Loading safetensors checkpoint shards:  23% Completed | 17/73 [00:05<00:21,  2.64it/s]
Loading safetensors checkpoint shards:  25% Completed | 18/73 [00:06<00:20,  2.65it/s]
Loading safetensors checkpoint shards:  26% Completed | 19/73 [00:06<00:19,  2.70it/s]
Loading safetensors checkpoint shards:  27% Completed | 20/73 [00:06<00:20,  2.64it/s]
Loading safetensors checkpoint shards:  29% Completed | 21/73 [00:07<00:18,  2.76it/s]
Loading safetensors checkpoint shards:  30% Completed | 22/73 [00:07<00:17,  2.99it/s]
Loading safetensors checkpoint shards:  32% Completed | 23/73 [00:07<00:17,  2.91it/s]
Loading safetensors checkpoint shards:  33% Completed | 24/73 [00:08<00:18,  2.70it/s]
Loading safetensors checkpoint shards:  34% Completed | 25/73 [00:08<00:18,  2.66it/s]
Loading safetensors checkpoint shards:  36% Completed | 26/73 [00:09<00:17,  2.69it/s]
Loading safetensors checkpoint shards:  37% Completed | 27/73 [00:09<00:16,  2.79it/s]
Loading safetensors checkpoint shards:  38% Completed | 28/73 [00:09<00:16,  2.71it/s]
Loading safetensors checkpoint shards:  40% Completed | 29/73 [00:10<00:15,  2.82it/s]
Loading safetensors checkpoint shards:  41% Completed | 30/73 [00:10<00:14,  2.90it/s]
Loading safetensors checkpoint shards:  42% Completed | 31/73 [00:10<00:14,  2.86it/s]
Loading safetensors checkpoint shards:  45% Completed | 33/73 [00:11<00:11,  3.56it/s]
Loading safetensors checkpoint shards:  47% Completed | 34/73 [00:11<00:11,  3.46it/s]
Loading safetensors checkpoint shards:  48% Completed | 35/73 [00:12<00:16,  2.29it/s]
Loading safetensors checkpoint shards:  49% Completed | 36/73 [00:12<00:14,  2.57it/s]
Loading safetensors checkpoint shards:  51% Completed | 37/73 [00:12<00:13,  2.65it/s]
Loading safetensors checkpoint shards:  52% Completed | 38/73 [00:13<00:12,  2.75it/s]
Loading safetensors checkpoint shards:  53% Completed | 39/73 [00:13<00:11,  2.99it/s]
Loading safetensors checkpoint shards:  55% Completed | 40/73 [00:13<00:08,  3.68it/s]
Loading safetensors checkpoint shards:  58% Completed | 42/73 [00:13<00:05,  5.63it/s]
Loading safetensors checkpoint shards:  60% Completed | 44/73 [00:14<00:04,  6.80it/s]
Loading safetensors checkpoint shards:  63% Completed | 46/73 [00:14<00:03,  7.97it/s]
Loading safetensors checkpoint shards:  66% Completed | 48/73 [00:14<00:02,  9.65it/s]
Loading safetensors checkpoint shards:  68% Completed | 50/73 [00:14<00:03,  5.92it/s]
Loading safetensors checkpoint shards:  70% Completed | 51/73 [00:15<00:05,  3.80it/s]
Loading safetensors checkpoint shards:  71% Completed | 52/73 [00:16<00:07,  2.68it/s]
Loading safetensors checkpoint shards:  73% Completed | 53/73 [00:17<00:09,  2.09it/s]
Loading safetensors checkpoint shards:  74% Completed | 54/73 [00:18<00:13,  1.38it/s]
Loading safetensors checkpoint shards:  75% Completed | 55/73 [00:19<00:12,  1.49it/s]
Loading safetensors checkpoint shards:  77% Completed | 56/73 [00:19<00:11,  1.53it/s]
Loading safetensors checkpoint shards:  78% Completed | 57/73 [00:20<00:09,  1.75it/s]
Loading safetensors checkpoint shards:  79% Completed | 58/73 [00:20<00:07,  2.02it/s]
Loading safetensors checkpoint shards:  81% Completed | 59/73 [00:20<00:06,  2.18it/s]
Loading safetensors checkpoint shards:  82% Completed | 60/73 [00:21<00:05,  2.22it/s]
Loading safetensors checkpoint shards:  84% Completed | 61/73 [00:21<00:05,  2.26it/s]
Loading safetensors checkpoint shards:  85% Completed | 62/73 [00:22<00:04,  2.42it/s]
Loading safetensors checkpoint shards:  86% Completed | 63/73 [00:22<00:03,  2.54it/s]
Loading safetensors checkpoint shards:  88% Completed | 64/73 [00:22<00:03,  2.44it/s]
Loading safetensors checkpoint shards:  89% Completed | 65/73 [00:23<00:03,  2.52it/s]
Loading safetensors checkpoint shards:  90% Completed | 66/73 [00:23<00:02,  2.64it/s]
Loading safetensors checkpoint shards:  92% Completed | 67/73 [00:23<00:02,  2.55it/s]
Loading safetensors checkpoint shards:  93% Completed | 68/73 [00:24<00:01,  2.70it/s]
Loading safetensors checkpoint shards:  95% Completed | 69/73 [00:24<00:01,  2.62it/s]
Loading safetensors checkpoint shards:  96% Completed | 70/73 [00:25<00:01,  2.72it/s]
Loading safetensors checkpoint shards:  97% Completed | 71/73 [00:25<00:00,  2.64it/s]
Loading safetensors checkpoint shards: 100% Completed | 73/73 [00:26<00:00,  2.92it/s]
Loading safetensors checkpoint shards: 100% Completed | 73/73 [00:26<00:00,  2.81it/s]

[2025-11-03 11:31:36 DP2 TP2] Load weight end. type=DeepseekV3ForCausalLM, dtype=torch.bfloat16, avail mem=235.09 GB, mem usage=49.18 GB.
[2025-11-03 11:31:36 DP3 TP3] Load weight end. type=DeepseekV3ForCausalLM, dtype=torch.bfloat16, avail mem=235.08 GB, mem usage=49.18 GB.
[2025-11-03 11:31:36 DP5 TP5] Load weight end. type=DeepseekV3ForCausalLM, dtype=torch.bfloat16, avail mem=235.15 GB, mem usage=49.18 GB.
[2025-11-03 11:31:36 DP4 TP4] Load weight end. type=DeepseekV3ForCausalLM, dtype=torch.bfloat16, avail mem=235.23 GB, mem usage=49.18 GB.
[2025-11-03 11:31:37 DP7 TP7] Load weight end. type=DeepseekV3ForCausalLM, dtype=torch.bfloat16, avail mem=235.22 GB, mem usage=49.18 GB.
[2025-11-03 11:31:37 DP6 TP6] Load weight end. type=DeepseekV3ForCausalLM, dtype=torch.bfloat16, avail mem=235.21 GB, mem usage=49.18 GB.
[2025-11-03 11:31:37 DP1 TP1] Load weight end. type=DeepseekV3ForCausalLM, dtype=torch.bfloat16, avail mem=235.50 GB, mem usage=49.18 GB.
[2025-11-03 11:31:37 DP0 TP0] Load weight end. type=DeepseekV3ForCausalLM, dtype=torch.bfloat16, avail mem=235.11 GB, mem usage=49.18 GB.
[2025-11-03 11:31:37 DP0 TP0] Using KV cache dtype: torch.bfloat16
[2025-11-03 11:31:37 DP0 TP0] KV Cache is allocated. #tokens: 2201897, KV size: 144.11 GB
[2025-11-03 11:31:37 DP0 TP0] Memory pool end. avail mem=88.43 GB
[2025-11-03 11:31:37 DP1 TP1] KV Cache is allocated. #tokens: 2201897, KV size: 144.11 GB
[2025-11-03 11:31:37 DP1 TP1] Memory pool end. avail mem=88.82 GB
[2025-11-03 11:31:37 DP3 TP3] KV Cache is allocated. #tokens: 2201897, KV size: 144.11 GB
[2025-11-03 11:31:37 DP3 TP3] Memory pool end. avail mem=88.40 GB
[2025-11-03 11:31:37 DP5 TP5] KV Cache is allocated. #tokens: 2201897, KV size: 144.11 GB
[2025-11-03 11:31:37 DP5 TP5] Memory pool end. avail mem=88.47 GB
[2025-11-03 11:31:37 DP7 TP7] KV Cache is allocated. #tokens: 2201897, KV size: 144.11 GB
[2025-11-03 11:31:37 DP7 TP7] Memory pool end. avail mem=88.54 GB
[2025-11-03 11:31:37 DP4 TP4] KV Cache is allocated. #tokens: 2201897, KV size: 144.11 GB
[2025-11-03 11:31:37 DP4 TP4] Memory pool end. avail mem=88.55 GB
[2025-11-03 11:31:37 DP2 TP2] KV Cache is allocated. #tokens: 2201897, KV size: 144.11 GB
[2025-11-03 11:31:37 DP2 TP2] Memory pool end. avail mem=88.41 GB
[2025-11-03 11:31:37 DP6 TP6] KV Cache is allocated. #tokens: 2201897, KV size: 144.11 GB
[2025-11-03 11:31:37 DP6 TP6] Memory pool end. avail mem=88.53 GB
[2025-11-03 11:31:37 DP5 TP5] Capture cuda graph begin. This can take up to several minutes. avail mem=88.34 GB
[2025-11-03 11:31:37 DP4 TP4] Capture cuda graph begin. This can take up to several minutes. avail mem=88.42 GB
[2025-11-03 11:31:37 DP6 TP6] Capture cuda graph begin. This can take up to several minutes. avail mem=88.40 GB
[2025-11-03 11:31:37 DP7 TP7] Capture cuda graph begin. This can take up to several minutes. avail mem=88.42 GB
[2025-11-03 11:31:37 DP3 TP3] Capture cuda graph begin. This can take up to several minutes. avail mem=88.27 GB
[2025-11-03 11:31:37 DP1 TP1] Capture cuda graph begin. This can take up to several minutes. avail mem=88.70 GB
[2025-11-03 11:31:37 DP2 TP2] Capture cuda graph begin. This can take up to several minutes. avail mem=88.28 GB
[2025-11-03 11:31:37 DP0 TP0] Capture cuda graph begin. This can take up to several minutes. avail mem=88.30 GB
[2025-11-03 11:31:37 DP0 TP0] Capture cuda graph bs [1, 2, 4, 8, 12, 16]
  0%|          | 0/6 [00:00<?, ?it/s]Capturing batches (bs=16 avail_mem=88.29 GB):   0%|          | 0/6 [00:00<?, ?it/s]/opt/venv/lib/python3.10/site-packages/torch/_dynamo/variables/functions.py:1652: UserWarning: Dynamo detected a call to a `functools.lru_cache`-wrapped function. Dynamo ignores the cache wrapper and directly traces the wrapped function. Silent incorrectness is only a *potential* risk, not something we have observed. Enable TORCH_LOGS="+dynamo" for a DEBUG stack trace.
  torch._dynamo.utils.warn_once(msg)
/opt/venv/lib/python3.10/site-packages/torch/_dynamo/variables/functions.py:1652: UserWarning: Dynamo detected a call to a `functools.lru_cache`-wrapped function. Dynamo ignores the cache wrapper and directly traces the wrapped function. Silent incorrectness is only a *potential* risk, not something we have observed. Enable TORCH_LOGS="+dynamo" for a DEBUG stack trace.
  torch._dynamo.utils.warn_once(msg)
/opt/venv/lib/python3.10/site-packages/torch/_dynamo/variables/functions.py:1652: UserWarning: Dynamo detected a call to a `functools.lru_cache`-wrapped function. Dynamo ignores the cache wrapper and directly traces the wrapped function. Silent incorrectness is only a *potential* risk, not something we have observed. Enable TORCH_LOGS="+dynamo" for a DEBUG stack trace.
  torch._dynamo.utils.warn_once(msg)
/opt/venv/lib/python3.10/site-packages/torch/_dynamo/variables/functions.py:1652: UserWarning: Dynamo detected a call to a `functools.lru_cache`-wrapped function. Dynamo ignores the cache wrapper and directly traces the wrapped function. Silent incorrectness is only a *potential* risk, not something we have observed. Enable TORCH_LOGS="+dynamo" for a DEBUG stack trace.
  torch._dynamo.utils.warn_once(msg)
/opt/venv/lib/python3.10/site-packages/torch/_dynamo/variables/functions.py:1652: UserWarning: Dynamo detected a call to a `functools.lru_cache`-wrapped function. Dynamo ignores the cache wrapper and directly traces the wrapped function. Silent incorrectness is only a *potential* risk, not something we have observed. Enable TORCH_LOGS="+dynamo" for a DEBUG stack trace.
  torch._dynamo.utils.warn_once(msg)
/opt/venv/lib/python3.10/site-packages/torch/_dynamo/variables/functions.py:1652: UserWarning: Dynamo detected a call to a `functools.lru_cache`-wrapped function. Dynamo ignores the cache wrapper and directly traces the wrapped function. Silent incorrectness is only a *potential* risk, not something we have observed. Enable TORCH_LOGS="+dynamo" for a DEBUG stack trace.
  torch._dynamo.utils.warn_once(msg)
/opt/venv/lib/python3.10/site-packages/torch/_dynamo/variables/functions.py:1652: UserWarning: Dynamo detected a call to a `functools.lru_cache`-wrapped function. Dynamo ignores the cache wrapper and directly traces the wrapped function. Silent incorrectness is only a *potential* risk, not something we have observed. Enable TORCH_LOGS="+dynamo" for a DEBUG stack trace.
  torch._dynamo.utils.warn_once(msg)
/opt/venv/lib/python3.10/site-packages/torch/_dynamo/variables/functions.py:1652: UserWarning: Dynamo detected a call to a `functools.lru_cache`-wrapped function. Dynamo ignores the cache wrapper and directly traces the wrapped function. Silent incorrectness is only a *potential* risk, not something we have observed. Enable TORCH_LOGS="+dynamo" for a DEBUG stack trace.
  torch._dynamo.utils.warn_once(msg)
ler_DP5_TP5: /app/triton/third_party/amd/lib/TritonAMDGPUDialectToLLVM/ScaledUpcastToLLVM.cpp:73: virtual llvm::LogicalResult {anonymous}::ScaledUpcastFp4Pattern::matchAndRewrite(mlir::triton::amdgpu::ScaledUpcastFp4Op, mlir::ConvertOpToLLVMPattern<mlir::triton::amdgpu::ScaledUpcastFp4Op>::OpAdaptor, mlir::ConversionPatternRewriter&) const: Assertion `inputVals.size() % 4 == 0' failed.
#blocked = #ttg.blocked<{sizePerThread = [1, 1, 2], threadsPerWarp = [1, 4, 16], warpsPerCTA = [4, 1, 1], order = [2, 1, 0]}>
#blocked1 = #ttg.blocked<{sizePerThread = [1, 2], threadsPerWarp = [1, 64], warpsPerCTA = [4, 1], order = [1, 0]}>
#blocked2 = #ttg.blocked<{sizePerThread = [1, 1, 1], threadsPerWarp = [1, 4, 16], warpsPerCTA = [4, 1, 1], order = [2, 1, 0]}>
#blocked3 = #ttg.blocked<{sizePerThread = [1, 1], threadsPerWarp = [2, 32], warpsPerCTA = [4, 1], order = [1, 0]}>
#blocked4 = #ttg.blocked<{sizePerThread = [1, 1, 2], threadsPerWarp = [1, 32, 2], warpsPerCTA = [1, 1, 4], order = [1, 2, 0]}>
#blocked5 = #ttg.blocked<{sizePerThread = [2, 1], threadsPerWarp = [2, 32], warpsPerCTA = [4, 1], order = [1, 0]}>
#blocked6 = #ttg.blocked<{sizePerThread = [8, 1], threadsPerWarp = [8, 8], warpsPerCTA = [1, 4], order = [0, 1]}>
#blocked7 = #ttg.blocked<{sizePerThread = [1, 1, 1, 2], threadsPerWarp = [1, 4, 16, 1], warpsPerCTA = [4, 1, 1, 1], order = [3, 2, 1, 0]}>
#blocked8 = #ttg.blocked<{sizePerThread = [1, 1], threadsPerWarp = [1, 64], warpsPerCTA = [4, 1], order = [1, 0]}>
#blocked9 = #ttg.blocked<{sizePerThread = [1, 2, 1], threadsPerWarp = [1, 2, 32], warpsPerCTA = [1, 4, 1], order = [2, 1, 0]}>
#linear = #ttg.linear<{register = [], lane = [[0, 0, 0], [0, 0, 0], [0, 0, 0], [0, 0, 0], [0, 1, 0], [0, 2, 0]], warp = [[1, 0, 0], [2, 0, 0]], block = []}>
#linear1 = #ttg.linear<{register = [[0, 1], [0, 2]], lane = [[1, 0], [2, 0], [4, 0], [8, 0], [16, 0], [0, 0]], warp = [[0, 0], [0, 0]], block = []}>
#linear2 = #ttg.linear<{register = [[0, 0]], lane = [[0, 0], [0, 0], [0, 0], [0, 0], [0, 1], [0, 2]], warp = [[1, 0], [2, 0]], block = []}>
#shared = #ttg.swizzled_shared<{vec = 1, perPhase = 1, maxPhase = 1, order = [1, 0]}>
#smem = #ttg.shared_memory
module attributes {"ttg.num-ctas" = 1 : i32, "ttg.num-warps" = 4 : i32, ttg.target = "hip:gfx950", "ttg.threads-per-warp" = 64 : i32} {
  tt.func public @_batched_gemm_afp4_wfp4_pre_quant_kernel(%arg0: !tt.ptr<bf16> {tt.divisibility = 16 : i32}, %arg1: !tt.ptr<i8> {tt.divisibility = 16 : i32}, %arg2: !tt.ptr<bf16> {tt.divisibility = 16 : i32}, %arg3: !tt.ptr<i8> {tt.divisibility = 16 : i32}, %arg4: i32 {tt.divisibility = 16 : i32}, %arg5: i32 {tt.divisibility = 16 : i32}, %arg6: i32 {tt.divisibility = 16 : i32}, %arg7: i32 {tt.divisibility = 16 : i32}, %arg8: i32 {tt.divisibility = 16 : i32}, %arg9: i32 {tt.divisibility = 16 : i32}, %arg10: i32 {tt.divisibility = 16 : i32}, %arg11: i32 {tt.divisibility = 16 : i32}, %arg12: i32 {tt.divisibility = 16 : i32}, %arg13: i32 {tt.divisibility = 16 : i32}, %arg14: i32 {tt.divisibility = 16 : i32}, %arg15: i32) attributes {noinline = false} {
    %cst = arith.constant dense<127> : tensor<4x4x1xi8, #blocked>
    %cst_0 = arith.constant dense<0x7FC0> : tensor<4x128xbf16, #blocked1>
    %cst_1 = arith.constant dense<2097152> : tensor<4x4x1xi32, #blocked>
    %cst_2 = arith.constant dense<4> : tensor<4x4x16xi8, #blocked2>
    %c31_i32 = arith.constant 31 : i32
    %cst_3 = arith.constant dense<0.000000e+00> : tensor<4x32xf32, #blocked3>
    %c32_i32 = arith.constant 32 : i32
    %c4_i32 = arith.constant 4 : i32
    %true = arith.constant true
    %c0_i32 = arith.constant 0 : i32
    %cst_4 = arith.constant dense<-8388608> : tensor<4x4x1xi32, #blocked>
    %cst_5 = arith.constant dense<2.000000e+00> : tensor<4x4x1xf32, #blocked>
    %cst_6 = arith.constant dense<0.000000e+00> : tensor<4x4x1xf32, #blocked>
    %cst_7 = arith.constant dense<-2147483648> : tensor<4x4x32xi32, #blocked>
    %cst_8 = arith.constant dense<23> : tensor<4x4x32xi32, #blocked>
    %cst_9 = arith.constant dense<255> : tensor<4x4x32xi32, #blocked>
    %cst_10 = arith.constant dense<8388607> : tensor<4x4x32xi32, #blocked>
    %cst_11 = arith.constant dense<1> : tensor<4x4x32xi32, #blocked>
    %cst_12 = arith.constant dense<127> : tensor<4x4x32xi32, #blocked>
    %cst_13 = arith.constant dense<4194304> : tensor<4x4x32xi32, #blocked>
    %cst_14 = arith.constant dense<126> : tensor<4x4x32xi32, #blocked>
    %cst_15 = arith.constant dense<2> : tensor<4x4x32xi32, #blocked>
    %cst_16 = arith.constant dense<21> : tensor<4x4x32xi32, #blocked>
    %cst_17 = arith.constant dense<28> : tensor<4x4x32xi32, #blocked>
    %cst_18 = arith.constant dense<-1.270000e+02> : tensor<4x4x1xf32, #blocked>
    %cst_19 = arith.constant dense<7> : tensor<4x32xi16, #ttg.slice<{dim = 2, parent = #blocked4}>>
    %cst_20 = arith.constant dense<-1> : tensor<4x32xi8, #ttg.slice<{dim = 2, parent = #blocked4}>>
    %cst_21 = arith.constant dense<0x7FC0> : tensor<128x32xbf16, #blocked5>
    %cst_22 = arith.constant dense<7> : tensor<4x4x32xi32, #blocked>
    %cst_23 = arith.constant dense<1.270000e+02> : tensor<4x4x1xf32, #blocked>
    %cst_24 = arith.constant dense<1.270000e+02> : tensor<4x4x1xf32, #linear>
    %cst_25 = arith.constant dense<-1.270000e+02> : tensor<4x4x1xf32, #linear>
    %cst_26 = arith.constant dense<2.000000e+00> : tensor<4x4x1xf32, #linear>
    %cst_27 = arith.constant dense<-8388608> : tensor<4x4x1xi32, #linear>
    %cst_28 = arith.constant dense<2097152> : tensor<4x4x1xi32, #linear>
    %cst_29 = arith.constant dense<127> : tensor<4x4x1xi8, #linear>
    %cst_30 = arith.constant dense<7> : tensor<4x4xi16, #ttg.slice<{dim = 2, parent = #blocked}>>
    %cst_31 = arith.constant dense<-1> : tensor<4x4xi8, #ttg.slice<{dim = 2, parent = #blocked}>>
    llvm.intr.assume %true : i1
    llvm.intr.assume %true : i1
    llvm.intr.assume %true : i1
    llvm.intr.assume %true : i1
    llvm.intr.assume %true : i1
    llvm.intr.assume %true : i1
    llvm.intr.assume %true : i1
    llvm.intr.assume %true : i1
    llvm.intr.assume %true : i1
    llvm.intr.assume %true : i1
    llvm.intr.assume %true : i1
    llvm.intr.assume %true : i1
    %0 = tt.get_program_id x : i32
    %1 = tt.get_program_id y : i32
    %2 = arith.addi %arg5, %c31_i32 : i32
    %3 = arith.divsi %2, %c32_i32 : i32
    %4 = arith.extsi %arg7 : i32 to i64
    %5 = arith.extsi %arg9 : i32 to i64
    %6 = arith.extsi %arg11 : i32 to i64
    %7 = arith.extsi %0 : i32 to i64
    %8 = arith.divsi %1, %3 : i32
    %9 = arith.remsi %1, %3 : i32
    llvm.intr.assume %true : i1
    llvm.intr.assume %true : i1
    llvm.intr.assume %true : i1
    %10 = arith.cmpi sgt, %arg6, %c0_i32 : i32
    scf.if %10 {
      %11 = arith.muli %8, %c4_i32 : i32
      %12 = tt.make_range {end = 4 : i32, start = 0 : i32} : tensor<4xi32, #ttg.slice<{dim = 1, parent = #blocked1}>>
      %13 = tt.make_range {end = 4 : i32, start = 0 : i32} : tensor<4xi32, #ttg.slice<{dim = 1, parent = #blocked3}>>
      %14 = tt.splat %11 : i32 -> tensor<4xi32, #ttg.slice<{dim = 1, parent = #blocked1}>>
      %15 = arith.addi %14, %12 : tensor<4xi32, #ttg.slice<{dim = 1, parent = #blocked1}>>
      %16 = tt.splat %arg4 : i32 -> tensor<4xi32, #ttg.slice<{dim = 1, parent = #blocked1}>>
      %17 = arith.remsi %15, %16 : tensor<4xi32, #ttg.slice<{dim = 1, parent = #blocked1}>>
      %18 = arith.muli %7, %4 : i64
      %19 = tt.expand_dims %17 {axis = 1 : i32} : tensor<4xi32, #ttg.slice<{dim = 1, parent = #blocked1}>> -> tensor<4x1xi32, #blocked1>
      %20 = tt.splat %arg8 : i32 -> tensor<4x1xi32, #blocked1>
      %21 = arith.muli %19, %20 : tensor<4x1xi32, #blocked1>
      %22 = arith.extsi %21 : tensor<4x1xi32, #blocked1> to tensor<4x1xi64, #blocked1>
      %23 = tt.make_range {end = 128 : i32, start = 0 : i32} : tensor<128xi32, #ttg.slice<{dim = 0, parent = #blocked1}>>
      %24 = tt.expand_dims %23 {axis = 0 : i32} : tensor<128xi32, #ttg.slice<{dim = 0, parent = #blocked1}>> -> tensor<1x128xi32, #blocked1>
      %25 = arith.extsi %24 : tensor<1x128xi32, #blocked1> to tensor<1x128xi64, #blocked1>
      %26 = tt.broadcast %22 : tensor<4x1xi64, #blocked1> -> tensor<4x128xi64, #blocked1>
      %27 = tt.broadcast %25 : tensor<1x128xi64, #blocked1> -> tensor<4x128xi64, #blocked1>
      %28 = arith.addi %26, %27 : tensor<4x128xi64, #blocked1>
      %29 = tt.addptr %arg0, %18 : !tt.ptr<bf16>, i64
      %30 = arith.muli %9, %c32_i32 : i32
      %31 = tt.make_range {end = 32 : i32, start = 0 : i32} : tensor<32xi32, #ttg.slice<{dim = 0, parent = #blocked6}>>
      %32 = tt.make_range {end = 32 : i32, start = 0 : i32} : tensor<32xi32, #ttg.slice<{dim = 0, parent = #blocked3}>>
      %33 = tt.make_range {end = 32 : i32, start = 0 : i32} : tensor<32xi32, #ttg.slice<{dim = 1, parent = #linear1}>>
      %34 = tt.splat %30 : i32 -> tensor<32xi32, #ttg.slice<{dim = 0, parent = #blocked6}>>
      %35 = tt.splat %30 : i32 -> tensor<32xi32, #ttg.slice<{dim = 1, parent = #linear1}>>
      %36 = arith.addi %34, %31 : tensor<32xi32, #ttg.slice<{dim = 0, parent = #blocked6}>>
      %37 = arith.addi %35, %33 : tensor<32xi32, #ttg.slice<{dim = 1, parent = #linear1}>>
      %38 = tt.splat %arg5 : i32 -> tensor<32xi32, #ttg.slice<{dim = 0, parent = #blocked6}>>
      %39 = tt.splat %arg5 : i32 -> tensor<32xi32, #ttg.slice<{dim = 1, parent = #linear1}>>
      %40 = arith.remsi %36, %38 : tensor<32xi32, #ttg.slice<{dim = 0, parent = #blocked6}>>
      %41 = arith.remsi %37, %39 : tensor<32xi32, #ttg.slice<{dim = 1, parent = #linear1}>>
      %42 = arith.muli %7, %5 : i64
      %43 = tt.make_range {end = 64 : i32, start = 0 : i32} : tensor<64xi32, #ttg.slice<{dim = 1, parent = #blocked6}>>
      %44 = tt.expand_dims %43 {axis = 1 : i32} : tensor<64xi32, #ttg.slice<{dim = 1, parent = #blocked6}>> -> tensor<64x1xi32, #blocked6>
      %45 = arith.extsi %44 : tensor<64x1xi32, #blocked6> to tensor<64x1xi64, #blocked6>
      %46 = tt.expand_dims %40 {axis = 0 : i32} : tensor<32xi32, #ttg.slice<{dim = 0, parent = #blocked6}>> -> tensor<1x32xi32, #blocked6>
      %47 = tt.splat %arg10 : i32 -> tensor<1x32xi32, #blocked6>
      %48 = arith.muli %46, %47 : tensor<1x32xi32, #blocked6>
      %49 = arith.extsi %48 : tensor<1x32xi32, #blocked6> to tensor<1x32xi64, #blocked6>
      %50 = tt.broadcast %45 : tensor<64x1xi64, #blocked6> -> tensor<64x32xi64, #blocked6>
      %51 = tt.broadcast %49 : tensor<1x32xi64, #blocked6> -> tensor<64x32xi64, #blocked6>
      %52 = arith.addi %50, %51 : tensor<64x32xi64, #blocked6>
      %53 = tt.addptr %arg1, %42 : !tt.ptr<i8>, i64
      %54 = arith.extsi %arg14 : i32 to i64
      %55 = arith.muli %7, %54 : i64
      %56 = tt.addptr %arg3, %55 : !tt.ptr<i8>, i64
      %57 = tt.expand_dims %41 {axis = 1 : i32} : tensor<32xi32, #ttg.slice<{dim = 1, parent = #linear1}>> -> tensor<32x1xi32, #linear1>
      %58 = tt.splat %arg15 : i32 -> tensor<32x1xi32, #linear1>
      %59 = arith.muli %57, %58 : tensor<32x1xi32, #linear1>
      %60 = arith.extsi %59 : tensor<32x1xi32, #linear1> to tensor<32x1xi64, #linear1>
      %61 = tt.make_range {end = 4 : i32, start = 0 : i32} : tensor<4xi32, #ttg.slice<{dim = 0, parent = #linear1}>>
      %62 = tt.broadcast %60 : tensor<32x1xi64, #linear1> -> tensor<32x4xi64, #linear1>
      %63 = tt.expand_dims %61 {axis = 0 : i32} : tensor<4xi32, #ttg.slice<{dim = 0, parent = #linear1}>> -> tensor<1x4xi32, #linear1>
      %64 = tt.broadcast %63 : tensor<1x4xi32, #linear1> -> tensor<32x4xi32, #linear1>
      %65 = arith.extsi %64 : tensor<32x4xi32, #linear1> to tensor<32x4xi64, #linear1>
      %66 = arith.addi %65, %62 : tensor<32x4xi64, #linear1>
      %67 = tt.splat %56 : !tt.ptr<i8> -> tensor<32x4x!tt.ptr<i8>, #linear1>
      %68 = tt.addptr %67, %66 : tensor<32x4x!tt.ptr<i8>, #linear1>, tensor<32x4xi64, #linear1>
      %69 = tt.load %68 : tensor<32x4x!tt.ptr<i8>, #linear1>
      %70 = tt.trans %69 {order = array<i32: 1, 0>} : tensor<32x4xi8, #linear1> -> tensor<4x32xi8, #ttg.slice<{dim = 2, parent = #blocked4}>>
      %71 = tt.splat %29 : !tt.ptr<bf16> -> tensor<4x128x!tt.ptr<bf16>, #blocked1>
      %72 = tt.addptr %71, %28 : tensor<4x128x!tt.ptr<bf16>, #blocked1>, tensor<4x128xi64, #blocked1>
      %73 = tt.load %72 : tensor<4x128x!tt.ptr<bf16>, #blocked1>
      %74 = tt.splat %53 : !tt.ptr<i8> -> tensor<64x32x!tt.ptr<i8>, #blocked6>
      %75 = tt.addptr %74, %52 : tensor<64x32x!tt.ptr<i8>, #blocked6>, tensor<64x32xi64, #blocked6>
      %76 = tt.load %75 cacheModifier = cg : tensor<64x32x!tt.ptr<i8>, #blocked6>
      %77 = ttg.convert_layout %76 : tensor<64x32xi8, #blocked6> -> tensor<64x32xi8, #blocked3>
      %78 = tt.reshape %73 : tensor<4x128xbf16, #blocked1> -> tensor<4x4x32xbf16, #blocked>
      %79 = math.absf %78 : tensor<4x4x32xbf16, #blocked>
      %80 = arith.extf %79 : tensor<4x4x32xbf16, #blocked> to tensor<4x4x32xf32, #blocked>
      %81 = "tt.reduce"(%80) <{axis = 2 : i32}> ({
      ^bb0(%arg16: f32, %arg17: f32):
        %209 = arith.maxnumf %arg16, %arg17 : f32
        tt.reduce.return %209 : f32
      }) : (tensor<4x4x32xf32, #blocked>) -> tensor<4x4xf32, #ttg.slice<{dim = 2, parent = #blocked}>>
      %82 = ttg.convert_layout %81 : tensor<4x4xf32, #ttg.slice<{dim = 2, parent = #blocked}>> -> tensor<4x4xf32, #ttg.slice<{dim = 2, parent = #linear}>>
      %83 = tt.expand_dims %82 {axis = 2 : i32} : tensor<4x4xf32, #ttg.slice<{dim = 2, parent = #linear}>> -> tensor<4x4x1xf32, #linear>
      %84 = tt.expand_dims %81 {axis = 2 : i32} : tensor<4x4xf32, #ttg.slice<{dim = 2, parent = #blocked}>> -> tensor<4x4x1xf32, #blocked>
      %85 = tt.bitcast %83 : tensor<4x4x1xf32, #linear> -> tensor<4x4x1xi32, #linear>
      %86 = tt.bitcast %84 : tensor<4x4x1xf32, #blocked> -> tensor<4x4x1xi32, #blocked>
      %87 = arith.addi %85, %cst_28 : tensor<4x4x1xi32, #linear>
      %88 = arith.addi %86, %cst_1 : tensor<4x4x1xi32, #blocked>
      %89 = tt.bitcast %87 : tensor<4x4x1xi32, #linear> -> tensor<4x4x1xi32, #linear>
      %90 = tt.bitcast %88 : tensor<4x4x1xi32, #blocked> -> tensor<4x4x1xi32, #blocked>
      %91 = arith.andi %89, %cst_27 : tensor<4x4x1xi32, #linear>
      %92 = arith.andi %90, %cst_4 : tensor<4x4x1xi32, #blocked>
      %93 = tt.bitcast %91 : tensor<4x4x1xi32, #linear> -> tensor<4x4x1xf32, #linear>
      %94 = tt.bitcast %92 : tensor<4x4x1xi32, #blocked> -> tensor<4x4x1xf32, #blocked>
      %95 = math.log2 %93 : tensor<4x4x1xf32, #linear>
      %96 = math.log2 %94 : tensor<4x4x1xf32, #blocked>
      %97 = math.floor %95 : tensor<4x4x1xf32, #linear>
      %98 = math.floor %96 : tensor<4x4x1xf32, #blocked>
      %99 = arith.subf %97, %cst_26 : tensor<4x4x1xf32, #linear>
      %100 = arith.subf %98, %cst_5 : tensor<4x4x1xf32, #blocked>
      %101 = tt.clampf %99, %cst_25, %cst_24, propagateNan = none : tensor<4x4x1xf32, #linear>
      %102 = tt.clampf %100, %cst_18, %cst_23, propagateNan = none : tensor<4x4x1xf32, #blocked>
      %103 = arith.fptoui %101 : tensor<4x4x1xf32, #linear> to tensor<4x4x1xi8, #linear>
      %104 = arith.fptoui %102 : tensor<4x4x1xf32, #blocked> to tensor<4x4x1xi8, #blocked>
      %105 = arith.addi %103, %cst_29 : tensor<4x4x1xi8, #linear>
      %106 = arith.addi %104, %cst : tensor<4x4x1xi8, #blocked>
      %107 = arith.subf %cst_6, %102 : tensor<4x4x1xf32, #blocked>
      %108 = math.exp2 %107 : tensor<4x4x1xf32, #blocked>
      %109 = arith.extf %78 : tensor<4x4x32xbf16, #blocked> to tensor<4x4x32xf32, #blocked>
      %110 = tt.broadcast %108 : tensor<4x4x1xf32, #blocked> -> tensor<4x4x32xf32, #blocked>
      %111 = arith.mulf %109, %110 : tensor<4x4x32xf32, #blocked>
      %112 = tt.bitcast %111 : tensor<4x4x32xf32, #blocked> -> tensor<4x4x32xi32, #blocked>
      %113 = arith.andi %112, %cst_7 : tensor<4x4x32xi32, #blocked>
      %114 = arith.shrui %112, %cst_8 : tensor<4x4x32xi32, #blocked>
      %115 = arith.andi %114, %cst_9 : tensor<4x4x32xi32, #blocked>
      %116 = arith.andi %112, %cst_10 : tensor<4x4x32xi32, #blocked>
      %117 = arith.addi %115, %cst_11 : tensor<4x4x32xi32, #blocked>
      %118 = arith.subi %cst_12, %117 : tensor<4x4x32xi32, #blocked>
      %119 = arith.cmpi ult, %115, %cst_12 : tensor<4x4x32xi32, #blocked>
      %120 = arith.shrui %116, %cst_11 : tensor<4x4x32xi32, #blocked>
      %121 = arith.ori %120, %cst_13 : tensor<4x4x32xi32, #blocked>
      %122 = arith.shrui %121, %118 : tensor<4x4x32xi32, #blocked>
      %123 = arith.select %119, %122, %116 : tensor<4x4x32xi1, #blocked>, tensor<4x4x32xi32, #blocked>
      %124 = arith.maxui %115, %cst_14 : tensor<4x4x32xi32, #blocked>
      %125 = arith.subi %124, %cst_14 : tensor<4x4x32xi32, #blocked>
      %126 = arith.shli %125, %cst_15 : tensor<4x4x32xi32, #blocked>
      %127 = arith.shrui %123, %cst_16 : tensor<4x4x32xi32, #blocked>
      %128 = arith.ori %126, %127 : tensor<4x4x32xi32, #blocked>
      %129 = arith.addi %128, %cst_11 : tensor<4x4x32xi32, #blocked>
      %130 = arith.shrui %129, %cst_11 : tensor<4x4x32xi32, #blocked>
      %131 = arith.minui %130, %cst_22 : tensor<4x4x32xi32, #blocked>
      %132 = arith.shrui %113, %cst_17 : tensor<4x4x32xi32, #blocked>
      %133 = arith.ori %132, %131 : tensor<4x4x32xi32, #blocked>
      %134 = arith.trunci %133 : tensor<4x4x32xi32, #blocked> to tensor<4x4x32xi8, #blocked>
      %135 = tt.reshape %134 : tensor<4x4x32xi8, #blocked> -> tensor<4x4x16x2xi8, #blocked7>
      %outLHS, %outRHS = tt.split %135 : tensor<4x4x16x2xi8, #blocked7> -> tensor<4x4x16xi8, #blocked2>
      %136 = arith.shli %outRHS, %cst_2 : tensor<4x4x16xi8, #blocked2>
      %137 = arith.ori %outLHS, %136 : tensor<4x4x16xi8, #blocked2>
      %138 = tt.reshape %137 : tensor<4x4x16xi8, #blocked2> -> tensor<4x64xi8, #blocked8>
      %139 = tt.reshape %105 : tensor<4x4x1xi8, #linear> -> tensor<4x4xi8, #ttg.slice<{dim = 2, parent = #blocked}>>
      %140 = tt.reshape %106 : tensor<4x4x1xi8, #blocked> -> tensor<4x4xi8, #linear2>
      %141 = ttg.convert_layout %140 : tensor<4x4xi8, #linear2> -> tensor<4x4xi8, #ttg.slice<{dim = 2, parent = #blocked}>>
      %142 = arith.extui %141 : tensor<4x4xi8, #ttg.slice<{dim = 2, parent = #blocked}>> to tensor<4x4xi16, #ttg.slice<{dim = 2, parent = #blocked}>>
      %143 = arith.shli %142, %cst_30 : tensor<4x4xi16, #ttg.slice<{dim = 2, parent = #blocked}>>
      %144 = tt.bitcast %143 : tensor<4x4xi16, #ttg.slice<{dim = 2, parent = #blocked}>> -> tensor<4x4xbf16, #ttg.slice<{dim = 2, parent = #blocked}>>
      %145 = tt.expand_dims %144 {axis = 2 : i32} : tensor<4x4xbf16, #ttg.slice<{dim = 2, parent = #blocked}>> -> tensor<4x4x1xbf16, #blocked>
      %146 = tt.broadcast %145 : tensor<4x4x1xbf16, #blocked> -> tensor<4x4x32xbf16, #blocked>
      %147 = tt.reshape %146 : tensor<4x4x32xbf16, #blocked> -> tensor<4x128xbf16, #blocked1>
      %148 = amdgpu.scaled_upcast_fp4 %138 scale %147 {axis = 1 : i32} : tensor<4x64xi8, #blocked8>, tensor<4x128xbf16, #blocked1> -> tensor<4x128xbf16, #blocked1>
      %149 = arith.cmpi eq, %139, %cst_31 : tensor<4x4xi8, #ttg.slice<{dim = 2, parent = #blocked}>>
      %150 = tt.expand_dims %149 {axis = 2 : i32} : tensor<4x4xi1, #ttg.slice<{dim = 2, parent = #blocked}>> -> tensor<4x4x1xi1, #blocked>
      %151 = tt.broadcast %150 : tensor<4x4x1xi1, #blocked> -> tensor<4x4x32xi1, #blocked>
      %152 = tt.reshape %151 : tensor<4x4x32xi1, #blocked> -> tensor<4x128xi1, #blocked1>
      %153 = arith.select %152, %cst_0, %148 : tensor<4x128xi1, #blocked1>, tensor<4x128xbf16, #blocked1>
      %154 = ttg.local_alloc %153 : (tensor<4x128xbf16, #blocked1>) -> !ttg.memdesc<4x128xbf16, #shared, #smem>
      %155 = ttg.local_load %154 : !ttg.memdesc<4x128xbf16, #shared, #smem> -> tensor<4x128xbf16, #ttg.dot_op<{opIdx = 0, parent = #blocked3}>>
      %156 = arith.extui %70 : tensor<4x32xi8, #ttg.slice<{dim = 2, parent = #blocked4}>> to tensor<4x32xi16, #ttg.slice<{dim = 2, parent = #blocked4}>>
      %157 = arith.shli %156, %cst_19 : tensor<4x32xi16, #ttg.slice<{dim = 2, parent = #blocked4}>>
      %158 = tt.bitcast %157 : tensor<4x32xi16, #ttg.slice<{dim = 2, parent = #blocked4}>> -> tensor<4x32xbf16, #ttg.slice<{dim = 2, parent = #blocked4}>>
      %159 = tt.expand_dims %158 {axis = 2 : i32} : tensor<4x32xbf16, #ttg.slice<{dim = 2, parent = #blocked4}>> -> tensor<4x32x1xbf16, #blocked4>
      %160 = tt.broadcast %159 : tensor<4x32x1xbf16, #blocked4> -> tensor<4x32x32xbf16, #blocked4>
      %161 = tt.trans %160 {order = array<i32: 0, 2, 1>} : tensor<4x32x32xbf16, #blocked4> -> tensor<4x32x32xbf16, #blocked9>
      %162 = tt.reshape %161 : tensor<4x32x32xbf16, #blocked9> -> tensor<128x32xbf16, #blocked5>
      %163 = amdgpu.scaled_upcast_fp4 %77 scale %162 {axis = 0 : i32} : tensor<64x32xi8, #blocked3>, tensor<128x32xbf16, #blocked5> -> tensor<128x32xbf16, #blocked5>
      %164 = arith.cmpi eq, %70, %cst_20 : tensor<4x32xi8, #ttg.slice<{dim = 2, parent = #blocked4}>>
      %165 = tt.expand_dims %164 {axis = 2 : i32} : tensor<4x32xi1, #ttg.slice<{dim = 2, parent = #blocked4}>> -> tensor<4x32x1xi1, #blocked4>
      %166 = tt.broadcast %165 : tensor<4x32x1xi1, #blocked4> -> tensor<4x32x32xi1, #blocked4>
      %167 = tt.trans %166 {order = array<i32: 0, 2, 1>} : tensor<4x32x32xi1, #blocked4> -> tensor<4x32x32xi1, #blocked9>
      %168 = tt.reshape %167 : tensor<4x32x32xi1, #blocked9> -> tensor<128x32xi1, #blocked5>
      %169 = arith.select %168, %cst_21, %163 : tensor<128x32xi1, #blocked5>, tensor<128x32xbf16, #blocked5>
      %170 = ttg.local_alloc %169 : (tensor<128x32xbf16, #blocked5>) -> !ttg.memdesc<128x32xbf16, #shared, #smem>
      %171 = ttg.local_load %170 : !ttg.memdesc<128x32xbf16, #shared, #smem> -> tensor<128x32xbf16, #ttg.dot_op<{opIdx = 1, parent = #blocked3}>>
      %172 = tt.dot %155, %171, %cst_3 : tensor<4x128xbf16, #ttg.dot_op<{opIdx = 0, parent = #blocked3}>> * tensor<128x32xbf16, #ttg.dot_op<{opIdx = 1, parent = #blocked3}>> -> tensor<4x32xf32, #blocked3>
      %173 = arith.addf %172, %cst_3 : tensor<4x32xf32, #blocked3>
      %174 = arith.truncf %173 : tensor<4x32xf32, #blocked3> to tensor<4x32xbf16, #blocked3>
      %175 = arith.extsi %13 : tensor<4xi32, #ttg.slice<{dim = 1, parent = #blocked3}>> to tensor<4xi64, #ttg.slice<{dim = 1, parent = #blocked3}>>
      %176 = arith.extsi %11 : i32 to i64
      %177 = tt.splat %176 : i64 -> tensor<4xi64, #ttg.slice<{dim = 1, parent = #blocked3}>>
      %178 = arith.addi %177, %175 : tensor<4xi64, #ttg.slice<{dim = 1, parent = #blocked3}>>
      %179 = arith.extsi %32 : tensor<32xi32, #ttg.slice<{dim = 0, parent = #blocked3}>> to tensor<32xi64, #ttg.slice<{dim = 0, parent = #blocked3}>>
      %180 = arith.extsi %30 : i32 to i64
      %181 = tt.splat %180 : i64 -> tensor<32xi64, #ttg.slice<{dim = 0, parent = #blocked3}>>
      %182 = arith.addi %181, %179 : tensor<32xi64, #ttg.slice<{dim = 0, parent = #blocked3}>>
      %183 = arith.muli %7, %6 : i64
      %184 = tt.addptr %arg2, %183 : !tt.ptr<bf16>, i64
      %185 = tt.expand_dims %178 {axis = 1 : i32} : tensor<4xi64, #ttg.slice<{dim = 1, parent = #blocked3}>> -> tensor<4x1xi64, #blocked3>
      %186 = arith.extsi %arg13 : i32 to i64
      %187 = tt.expand_dims %175 {axis = 1 : i32} : tensor<4xi64, #ttg.slice<{dim = 1, parent = #blocked3}>> -> tensor<4x1xi64, #blocked3>
      %188 = arith.muli %186, %176 : i64
      %189 = tt.splat %186 : i64 -> tensor<4x1xi64, #blocked3>
      %190 = arith.muli %189, %187 : tensor<4x1xi64, #blocked3>
      %191 = tt.addptr %184, %188 : !tt.ptr<bf16>, i64
      %192 = tt.expand_dims %182 {axis = 0 : i32} : tensor<32xi64, #ttg.slice<{dim = 0, parent = #blocked3}>> -> tensor<1x32xi64, #blocked3>
      %193 = tt.broadcast %190 : tensor<4x1xi64, #blocked3> -> tensor<4x32xi64, #blocked3>
      %194 = tt.expand_dims %179 {axis = 0 : i32} : tensor<32xi64, #ttg.slice<{dim = 0, parent = #blocked3}>> -> tensor<1x32xi64, #blocked3>
      %195 = tt.broadcast %194 : tensor<1x32xi64, #blocked3> -> tensor<4x32xi64, #blocked3>
      %196 = tt.addptr %191, %180 : !tt.ptr<bf16>, i64
      %197 = arith.addi %195, %193 : tensor<4x32xi64, #blocked3>
      %198 = arith.extsi %arg4 : i32 to i64
      %199 = tt.splat %198 : i64 -> tensor<4x1xi64, #blocked3>
      %200 = arith.cmpi slt, %185, %199 : tensor<4x1xi64, #blocked3>
      %201 = arith.extsi %arg5 : i32 to i64
      %202 = tt.splat %201 : i64 -> tensor<1x32xi64, #blocked3>
      %203 = arith.cmpi slt, %192, %202 : tensor<1x32xi64, #blocked3>
      %204 = tt.broadcast %200 : tensor<4x1xi1, #blocked3> -> tensor<4x32xi1, #blocked3>
      %205 = tt.broadcast %203 : tensor<1x32xi1, #blocked3> -> tensor<4x32xi1, #blocked3>
      %206 = arith.andi %204, %205 : tensor<4x32xi1, #blocked3>
      %207 = tt.splat %196 : !tt.ptr<bf16> -> tensor<4x32x!tt.ptr<bf16>, #blocked3>
      %208 = tt.addptr %207, %197 : tensor<4x32x!tt.ptr<bf16>, #blocked3>, tensor<4x32xi64, #blocked3>
      tt.store %208, %174, %206 : tensor<4x32x!tt.ptr<bf16>, #blocked3>
    }
    tt.return
  }
}

{-#
  external_resources: {
    mlir_reproducer: {
      pipeline: "builtin.module(optimize-amd-lds-usage{lds-limit=0 target-arch=gfx950}, triton-scf-to-cf, convert-index-to-llvm{index-bitwidth=0}, allocate-amdgpu-shared-memory, convert-triton-amdgpu-to-llvm{arch=gfx950 ftz=true}, canonicalize{  max-iterations=10 max-num-rewrites=-1 region-simplify=normal test-convergence=false top-down=true}, cse, convert-cf-to-llvm{index-bitwidth=0}, convert-arith-to-llvm{index-bitwidth=0}, canonicalize{  max-iterations=10 max-num-rewrites=-1 region-simplify=normal test-convergence=false top-down=true}, cse, symbol-dce, enable-line-info, convert-builtin-func-to-llvm{ftz=true})",
      disable_threading: false,
      verify_each: true
    }
  }
#-}
/tmp/torchinductor_root/w2/cw2lz77gyfknswdzrahmgf7qi372of6mx54o2swuti5vcmefwljl.py:18:0: error: Failures have been detected while processing an MLIR pass pipeline
/tmp/torchinductor_root/w2/cw2lz77gyfknswdzrahmgf7qi372of6mx54o2swuti5vcmefwljl.py:18:0: note: Pipeline failed while executing [`ConvertTritonAMDGPUToLLVM` on 'builtin.module' operation]: reproducer generated at `std::errs, please share the reproducer above with Triton project.`
[rank5]:E1103 11:31:40.600000 514 torch/_inductor/runtime/triton_heuristics.py:750] [22/0] Triton compilation failed: _batched_gemm_afp4_wfp4_pre_quant_kernel_0
[rank5]:E1103 11:31:40.600000 514 torch/_inductor/runtime/triton_heuristics.py:750] [22/0] def _batched_gemm_afp4_wfp4_pre_quant_kernel(
[rank5]:E1103 11:31:40.600000 514 torch/_inductor/runtime/triton_heuristics.py:750] [22/0]     a_ptr,
[rank5]:E1103 11:31:40.600000 514 torch/_inductor/runtime/triton_heuristics.py:750] [22/0]     b_ptr,
[rank5]:E1103 11:31:40.600000 514 torch/_inductor/runtime/triton_heuristics.py:750] [22/0]     c_ptr,
[rank5]:E1103 11:31:40.600000 514 torch/_inductor/runtime/triton_heuristics.py:750] [22/0]     b_scales_ptr,
[rank5]:E1103 11:31:40.600000 514 torch/_inductor/runtime/triton_heuristics.py:750] [22/0]     M,
[rank5]:E1103 11:31:40.600000 514 torch/_inductor/runtime/triton_heuristics.py:750] [22/0]     N,
[rank5]:E1103 11:31:40.600000 514 torch/_inductor/runtime/triton_heuristics.py:750] [22/0]     K,
[rank5]:E1103 11:31:40.600000 514 torch/_inductor/runtime/triton_heuristics.py:750] [22/0]     stride_ab,
[rank5]:E1103 11:31:40.600000 514 torch/_inductor/runtime/triton_heuristics.py:750] [22/0]     stride_am,
[rank5]:E1103 11:31:40.600000 514 torch/_inductor/runtime/triton_heuristics.py:750] [22/0]     stride_ak,
[rank5]:E1103 11:31:40.600000 514 torch/_inductor/runtime/triton_heuristics.py:750] [22/0]     stride_bb,
[rank5]:E1103 11:31:40.600000 514 torch/_inductor/runtime/triton_heuristics.py:750] [22/0]     stride_bk,
[rank5]:E1103 11:31:40.600000 514 torch/_inductor/runtime/triton_heuristics.py:750] [22/0]     stride_bn,
[rank5]:E1103 11:31:40.600000 514 torch/_inductor/runtime/triton_heuristics.py:750] [22/0]     stride_cb,
[rank5]:E1103 11:31:40.600000 514 torch/_inductor/runtime/triton_heuristics.py:750] [22/0]     stride_ck,
[rank5]:E1103 11:31:40.600000 514 torch/_inductor/runtime/triton_heuristics.py:750] [22/0]     stride_cm,
[rank5]:E1103 11:31:40.600000 514 torch/_inductor/runtime/triton_heuristics.py:750] [22/0]     stride_cn,
[rank5]:E1103 11:31:40.600000 514 torch/_inductor/runtime/triton_heuristics.py:750] [22/0]     stride_bsb,
[rank5]:E1103 11:31:40.600000 514 torch/_inductor/runtime/triton_heuristics.py:750] [22/0]     stride_bsn,
[rank5]:E1103 11:31:40.600000 514 torch/_inductor/runtime/triton_heuristics.py:750] [22/0]     stride_bsk,
[rank5]:E1103 11:31:40.600000 514 torch/_inductor/runtime/triton_heuristics.py:750] [22/0]     # Meta-parameters
[rank5]:E1103 11:31:40.600000 514 torch/_inductor/runtime/triton_heuristics.py:750] [22/0]     BLOCK_SIZE_M: tl.constexpr,
[rank5]:E1103 11:31:40.600000 514 torch/_inductor/runtime/triton_heuristics.py:750] [22/0]     BLOCK_SIZE_N: tl.constexpr,
[rank5]:E1103 11:31:40.600000 514 torch/_inductor/runtime/triton_heuristics.py:750] [22/0]     BLOCK_SIZE_K: tl.constexpr,
[rank5]:E1103 11:31:40.600000 514 torch/_inductor/runtime/triton_heuristics.py:750] [22/0]     GROUP_SIZE_M: tl.constexpr,
[rank5]:E1103 11:31:40.600000 514 torch/_inductor/runtime/triton_heuristics.py:750] [22/0]     NUM_KSPLIT: tl.constexpr,
[rank5]:E1103 11:31:40.600000 514 torch/_inductor/runtime/triton_heuristics.py:750] [22/0]     SPLITK_BLOCK_SIZE: tl.constexpr,
[rank5]:E1103 11:31:40.600000 514 torch/_inductor/runtime/triton_heuristics.py:750] [22/0]     EVEN_K: tl.constexpr,
[rank5]:E1103 11:31:40.600000 514 torch/_inductor/runtime/triton_heuristics.py:750] [22/0]     GRID_MN: tl.constexpr,
[rank5]:E1103 11:31:40.600000 514 torch/_inductor/runtime/triton_heuristics.py:750] [22/0]     cache_modifier: tl.constexpr,
[rank5]:E1103 11:31:40.600000 514 torch/_inductor/runtime/triton_heuristics.py:750] [22/0] ):
[rank5]:E1103 11:31:40.600000 514 torch/_inductor/runtime/triton_heuristics.py:750] [22/0]     """Kernel for computing the matmul C = A x B.
[rank5]:E1103 11:31:40.600000 514 torch/_inductor/runtime/triton_heuristics.py:750] [22/0]     A and B inputs are in the microscale fp4 (mxfp4) format.
[rank5]:E1103 11:31:40.600000 514 torch/_inductor/runtime/triton_heuristics.py:750] [22/0]     A_scales and B_scales are in e8m0 format.
[rank5]:E1103 11:31:40.600000 514 torch/_inductor/runtime/triton_heuristics.py:750] [22/0]     A has shape (M, K), B has shape (K, N) and C has shape (M, N)
[rank5]:E1103 11:31:40.600000 514 torch/_inductor/runtime/triton_heuristics.py:750] [22/0]     """
[rank5]:E1103 11:31:40.600000 514 torch/_inductor/runtime/triton_heuristics.py:750] [22/0] 
[rank5]:E1103 11:31:40.600000 514 torch/_inductor/runtime/triton_heuristics.py:750] [22/0]     tl.assume(stride_ab > 0)
[rank5]:E1103 11:31:40.600000 514 torch/_inductor/runtime/triton_heuristics.py:750] [22/0]     tl.assume(stride_am > 0)
[rank5]:E1103 11:31:40.600000 514 torch/_inductor/runtime/triton_heuristics.py:750] [22/0]     tl.assume(stride_ak > 0)
[rank5]:E1103 11:31:40.600000 514 torch/_inductor/runtime/triton_heuristics.py:750] [22/0]     tl.assume(stride_bb > 0)
[rank5]:E1103 11:31:40.600000 514 torch/_inductor/runtime/triton_heuristics.py:750] [22/0]     tl.assume(stride_bk > 0)
[rank5]:E1103 11:31:40.600000 514 torch/_inductor/runtime/triton_heuristics.py:750] [22/0]     tl.assume(stride_bn > 0)
[rank5]:E1103 11:31:40.600000 514 torch/_inductor/runtime/triton_heuristics.py:750] [22/0]     tl.assume(stride_cb > 0)
[rank5]:E1103 11:31:40.600000 514 torch/_inductor/runtime/triton_heuristics.py:750] [22/0]     tl.assume(stride_cm > 0)
[rank5]:E1103 11:31:40.600000 514 torch/_inductor/runtime/triton_heuristics.py:750] [22/0]     tl.assume(stride_cn > 0)
[rank5]:E1103 11:31:40.600000 514 torch/_inductor/runtime/triton_heuristics.py:750] [22/0]     tl.assume(stride_bsb > 0)
[rank5]:E1103 11:31:40.600000 514 torch/_inductor/runtime/triton_heuristics.py:750] [22/0]     tl.assume(stride_bsk > 0)
[rank5]:E1103 11:31:40.600000 514 torch/_inductor/runtime/triton_heuristics.py:750] [22/0]     tl.assume(stride_bsn > 0)
[rank5]:E1103 11:31:40.600000 514 torch/_inductor/runtime/triton_heuristics.py:750] [22/0] 
[rank5]:E1103 11:31:40.600000 514 torch/_inductor/runtime/triton_heuristics.py:750] [22/0]     # -----------------------------------------------------------
[rank5]:E1103 11:31:40.600000 514 torch/_inductor/runtime/triton_heuristics.py:750] [22/0]     # Map program ids `pid` to the block of C it should compute.
[rank5]:E1103 11:31:40.600000 514 torch/_inductor/runtime/triton_heuristics.py:750] [22/0]     # This is done in a grouped ordering to promote L2 data reuse.
[rank5]:E1103 11:31:40.600000 514 torch/_inductor/runtime/triton_heuristics.py:750] [22/0]     pid_batch = tl.program_id(axis=0)
[rank5]:E1103 11:31:40.600000 514 torch/_inductor/runtime/triton_heuristics.py:750] [22/0]     pid_unified = tl.program_id(axis=1)
[rank5]:E1103 11:31:40.600000 514 torch/_inductor/runtime/triton_heuristics.py:750] [22/0]     pid_k = pid_unified % NUM_KSPLIT
[rank5]:E1103 11:31:40.600000 514 torch/_inductor/runtime/triton_heuristics.py:750] [22/0]     pid = pid_unified // NUM_KSPLIT
[rank5]:E1103 11:31:40.600000 514 torch/_inductor/runtime/triton_heuristics.py:750] [22/0]     num_pid_m = tl.cdiv(M, BLOCK_SIZE_M)
[rank5]:E1103 11:31:40.600000 514 torch/_inductor/runtime/triton_heuristics.py:750] [22/0]     num_pid_n = tl.cdiv(N, BLOCK_SIZE_N)
[rank5]:E1103 11:31:40.600000 514 torch/_inductor/runtime/triton_heuristics.py:750] [22/0] 
[rank5]:E1103 11:31:40.600000 514 torch/_inductor/runtime/triton_heuristics.py:750] [22/0]     # Cast batch id and batch dimension strides to int64 to avoid int32 overflow during offset calculation
[rank5]:E1103 11:31:40.600000 514 torch/_inductor/runtime/triton_heuristics.py:750] [22/0]     # Note: If you're attempting to cast strides to int64 to prevent integer overflow, use `tl.cast` instead of `.to()`.
[rank5]:E1103 11:31:40.600000 514 torch/_inductor/runtime/triton_heuristics.py:750] [22/0]     # See https://github.com/ROCm/aiter/pull/597 for rationale
[rank5]:E1103 11:31:40.600000 514 torch/_inductor/runtime/triton_heuristics.py:750] [22/0]     stride_ab = tl.cast(stride_ab, tl.int64)
[rank5]:E1103 11:31:40.600000 514 torch/_inductor/runtime/triton_heuristics.py:750] [22/0]     stride_bb = tl.cast(stride_bb, tl.int64)
[rank5]:E1103 11:31:40.600000 514 torch/_inductor/runtime/triton_heuristics.py:750] [22/0]     stride_cb = tl.cast(stride_cb, tl.int64)
[rank5]:E1103 11:31:40.600000 514 torch/_inductor/runtime/triton_heuristics.py:750] [22/0]     pid_batch = tl.cast(pid_batch, tl.int64)
[rank5]:E1103 11:31:40.600000 514 torch/_inductor/runtime/triton_heuristics.py:750] [22/0] 
[rank5]:E1103 11:31:40.600000 514 torch/_inductor/runtime/triton_heuristics.py:750] [22/0]     if NUM_KSPLIT == 1:
[rank5]:E1103 11:31:40.600000 514 torch/_inductor/runtime/triton_heuristics.py:750] [22/0]         remap_xcd(pid, GRID_MN)
[rank5]:E1103 11:31:40.600000 514 torch/_inductor/runtime/triton_heuristics.py:750] [22/0] 
[rank5]:E1103 11:31:40.600000 514 torch/_inductor/runtime/triton_heuristics.py:750] [22/0]         pid_m, pid_n = pid_grid(pid, num_pid_m, num_pid_n, GROUP_SIZE_M=GROUP_SIZE_M)
[rank5]:E1103 11:31:40.600000 514 torch/_inductor/runtime/triton_heuristics.py:750] [22/0]     else:
[rank5]:E1103 11:31:40.600000 514 torch/_inductor/runtime/triton_heuristics.py:750] [22/0]         pid_m = pid // num_pid_n
[rank5]:E1103 11:31:40.600000 514 torch/_inductor/runtime/triton_heuristics.py:750] [22/0]         pid_n = pid % num_pid_n
[rank5]:E1103 11:31:40.600000 514 torch/_inductor/runtime/triton_heuristics.py:750] [22/0] 
[rank5]:E1103 11:31:40.600000 514 torch/_inductor/runtime/triton_heuristics.py:750] [22/0]     tl.assume(pid_batch >= 0)
[rank5]:E1103 11:31:40.600000 514 torch/_inductor/runtime/triton_heuristics.py:750] [22/0]     tl.assume(pid_m >= 0)
[rank5]:E1103 11:31:40.600000 514 torch/_inductor/runtime/triton_heuristics.py:750] [22/0]     tl.assume(pid_n >= 0)
[rank5]:E1103 11:31:40.600000 514 torch/_inductor/runtime/triton_heuristics.py:750] [22/0]     # We assume 32 elements along K share the same scale.
[rank5]:E1103 11:31:40.600000 514 torch/_inductor/runtime/triton_heuristics.py:750] [22/0]     SCALE_GROUP_SIZE: tl.constexpr = 32
[rank5]:E1103 11:31:40.600000 514 torch/_inductor/runtime/triton_heuristics.py:750] [22/0] 
[rank5]:E1103 11:31:40.600000 514 torch/_inductor/runtime/triton_heuristics.py:750] [22/0]     if (pid_k * SPLITK_BLOCK_SIZE // 2) < K:
[rank5]:E1103 11:31:40.600000 514 torch/_inductor/runtime/triton_heuristics.py:750] [22/0] 
[rank5]:E1103 11:31:40.600000 514 torch/_inductor/runtime/triton_heuristics.py:750] [22/0]         num_k_iter = tl.cdiv(SPLITK_BLOCK_SIZE // 2, BLOCK_SIZE_K // 2)
[rank5]:E1103 11:31:40.600000 514 torch/_inductor/runtime/triton_heuristics.py:750] [22/0] 
[rank5]:E1103 11:31:40.600000 514 torch/_inductor/runtime/triton_heuristics.py:750] [22/0]         # Create pointers for first block of A and B input matrices
[rank5]:E1103 11:31:40.600000 514 torch/_inductor/runtime/triton_heuristics.py:750] [22/0]         # The BLOCK sizes are of the elements and in fp4 we pack 2 per uint8 container.
[rank5]:E1103 11:31:40.600000 514 torch/_inductor/runtime/triton_heuristics.py:750] [22/0]         offs_k_bf16 = tl.arange(0, BLOCK_SIZE_K)
[rank5]:E1103 11:31:40.600000 514 torch/_inductor/runtime/triton_heuristics.py:750] [22/0]         offs_k_split_bf16 = pid_k * SPLITK_BLOCK_SIZE + offs_k_bf16
[rank5]:E1103 11:31:40.600000 514 torch/_inductor/runtime/triton_heuristics.py:750] [22/0]         offs_am = (pid_m * BLOCK_SIZE_M + tl.arange(0, BLOCK_SIZE_M)) % M
[rank5]:E1103 11:31:40.600000 514 torch/_inductor/runtime/triton_heuristics.py:750] [22/0]         a_ptrs = a_ptr + (
[rank5]:E1103 11:31:40.600000 514 torch/_inductor/runtime/triton_heuristics.py:750] [22/0]             pid_batch * stride_ab
[rank5]:E1103 11:31:40.600000 514 torch/_inductor/runtime/triton_heuristics.py:750] [22/0]             + offs_am[:, None] * stride_am
[rank5]:E1103 11:31:40.600000 514 torch/_inductor/runtime/triton_heuristics.py:750] [22/0]             + offs_k_split_bf16[None, :] * stride_ak
[rank5]:E1103 11:31:40.600000 514 torch/_inductor/runtime/triton_heuristics.py:750] [22/0]         )
[rank5]:E1103 11:31:40.600000 514 torch/_inductor/runtime/triton_heuristics.py:750] [22/0] 
[rank5]:E1103 11:31:40.600000 514 torch/_inductor/runtime/triton_heuristics.py:750] [22/0]         offs_k = tl.arange(0, BLOCK_SIZE_K // 2)
[rank5]:E1103 11:31:40.600000 514 torch/_inductor/runtime/triton_heuristics.py:750] [22/0]         offs_k_split = pid_k * (SPLITK_BLOCK_SIZE // 2) + offs_k
[rank5]:E1103 11:31:40.600000 514 torch/_inductor/runtime/triton_heuristics.py:750] [22/0]         offs_bn = (pid_n * BLOCK_SIZE_N + tl.arange(0, BLOCK_SIZE_N)) % N
[rank5]:E1103 11:31:40.600000 514 torch/_inductor/runtime/triton_heuristics.py:750] [22/0]         b_ptrs = b_ptr + (
[rank5]:E1103 11:31:40.600000 514 torch/_inductor/runtime/triton_heuristics.py:750] [22/0]             pid_batch * stride_bb
[rank5]:E1103 11:31:40.600000 514 torch/_inductor/runtime/triton_heuristics.py:750] [22/0]             + offs_k_split[:, None] * stride_bk
[rank5]:E1103 11:31:40.600000 514 torch/_inductor/runtime/triton_heuristics.py:750] [22/0]             + offs_bn[None, :] * stride_bn
[rank5]:E1103 11:31:40.600000 514 torch/_inductor/runtime/triton_heuristics.py:750] [22/0]         )
[rank5]:E1103 11:31:40.600000 514 torch/_inductor/runtime/triton_heuristics.py:750] [22/0]         # Create pointers for the first block of A and B scales
[rank5]:E1103 11:31:40.600000 514 torch/_inductor/runtime/triton_heuristics.py:750] [22/0]         offs_ks = (pid_k * (SPLITK_BLOCK_SIZE // SCALE_GROUP_SIZE)) + tl.arange(
[rank5]:E1103 11:31:40.600000 514 torch/_inductor/runtime/triton_heuristics.py:750] [22/0]             0, BLOCK_SIZE_K // SCALE_GROUP_SIZE
[rank5]:E1103 11:31:40.600000 514 torch/_inductor/runtime/triton_heuristics.py:750] [22/0]         )
[rank5]:E1103 11:31:40.600000 514 torch/_inductor/runtime/triton_heuristics.py:750] [22/0]         # B scales are N x K even though B operand is K x N.
[rank5]:E1103 11:31:40.600000 514 torch/_inductor/runtime/triton_heuristics.py:750] [22/0]         b_scale_ptrs = (
[rank5]:E1103 11:31:40.600000 514 torch/_inductor/runtime/triton_heuristics.py:750] [22/0]             b_scales_ptr
[rank5]:E1103 11:31:40.600000 514 torch/_inductor/runtime/triton_heuristics.py:750] [22/0]             + pid_batch * stride_bsb
[rank5]:E1103 11:31:40.600000 514 torch/_inductor/runtime/triton_heuristics.py:750] [22/0]             + offs_bn[:, None] * stride_bsn
[rank5]:E1103 11:31:40.600000 514 torch/_inductor/runtime/triton_heuristics.py:750] [22/0]             + offs_ks[None, :] * stride_bsk
[rank5]:E1103 11:31:40.600000 514 torch/_inductor/runtime/triton_heuristics.py:750] [22/0]         )
[rank5]:E1103 11:31:40.600000 514 torch/_inductor/runtime/triton_heuristics.py:750] [22/0] 
[rank5]:E1103 11:31:40.600000 514 torch/_inductor/runtime/triton_heuristics.py:750] [22/0]         accumulator = tl.zeros((BLOCK_SIZE_M, BLOCK_SIZE_N), dtype=tl.float32)
[rank5]:E1103 11:31:40.600000 514 torch/_inductor/runtime/triton_heuristics.py:750] [22/0] 
[rank5]:E1103 11:31:40.600000 514 torch/_inductor/runtime/triton_heuristics.py:750] [22/0]         for k in range(pid_k * num_k_iter, (pid_k + 1) * num_k_iter):
[rank5]:E1103 11:31:40.600000 514 torch/_inductor/runtime/triton_heuristics.py:750] [22/0]             b_scales = tl.load(b_scale_ptrs)
[rank5]:E1103 11:31:40.600000 514 torch/_inductor/runtime/triton_heuristics.py:750] [22/0]             # a_scales = tl.full((BLOCK_SIZE_M, BLOCK_SIZE_K//SCALE_GROUP_SIZE), 127, dtype=tl.uint8)
[rank5]:E1103 11:31:40.600000 514 torch/_inductor/runtime/triton_heuristics.py:750] [22/0]             # b_scales = tl.full((BLOCK_SIZE_N, BLOCK_SIZE_K//SCALE_GROUP_SIZE), 127, dtype=tl.uint8)
[rank5]:E1103 11:31:40.600000 514 torch/_inductor/runtime/triton_heuristics.py:750] [22/0]             # Load the next block of A and B, generate a mask by checking the K dimension.
[rank5]:E1103 11:31:40.600000 514 torch/_inductor/runtime/triton_heuristics.py:750] [22/0]             # If it is out of bounds, set it to 0.
[rank5]:E1103 11:31:40.600000 514 torch/_inductor/runtime/triton_heuristics.py:750] [22/0]             if EVEN_K:
[rank5]:E1103 11:31:40.600000 514 torch/_inductor/runtime/triton_heuristics.py:750] [22/0]                 a_bf16 = tl.load(a_ptrs)
[rank5]:E1103 11:31:40.600000 514 torch/_inductor/runtime/triton_heuristics.py:750] [22/0]                 b = tl.load(b_ptrs, cache_modifier=cache_modifier)
[rank5]:E1103 11:31:40.600000 514 torch/_inductor/runtime/triton_heuristics.py:750] [22/0]             else:
[rank5]:E1103 11:31:40.600000 514 torch/_inductor/runtime/triton_heuristics.py:750] [22/0]                 a_bf16 = tl.load(
[rank5]:E1103 11:31:40.600000 514 torch/_inductor/runtime/triton_heuristics.py:750] [22/0]                     a_ptrs, mask=offs_k[None, :] < K - k * BLOCK_SIZE_K, other=0
[rank5]:E1103 11:31:40.600000 514 torch/_inductor/runtime/triton_heuristics.py:750] [22/0]                 )
[rank5]:E1103 11:31:40.600000 514 torch/_inductor/runtime/triton_heuristics.py:750] [22/0]                 b = tl.load(
[rank5]:E1103 11:31:40.600000 514 torch/_inductor/runtime/triton_heuristics.py:750] [22/0]                     b_ptrs, mask=offs_k[:, None] < K - k * (BLOCK_SIZE_K // 2), other=0
[rank5]:E1103 11:31:40.600000 514 torch/_inductor/runtime/triton_heuristics.py:750] [22/0]                 )
[rank5]:E1103 11:31:40.600000 514 torch/_inductor/runtime/triton_heuristics.py:750] [22/0] 
[rank5]:E1103 11:31:40.600000 514 torch/_inductor/runtime/triton_heuristics.py:750] [22/0]             a, a_scales = _mxfp4_quant_op(a_bf16, BLOCK_SIZE_K, BLOCK_SIZE_M, 32)
[rank5]:E1103 11:31:40.600000 514 torch/_inductor/runtime/triton_heuristics.py:750] [22/0] 
[rank5]:E1103 11:31:40.600000 514 torch/_inductor/runtime/triton_heuristics.py:750] [22/0]             accumulator += tl.dot_scaled(a, a_scales, "e2m1", b, b_scales, "e2m1")
[rank5]:E1103 11:31:40.600000 514 torch/_inductor/runtime/triton_heuristics.py:750] [22/0] 
[rank5]:E1103 11:31:40.600000 514 torch/_inductor/runtime/triton_heuristics.py:750] [22/0]             # Advance the ptrs to the next K block.
[rank5]:E1103 11:31:40.600000 514 torch/_inductor/runtime/triton_heuristics.py:750] [22/0]             a_ptrs += BLOCK_SIZE_K * stride_ak
[rank5]:E1103 11:31:40.600000 514 torch/_inductor/runtime/triton_heuristics.py:750] [22/0]             b_ptrs += (BLOCK_SIZE_K // 2) * stride_bk
[rank5]:E1103 11:31:40.600000 514 torch/_inductor/runtime/triton_heuristics.py:750] [22/0]             b_scale_ptrs += (BLOCK_SIZE_K // SCALE_GROUP_SIZE) * stride_bsk
[rank5]:E1103 11:31:40.600000 514 torch/_inductor/runtime/triton_heuristics.py:750] [22/0] 
[rank5]:E1103 11:31:40.600000 514 torch/_inductor/runtime/triton_heuristics.py:750] [22/0]         c = accumulator.to(c_ptr.type.element_ty)
[rank5]:E1103 11:31:40.600000 514 torch/_inductor/runtime/triton_heuristics.py:750] [22/0] 
[rank5]:E1103 11:31:40.600000 514 torch/_inductor/runtime/triton_heuristics.py:750] [22/0]         # Write back the block of the output matrix C with masks.
[rank5]:E1103 11:31:40.600000 514 torch/_inductor/runtime/triton_heuristics.py:750] [22/0]         offs_cm = pid_m * BLOCK_SIZE_M + tl.arange(0, BLOCK_SIZE_M).to(tl.int64)
[rank5]:E1103 11:31:40.600000 514 torch/_inductor/runtime/triton_heuristics.py:750] [22/0]         offs_cn = pid_n * BLOCK_SIZE_N + tl.arange(0, BLOCK_SIZE_N).to(tl.int64)
[rank5]:E1103 11:31:40.600000 514 torch/_inductor/runtime/triton_heuristics.py:750] [22/0]         c_ptrs = (
[rank5]:E1103 11:31:40.600000 514 torch/_inductor/runtime/triton_heuristics.py:750] [22/0]             c_ptr
[rank5]:E1103 11:31:40.600000 514 torch/_inductor/runtime/triton_heuristics.py:750] [22/0]             + pid_batch * stride_cb
[rank5]:E1103 11:31:40.600000 514 torch/_inductor/runtime/triton_heuristics.py:750] [22/0]             + stride_cm * offs_cm[:, None]
[rank5]:E1103 11:31:40.600000 514 torch/_inductor/runtime/triton_heuristics.py:750] [22/0]             + stride_cn * offs_cn[None, :]
[rank5]:E1103 11:31:40.600000 514 torch/_inductor/runtime/triton_heuristics.py:750] [22/0]             + pid_k * stride_ck
[rank5]:E1103 11:31:40.600000 514 torch/_inductor/runtime/triton_heuristics.py:750] [22/0]         )
[rank5]:E1103 11:31:40.600000 514 torch/_inductor/runtime/triton_heuristics.py:750] [22/0]         c_mask = (offs_cm[:, None] < M) & (offs_cn[None, :] < N)
[rank5]:E1103 11:31:40.600000 514 torch/_inductor/runtime/triton_heuristics.py:750] [22/0]         tl.store(c_ptrs, c, mask=c_mask)
[rank5]:E1103 11:31:40.600000 514 torch/_inductor/runtime/triton_heuristics.py:750] [22/0] 
[rank5]:E1103 11:31:40.600000 514 torch/_inductor/runtime/triton_heuristics.py:750] [22/0] metadata: {'signature': {'a_ptr': '*bf16', 'b_ptr': '*u8', 'c_ptr': '*bf16', 'b_scales_ptr': '*u8', 'M': 'i32', 'N': 'i32', 'K': 'i32', 'stride_ab': 'i32', 'stride_am': 'i32', 'stride_ak': 'constexpr', 'stride_bb': 'i32', 'stride_bk': 'constexpr', 'stride_bn': 'i32', 'stride_cb': 'i32', 'stride_ck': 'i32', 'stride_cm': 'i32', 'stride_cn': 'constexpr', 'stride_bsb': 'i32', 'stride_bsn': 'i32', 'stride_bsk': 'constexpr', 'BLOCK_SIZE_M': 'constexpr', 'BLOCK_SIZE_N': 'constexpr', 'BLOCK_SIZE_K': 'constexpr', 'GROUP_SIZE_M': 'constexpr', 'NUM_KSPLIT': 'constexpr', 'SPLITK_BLOCK_SIZE': 'constexpr', 'EVEN_K': 'constexpr', 'GRID_MN': 'constexpr', 'cache_modifier': 'constexpr'}, 'device': 5, 'constants': {'stride_ak': 1, 'stride_bk': 1, 'stride_cn': 1, 'stride_bsk': 1, 'BLOCK_SIZE_M': 4, 'BLOCK_SIZE_N': 32, 'BLOCK_SIZE_K': 128, 'GROUP_SIZE_M': 1, 'NUM_KSPLIT': 1, 'SPLITK_BLOCK_SIZE': 128, 'EVEN_K': True, 'GRID_MN': 64, 'cache_modifier': '.cg'}, 'configs': [{(0,): [['tt.divisibility', 16]], (1,): [['tt.divisibility', 16]], (2,): [['tt.divisibility', 16]], (3,): [['tt.divisibility', 16]], (4,): [['tt.divisibility', 16]], (5,): [['tt.divisibility', 16]], (6,): [['tt.divisibility', 16]], (7,): [['tt.divisibility', 16]], (8,): [['tt.divisibility', 16]], (10,): [['tt.divisibility', 16]], (12,): [['tt.divisibility', 16]], (13,): [['tt.divisibility', 16]], (14,): [['tt.divisibility', 16]], (15,): [['tt.divisibility', 16]], (17,): [['tt.divisibility', 16]]}], 'device_type': 'hip', 'num_warps': 4, 'num_stages': 1, 'debug': False, 'cc': 'gfx950'}
[rank5]:E1103 11:31:40.600000 514 torch/_inductor/runtime/triton_heuristics.py:750] [22/0] Traceback (most recent call last):
[rank5]:E1103 11:31:40.600000 514 torch/_inductor/runtime/triton_heuristics.py:750] [22/0]   File "/opt/venv/lib/python3.10/site-packages/torch/_inductor/runtime/triton_heuristics.py", line 748, in _precompile_config
[rank5]:E1103 11:31:40.600000 514 torch/_inductor/runtime/triton_heuristics.py:750] [22/0]     binary = triton.compile(*compile_args, **compile_kwargs)
[rank5]:E1103 11:31:40.600000 514 torch/_inductor/runtime/triton_heuristics.py:750] [22/0]   File "/opt/venv/lib/python3.10/site-packages/triton/compiler/compiler.py", line 322, in compile
[rank5]:E1103 11:31:40.600000 514 torch/_inductor/runtime/triton_heuristics.py:750] [22/0]     next_module = compile_ir(module, metadata)
[rank5]:E1103 11:31:40.600000 514 torch/_inductor/runtime/triton_heuristics.py:750] [22/0]   File "/opt/venv/lib/python3.10/site-packages/triton/backends/amd/compiler.py", line 450, in <lambda>
[rank5]:E1103 11:31:40.600000 514 torch/_inductor/runtime/triton_heuristics.py:750] [22/0]     stages["llir"] = lambda src, metadata: self.make_llir(src, metadata, options)
[rank5]:E1103 11:31:40.600000 514 torch/_inductor/runtime/triton_heuristics.py:750] [22/0]   File "/opt/venv/lib/python3.10/site-packages/triton/backends/amd/compiler.py", line 325, in make_llir
[rank5]:E1103 11:31:40.600000 514 torch/_inductor/runtime/triton_heuristics.py:750] [22/0]     pm.run(mod)
[rank5]:E1103 11:31:40.600000 514 torch/_inductor/runtime/triton_heuristics.py:750] [22/0] RuntimeError: PassManager::run failed
ler_DP4_TP4: /app/triton/third_party/amd/lib/TritonAMDGPUDialectToLLVM/ScaledUpcastToLLVM.cpp:73: virtual llvm::LogicalResult {anonymous}::ScaledUpcastFp4Pattern::matchAndRewrite(mlir::triton::amdgpu::ScaledUpcastFp4Op, mlir::ConvertOpToLLVMPattern<mlir::triton::amdgpu::ScaledUpcastFp4Op>::OpAdaptor, mlir::ConversionPatternRewriter&) const: Assertion `inputVals.size() % 4 == 0' failed.
#blocked = #ttg.blocked<{sizePerThread = [1, 1, 2], threadsPerWarp = [1, 4, 16], warpsPerCTA = [4, 1, 1], order = [2, 1, 0]}>
#blocked1 = #ttg.blocked<{sizePerThread = [1, 2], threadsPerWarp = [1, 64], warpsPerCTA = [4, 1], order = [1, 0]}>
#blocked2 = #ttg.blocked<{sizePerThread = [1, 1, 1], threadsPerWarp = [1, 4, 16], warpsPerCTA = [4, 1, 1], order = [2, 1, 0]}>
#blocked3 = #ttg.blocked<{sizePerThread = [1, 1], threadsPerWarp = [2, 32], warpsPerCTA = [4, 1], order = [1, 0]}>
#blocked4 = #ttg.blocked<{sizePerThread = [1, 1, 2], threadsPerWarp = [1, 32, 2], warpsPerCTA = [1, 1, 4], order = [1, 2, 0]}>
#blocked5 = #ttg.blocked<{sizePerThread = [2, 1], threadsPerWarp = [2, 32], warpsPerCTA = [4, 1], order = [1, 0]}>
#blocked6 = #ttg.blocked<{sizePerThread = [8, 1], threadsPerWarp = [8, 8], warpsPerCTA = [1, 4], order = [0, 1]}>
#blocked7 = #ttg.blocked<{sizePerThread = [1, 1, 1, 2], threadsPerWarp = [1, 4, 16, 1], warpsPerCTA = [4, 1, 1, 1], order = [3, 2, 1, 0]}>
#blocked8 = #ttg.blocked<{sizePerThread = [1, 1], threadsPerWarp = [1, 64], warpsPerCTA = [4, 1], order = [1, 0]}>
#blocked9 = #ttg.blocked<{sizePerThread = [1, 2, 1], threadsPerWarp = [1, 2, 32], warpsPerCTA = [1, 4, 1], order = [2, 1, 0]}>
#linear = #ttg.linear<{register = [], lane = [[0, 0, 0], [0, 0, 0], [0, 0, 0], [0, 0, 0], [0, 1, 0], [0, 2, 0]], warp = [[1, 0, 0], [2, 0, 0]], block = []}>
#linear1 = #ttg.linear<{register = [[0, 1], [0, 2]], lane = [[1, 0], [2, 0], [4, 0], [8, 0], [16, 0], [0, 0]], warp = [[0, 0], [0, 0]], block = []}>
#linear2 = #ttg.linear<{register = [[0, 0]], lane = [[0, 0], [0, 0], [0, 0], [0, 0], [0, 1], [0, 2]], warp = [[1, 0], [2, 0]], block = []}>
#shared = #ttg.swizzled_shared<{vec = 1, perPhase = 1, maxPhase = 1, order = [1, 0]}>
#smem = #ttg.shared_memory
module attributes {"ttg.num-ctas" = 1 : i32, "ttg.num-warps" = 4 : i32, ttg.target = "hip:gfx950", "ttg.threads-per-warp" = 64 : i32} {
  tt.func public @_batched_gemm_afp4_wfp4_pre_quant_kernel(%arg0: !tt.ptr<bf16> {tt.divisibility = 16 : i32}, %arg1: !tt.ptr<i8> {tt.divisibility = 16 : i32}, %arg2: !tt.ptr<bf16> {tt.divisibility = 16 : i32}, %arg3: !tt.ptr<i8> {tt.divisibility = 16 : i32}, %arg4: i32 {tt.divisibility = 16 : i32}, %arg5: i32 {tt.divisibility = 16 : i32}, %arg6: i32 {tt.divisibility = 16 : i32}, %arg7: i32 {tt.divisibility = 16 : i32}, %arg8: i32 {tt.divisibility = 16 : i32}, %arg9: i32 {tt.divisibility = 16 : i32}, %arg10: i32 {tt.divisibility = 16 : i32}, %arg11: i32 {tt.divisibility = 16 : i32}, %arg12: i32 {tt.divisibility = 16 : i32}, %arg13: i32 {tt.divisibility = 16 : i32}, %arg14: i32 {tt.divisibility = 16 : i32}, %arg15: i32) attributes {noinline = false} {
    %cst = arith.constant dense<127> : tensor<4x4x1xi8, #blocked>
    %cst_0 = arith.constant dense<0x7FC0> : tensor<4x128xbf16, #blocked1>
    %cst_1 = arith.constant dense<2097152> : tensor<4x4x1xi32, #blocked>
    %cst_2 = arith.constant dense<4> : tensor<4x4x16xi8, #blocked2>
    %c31_i32 = arith.constant 31 : i32
    %cst_3 = arith.constant dense<0.000000e+00> : tensor<4x32xf32, #blocked3>
    %c32_i32 = arith.constant 32 : i32
    %c4_i32 = arith.constant 4 : i32
    %true = arith.constant true
    %c0_i32 = arith.constant 0 : i32
    %cst_4 = arith.constant dense<-8388608> : tensor<4x4x1xi32, #blocked>
    %cst_5 = arith.constant dense<2.000000e+00> : tensor<4x4x1xf32, #blocked>
    %cst_6 = arith.constant dense<0.000000e+00> : tensor<4x4x1xf32, #blocked>
    %cst_7 = arith.constant dense<-2147483648> : tensor<4x4x32xi32, #blocked>
    %cst_8 = arith.constant dense<23> : tensor<4x4x32xi32, #blocked>
    %cst_9 = arith.constant dense<255> : tensor<4x4x32xi32, #blocked>
    %cst_10 = arith.constant dense<8388607> : tensor<4x4x32xi32, #blocked>
    %cst_11 = arith.constant dense<1> : tensor<4x4x32xi32, #blocked>
    %cst_12 = arith.constant dense<127> : tensor<4x4x32xi32, #blocked>
    %cst_13 = arith.constant dense<4194304> : tensor<4x4x32xi32, #blocked>
    %cst_14 = arith.constant dense<126> : tensor<4x4x32xi32, #blocked>
    %cst_15 = arith.constant dense<2> : tensor<4x4x32xi32, #blocked>
    %cst_16 = arith.constant dense<21> : tensor<4x4x32xi32, #blocked>
    %cst_17 = arith.constant dense<28> : tensor<4x4x32xi32, #blocked>
    %cst_18 = arith.constant dense<-1.270000e+02> : tensor<4x4x1xf32, #blocked>
    %cst_19 = arith.constant dense<7> : tensor<4x32xi16, #ttg.slice<{dim = 2, parent = #blocked4}>>
    %cst_20 = arith.constant dense<-1> : tensor<4x32xi8, #ttg.slice<{dim = 2, parent = #blocked4}>>
    %cst_21 = arith.constant dense<0x7FC0> : tensor<128x32xbf16, #blocked5>
    %cst_22 = arith.constant dense<7> : tensor<4x4x32xi32, #blocked>
    %cst_23 = arith.constant dense<1.270000e+02> : tensor<4x4x1xf32, #blocked>
    %cst_24 = arith.constant dense<1.270000e+02> : tensor<4x4x1xf32, #linear>
    %cst_25 = arith.constant dense<-1.270000e+02> : tensor<4x4x1xf32, #linear>
    %cst_26 = arith.constant dense<2.000000e+00> : tensor<4x4x1xf32, #linear>
    %cst_27 = arith.constant dense<-8388608> : tensor<4x4x1xi32, #linear>
    %cst_28 = arith.constant dense<2097152> : tensor<4x4x1xi32, #linear>
    %cst_29 = arith.constant dense<127> : tensor<4x4x1xi8, #linear>
    %cst_30 = arith.constant dense<7> : tensor<4x4xi16, #ttg.slice<{dim = 2, parent = #blocked}>>
    %cst_31 = arith.constant dense<-1> : tensor<4x4xi8, #ttg.slice<{dim = 2, parent = #blocked}>>
    llvm.intr.assume %true : i1
    llvm.intr.assume %true : i1
    llvm.intr.assume %true : i1
    llvm.intr.assume %true : i1
    llvm.intr.assume %true : i1
    llvm.intr.assume %true : i1
    llvm.intr.assume %true : i1
    llvm.intr.assume %true : i1
    llvm.intr.assume %true : i1
    llvm.intr.assume %true : i1
    llvm.intr.assume %true : i1
    llvm.intr.assume %true : i1
    %0 = tt.get_program_id x : i32
    %1 = tt.get_program_id y : i32
    %2 = arith.addi %arg5, %c31_i32 : i32
    %3 = arith.divsi %2, %c32_i32 : i32
    %4 = arith.extsi %arg7 : i32 to i64
    %5 = arith.extsi %arg9 : i32 to i64
    %6 = arith.extsi %arg11 : i32 to i64
    %7 = arith.extsi %0 : i32 to i64
    %8 = arith.divsi %1, %3 : i32
    %9 = arith.remsi %1, %3 : i32
    llvm.intr.assume %true : i1
    llvm.intr.assume %true : i1
    llvm.intr.assume %true : i1
    %10 = arith.cmpi sgt, %arg6, %c0_i32 : i32
    scf.if %10 {
      %11 = arith.muli %8, %c4_i32 : i32
      %12 = tt.make_range {end = 4 : i32, start = 0 : i32} : tensor<4xi32, #ttg.slice<{dim = 1, parent = #blocked1}>>
      %13 = tt.make_range {end = 4 : i32, start = 0 : i32} : tensor<4xi32, #ttg.slice<{dim = 1, parent = #blocked3}>>
      %14 = tt.splat %11 : i32 -> tensor<4xi32, #ttg.slice<{dim = 1, parent = #blocked1}>>
      %15 = arith.addi %14, %12 : tensor<4xi32, #ttg.slice<{dim = 1, parent = #blocked1}>>
      %16 = tt.splat %arg4 : i32 -> tensor<4xi32, #ttg.slice<{dim = 1, parent = #blocked1}>>
      %17 = arith.remsi %15, %16 : tensor<4xi32, #ttg.slice<{dim = 1, parent = #blocked1}>>
      %18 = arith.muli %7, %4 : i64
      %19 = tt.expand_dims %17 {axis = 1 : i32} : tensor<4xi32, #ttg.slice<{dim = 1, parent = #blocked1}>> -> tensor<4x1xi32, #blocked1>
      %20 = tt.splat %arg8 : i32 -> tensor<4x1xi32, #blocked1>
      %21 = arith.muli %19, %20 : tensor<4x1xi32, #blocked1>
      %22 = arith.extsi %21 : tensor<4x1xi32, #blocked1> to tensor<4x1xi64, #blocked1>
      %23 = tt.make_range {end = 128 : i32, start = 0 : i32} : tensor<128xi32, #ttg.slice<{dim = 0, parent = #blocked1}>>
      %24 = tt.expand_dims %23 {axis = 0 : i32} : tensor<128xi32, #ttg.slice<{dim = 0, parent = #blocked1}>> -> tensor<1x128xi32, #blocked1>
      %25 = arith.extsi %24 : tensor<1x128xi32, #blocked1> to tensor<1x128xi64, #blocked1>
      %26 = tt.broadcast %22 : tensor<4x1xi64, #blocked1> -> tensor<4x128xi64, #blocked1>
      %27 = tt.broadcast %25 : tensor<1x128xi64, #blocked1> -> tensor<4x128xi64, #blocked1>
      %28 = arith.addi %26, %27 : tensor<4x128xi64, #blocked1>
      %29 = tt.addptr %arg0, %18 : !tt.ptr<bf16>, i64
      %30 = arith.muli %9, %c32_i32 : i32
      %31 = tt.make_range {end = 32 : i32, start = 0 : i32} : tensor<32xi32, #ttg.slice<{dim = 0, parent = #blocked6}>>
      %32 = tt.make_range {end = 32 : i32, start = 0 : i32} : tensor<32xi32, #ttg.slice<{dim = 0, parent = #blocked3}>>
      %33 = tt.make_range {end = 32 : i32, start = 0 : i32} : tensor<32xi32, #ttg.slice<{dim = 1, parent = #linear1}>>
      %34 = tt.splat %30 : i32 -> tensor<32xi32, #ttg.slice<{dim = 0, parent = #blocked6}>>
      %35 = tt.splat %30 : i32 -> tensor<32xi32, #ttg.slice<{dim = 1, parent = #linear1}>>
      %36 = arith.addi %34, %31 : tensor<32xi32, #ttg.slice<{dim = 0, parent = #blocked6}>>
      %37 = arith.addi %35, %33 : tensor<32xi32, #ttg.slice<{dim = 1, parent = #linear1}>>
      %38 = tt.splat %arg5 : i32 -> tensor<32xi32, #ttg.slice<{dim = 0, parent = #blocked6}>>
      %39 = tt.splat %arg5 : i32 -> tensor<32xi32, #ttg.slice<{dim = 1, parent = #linear1}>>
      %40 = arith.remsi %36, %38 : tensor<32xi32, #ttg.slice<{dim = 0, parent = #blocked6}>>
      %41 = arith.remsi %37, %39 : tensor<32xi32, #ttg.slice<{dim = 1, parent = #linear1}>>
      %42 = arith.muli %7, %5 : i64
      %43 = tt.make_range {end = 64 : i32, start = 0 : i32} : tensor<64xi32, #ttg.slice<{dim = 1, parent = #blocked6}>>
      %44 = tt.expand_dims %43 {axis = 1 : i32} : tensor<64xi32, #ttg.slice<{dim = 1, parent = #blocked6}>> -> tensor<64x1xi32, #blocked6>
      %45 = arith.extsi %44 : tensor<64x1xi32, #blocked6> to tensor<64x1xi64, #blocked6>
      %46 = tt.expand_dims %40 {axis = 0 : i32} : tensor<32xi32, #ttg.slice<{dim = 0, parent = #blocked6}>> -> tensor<1x32xi32, #blocked6>
      %47 = tt.splat %arg10 : i32 -> tensor<1x32xi32, #blocked6>
      %48 = arith.muli %46, %47 : tensor<1x32xi32, #blocked6>
      %49 = arith.extsi %48 : tensor<1x32xi32, #blocked6> to tensor<1x32xi64, #blocked6>
      %50 = tt.broadcast %45 : tensor<64x1xi64, #blocked6> -> tensor<64x32xi64, #blocked6>
      %51 = tt.broadcast %49 : tensor<1x32xi64, #blocked6> -> tensor<64x32xi64, #blocked6>
      %52 = arith.addi %50, %51 : tensor<64x32xi64, #blocked6>
      %53 = tt.addptr %arg1, %42 : !tt.ptr<i8>, i64
      %54 = arith.extsi %arg14 : i32 to i64
      %55 = arith.muli %7, %54 : i64
      %56 = tt.addptr %arg3, %55 : !tt.ptr<i8>, i64
      %57 = tt.expand_dims %41 {axis = 1 : i32} : tensor<32xi32, #ttg.slice<{dim = 1, parent = #linear1}>> -> tensor<32x1xi32, #linear1>
      %58 = tt.splat %arg15 : i32 -> tensor<32x1xi32, #linear1>
      %59 = arith.muli %57, %58 : tensor<32x1xi32, #linear1>
      %60 = arith.extsi %59 : tensor<32x1xi32, #linear1> to tensor<32x1xi64, #linear1>
      %61 = tt.make_range {end = 4 : i32, start = 0 : i32} : tensor<4xi32, #ttg.slice<{dim = 0, parent = #linear1}>>
      %62 = tt.broadcast %60 : tensor<32x1xi64, #linear1> -> tensor<32x4xi64, #linear1>
      %63 = tt.expand_dims %61 {axis = 0 : i32} : tensor<4xi32, #ttg.slice<{dim = 0, parent = #linear1}>> -> tensor<1x4xi32, #linear1>
      %64 = tt.broadcast %63 : tensor<1x4xi32, #linear1> -> tensor<32x4xi32, #linear1>
      %65 = arith.extsi %64 : tensor<32x4xi32, #linear1> to tensor<32x4xi64, #linear1>
      %66 = arith.addi %65, %62 : tensor<32x4xi64, #linear1>
      %67 = tt.splat %56 : !tt.ptr<i8> -> tensor<32x4x!tt.ptr<i8>, #linear1>
      %68 = tt.addptr %67, %66 : tensor<32x4x!tt.ptr<i8>, #linear1>, tensor<32x4xi64, #linear1>
      %69 = tt.load %68 : tensor<32x4x!tt.ptr<i8>, #linear1>
      %70 = tt.trans %69 {order = array<i32: 1, 0>} : tensor<32x4xi8, #linear1> -> tensor<4x32xi8, #ttg.slice<{dim = 2, parent = #blocked4}>>
      %71 = tt.splat %29 : !tt.ptr<bf16> -> tensor<4x128x!tt.ptr<bf16>, #blocked1>
      %72 = tt.addptr %71, %28 : tensor<4x128x!tt.ptr<bf16>, #blocked1>, tensor<4x128xi64, #blocked1>
      %73 = tt.load %72 : tensor<4x128x!tt.ptr<bf16>, #blocked1>
      %74 = tt.splat %53 : !tt.ptr<i8> -> tensor<64x32x!tt.ptr<i8>, #blocked6>
      %75 = tt.addptr %74, %52 : tensor<64x32x!tt.ptr<i8>, #blocked6>, tensor<64x32xi64, #blocked6>
      %76 = tt.load %75 cacheModifier = cg : tensor<64x32x!tt.ptr<i8>, #blocked6>
      %77 = ttg.convert_layout %76 : tensor<64x32xi8, #blocked6> -> tensor<64x32xi8, #blocked3>
      %78 = tt.reshape %73 : tensor<4x128xbf16, #blocked1> -> tensor<4x4x32xbf16, #blocked>
      %79 = math.absf %78 : tensor<4x4x32xbf16, #blocked>
      %80 = arith.extf %79 : tensor<4x4x32xbf16, #blocked> to tensor<4x4x32xf32, #blocked>
      %81 = "tt.reduce"(%80) <{axis = 2 : i32}> ({
      ^bb0(%arg16: f32, %arg17: f32):
        %209 = arith.maxnumf %arg16, %arg17 : f32
        tt.reduce.return %209 : f32
      }) : (tensor<4x4x32xf32, #blocked>) -> tensor<4x4xf32, #ttg.slice<{dim = 2, parent = #blocked}>>
      %82 = ttg.convert_layout %81 : tensor<4x4xf32, #ttg.slice<{dim = 2, parent = #blocked}>> -> tensor<4x4xf32, #ttg.slice<{dim = 2, parent = #linear}>>
      %83 = tt.expand_dims %82 {axis = 2 : i32} : tensor<4x4xf32, #ttg.slice<{dim = 2, parent = #linear}>> -> tensor<4x4x1xf32, #linear>
      %84 = tt.expand_dims %81 {axis = 2 : i32} : tensor<4x4xf32, #ttg.slice<{dim = 2, parent = #blocked}>> -> tensor<4x4x1xf32, #blocked>
      %85 = tt.bitcast %83 : tensor<4x4x1xf32, #linear> -> tensor<4x4x1xi32, #linear>
      %86 = tt.bitcast %84 : tensor<4x4x1xf32, #blocked> -> tensor<4x4x1xi32, #blocked>
      %87 = arith.addi %85, %cst_28 : tensor<4x4x1xi32, #linear>
      %88 = arith.addi %86, %cst_1 : tensor<4x4x1xi32, #blocked>
      %89 = tt.bitcast %87 : tensor<4x4x1xi32, #linear> -> tensor<4x4x1xi32, #linear>
      %90 = tt.bitcast %88 : tensor<4x4x1xi32, #blocked> -> tensor<4x4x1xi32, #blocked>
      %91 = arith.andi %89, %cst_27 : tensor<4x4x1xi32, #linear>
      %92 = arith.andi %90, %cst_4 : tensor<4x4x1xi32, #blocked>
      %93 = tt.bitcast %91 : tensor<4x4x1xi32, #linear> -> tensor<4x4x1xf32, #linear>
      %94 = tt.bitcast %92 : tensor<4x4x1xi32, #blocked> -> tensor<4x4x1xf32, #blocked>
      %95 = math.log2 %93 : tensor<4x4x1xf32, #linear>
      %96 = math.log2 %94 : tensor<4x4x1xf32, #blocked>
      %97 = math.floor %95 : tensor<4x4x1xf32, #linear>
      %98 = math.floor %96 : tensor<4x4x1xf32, #blocked>
      %99 = arith.subf %97, %cst_26 : tensor<4x4x1xf32, #linear>
      %100 = arith.subf %98, %cst_5 : tensor<4x4x1xf32, #blocked>
      %101 = tt.clampf %99, %cst_25, %cst_24, propagateNan = none : tensor<4x4x1xf32, #linear>
      %102 = tt.clampf %100, %cst_18, %cst_23, propagateNan = none : tensor<4x4x1xf32, #blocked>
      %103 = arith.fptoui %101 : tensor<4x4x1xf32, #linear> to tensor<4x4x1xi8, #linear>
      %104 = arith.fptoui %102 : tensor<4x4x1xf32, #blocked> to tensor<4x4x1xi8, #blocked>
      %105 = arith.addi %103, %cst_29 : tensor<4x4x1xi8, #linear>
      %106 = arith.addi %104, %cst : tensor<4x4x1xi8, #blocked>
      %107 = arith.subf %cst_6, %102 : tensor<4x4x1xf32, #blocked>
      %108 = math.exp2 %107 : tensor<4x4x1xf32, #blocked>
      %109 = arith.extf %78 : tensor<4x4x32xbf16, #blocked> to tensor<4x4x32xf32, #blocked>
      %110 = tt.broadcast %108 : tensor<4x4x1xf32, #blocked> -> tensor<4x4x32xf32, #blocked>
      %111 = arith.mulf %109, %110 : tensor<4x4x32xf32, #blocked>
      %112 = tt.bitcast %111 : tensor<4x4x32xf32, #blocked> -> tensor<4x4x32xi32, #blocked>
      %113 = arith.andi %112, %cst_7 : tensor<4x4x32xi32, #blocked>
      %114 = arith.shrui %112, %cst_8 : tensor<4x4x32xi32, #blocked>
      %115 = arith.andi %114, %cst_9 : tensor<4x4x32xi32, #blocked>
      %116 = arith.andi %112, %cst_10 : tensor<4x4x32xi32, #blocked>
      %117 = arith.addi %115, %cst_11 : tensor<4x4x32xi32, #blocked>
      %118 = arith.subi %cst_12, %117 : tensor<4x4x32xi32, #blocked>
      %119 = arith.cmpi ult, %115, %cst_12 : tensor<4x4x32xi32, #blocked>
      %120 = arith.shrui %116, %cst_11 : tensor<4x4x32xi32, #blocked>
      %121 = arith.ori %120, %cst_13 : tensor<4x4x32xi32, #blocked>
      %122 = arith.shrui %121, %118 : tensor<4x4x32xi32, #blocked>
      %123 = arith.select %119, %122, %116 : tensor<4x4x32xi1, #blocked>, tensor<4x4x32xi32, #blocked>
      %124 = arith.maxui %115, %cst_14 : tensor<4x4x32xi32, #blocked>
      %125 = arith.subi %124, %cst_14 : tensor<4x4x32xi32, #blocked>
      %126 = arith.shli %125, %cst_15 : tensor<4x4x32xi32, #blocked>
      %127 = arith.shrui %123, %cst_16 : tensor<4x4x32xi32, #blocked>
      %128 = arith.ori %126, %127 : tensor<4x4x32xi32, #blocked>
      %129 = arith.addi %128, %cst_11 : tensor<4x4x32xi32, #blocked>
      %130 = arith.shrui %129, %cst_11 : tensor<4x4x32xi32, #blocked>
      %131 = arith.minui %130, %cst_22 : tensor<4x4x32xi32, #blocked>
      %132 = arith.shrui %113, %cst_17 : tensor<4x4x32xi32, #blocked>
      %133 = arith.ori %132, %131 : tensor<4x4x32xi32, #blocked>
      %134 = arith.trunci %133 : tensor<4x4x32xi32, #blocked> to tensor<4x4x32xi8, #blocked>
      %135 = tt.reshape %134 : tensor<4x4x32xi8, #blocked> -> tensor<4x4x16x2xi8, #blocked7>
      %outLHS, %outRHS = tt.split %135 : tensor<4x4x16x2xi8, #blocked7> -> tensor<4x4x16xi8, #blocked2>
      %136 = arith.shli %outRHS, %cst_2 : tensor<4x4x16xi8, #blocked2>
      %137 = arith.ori %outLHS, %136 : tensor<4x4x16xi8, #blocked2>
      %138 = tt.reshape %137 : tensor<4x4x16xi8, #blocked2> -> tensor<4x64xi8, #blocked8>
      %139 = tt.reshape %105 : tensor<4x4x1xi8, #linear> -> tensor<4x4xi8, #ttg.slice<{dim = 2, parent = #blocked}>>
      %140 = tt.reshape %106 : tensor<4x4x1xi8, #blocked> -> tensor<4x4xi8, #linear2>
      %141 = ttg.convert_layout %140 : tensor<4x4xi8, #linear2> -> tensor<4x4xi8, #ttg.slice<{dim = 2, parent = #blocked}>>
      %142 = arith.extui %141 : tensor<4x4xi8, #ttg.slice<{dim = 2, parent = #blocked}>> to tensor<4x4xi16, #ttg.slice<{dim = 2, parent = #blocked}>>
      %143 = arith.shli %142, %cst_30 : tensor<4x4xi16, #ttg.slice<{dim = 2, parent = #blocked}>>
      %144 = tt.bitcast %143 : tensor<4x4xi16, #ttg.slice<{dim = 2, parent = #blocked}>> -> tensor<4x4xbf16, #ttg.slice<{dim = 2, parent = #blocked}>>
      %145 = tt.expand_dims %144 {axis = 2 : i32} : tensor<4x4xbf16, #ttg.slice<{dim = 2, parent = #blocked}>> -> tensor<4x4x1xbf16, #blocked>
      %146 = tt.broadcast %145 : tensor<4x4x1xbf16, #blocked> -> tensor<4x4x32xbf16, #blocked>
      %147 = tt.reshape %146 : tensor<4x4x32xbf16, #blocked> -> tensor<4x128xbf16, #blocked1>
      %148 = amdgpu.scaled_upcast_fp4 %138 scale %147 {axis = 1 : i32} : tensor<4x64xi8, #blocked8>, tensor<4x128xbf16, #blocked1> -> tensor<4x128xbf16, #blocked1>
      %149 = arith.cmpi eq, %139, %cst_31 : tensor<4x4xi8, #ttg.slice<{dim = 2, parent = #blocked}>>
      %150 = tt.expand_dims %149 {axis = 2 : i32} : tensor<4x4xi1, #ttg.slice<{dim = 2, parent = #blocked}>> -> tensor<4x4x1xi1, #blocked>
      %151 = tt.broadcast %150 : tensor<4x4x1xi1, #blocked> -> tensor<4x4x32xi1, #blocked>
      %152 = tt.reshape %151 : tensor<4x4x32xi1, #blocked> -> tensor<4x128xi1, #blocked1>
      %153 = arith.select %152, %cst_0, %148 : tensor<4x128xi1, #blocked1>, tensor<4x128xbf16, #blocked1>
      %154 = ttg.local_alloc %153 : (tensor<4x128xbf16, #blocked1>) -> !ttg.memdesc<4x128xbf16, #shared, #smem>
      %155 = ttg.local_load %154 : !ttg.memdesc<4x128xbf16, #shared, #smem> -> tensor<4x128xbf16, #ttg.dot_op<{opIdx = 0, parent = #blocked3}>>
      %156 = arith.extui %70 : tensor<4x32xi8, #ttg.slice<{dim = 2, parent = #blocked4}>> to tensor<4x32xi16, #ttg.slice<{dim = 2, parent = #blocked4}>>
      %157 = arith.shli %156, %cst_19 : tensor<4x32xi16, #ttg.slice<{dim = 2, parent = #blocked4}>>
      %158 = tt.bitcast %157 : tensor<4x32xi16, #ttg.slice<{dim = 2, parent = #blocked4}>> -> tensor<4x32xbf16, #ttg.slice<{dim = 2, parent = #blocked4}>>
      %159 = tt.expand_dims %158 {axis = 2 : i32} : tensor<4x32xbf16, #ttg.slice<{dim = 2, parent = #blocked4}>> -> tensor<4x32x1xbf16, #blocked4>
      %160 = tt.broadcast %159 : tensor<4x32x1xbf16, #blocked4> -> tensor<4x32x32xbf16, #blocked4>
      %161 = tt.trans %160 {order = array<i32: 0, 2, 1>} : tensor<4x32x32xbf16, #blocked4> -> tensor<4x32x32xbf16, #blocked9>
      %162 = tt.reshape %161 : tensor<4x32x32xbf16, #blocked9> -> tensor<128x32xbf16, #blocked5>
      %163 = amdgpu.scaled_upcast_fp4 %77 scale %162 {axis = 0 : i32} : tensor<64x32xi8, #blocked3>, tensor<128x32xbf16, #blocked5> -> tensor<128x32xbf16, #blocked5>
      %164 = arith.cmpi eq, %70, %cst_20 : tensor<4x32xi8, #ttg.slice<{dim = 2, parent = #blocked4}>>
      %165 = tt.expand_dims %164 {axis = 2 : i32} : tensor<4x32xi1, #ttg.slice<{dim = 2, parent = #blocked4}>> -> tensor<4x32x1xi1, #blocked4>
      %166 = tt.broadcast %165 : tensor<4x32x1xi1, #blocked4> -> tensor<4x32x32xi1, #blocked4>
      %167 = tt.trans %166 {order = array<i32: 0, 2, 1>} : tensor<4x32x32xi1, #blocked4> -> tensor<4x32x32xi1, #blocked9>
      %168 = tt.reshape %167 : tensor<4x32x32xi1, #blocked9> -> tensor<128x32xi1, #blocked5>
      %169 = arith.select %168, %cst_21, %163 : tensor<128x32xi1, #blocked5>, tensor<128x32xbf16, #blocked5>
      %170 = ttg.local_alloc %169 : (tensor<128x32xbf16, #blocked5>) -> !ttg.memdesc<128x32xbf16, #shared, #smem>
      %171 = ttg.local_load %170 : !ttg.memdesc<128x32xbf16, #shared, #smem> -> tensor<128x32xbf16, #ttg.dot_op<{opIdx = 1, parent = #blocked3}>>
      %172 = tt.dot %155, %171, %cst_3 : tensor<4x128xbf16, #ttg.dot_op<{opIdx = 0, parent = #blocked3}>> * tensor<128x32xbf16, #ttg.dot_op<{opIdx = 1, parent = #blocked3}>> -> tensor<4x32xf32, #blocked3>
      %173 = arith.addf %172, %cst_3 : tensor<4x32xf32, #blocked3>
      %174 = arith.truncf %173 : tensor<4x32xf32, #blocked3> to tensor<4x32xbf16, #blocked3>
      %175 = arith.extsi %13 : tensor<4xi32, #ttg.slice<{dim = 1, parent = #blocked3}>> to tensor<4xi64, #ttg.slice<{dim = 1, parent = #blocked3}>>
      %176 = arith.extsi %11 : i32 to i64
      %177 = tt.splat %176 : i64 -> tensor<4xi64, #ttg.slice<{dim = 1, parent = #blocked3}>>
      %178 = arith.addi %177, %175 : tensor<4xi64, #ttg.slice<{dim = 1, parent = #blocked3}>>
      %179 = arith.extsi %32 : tensor<32xi32, #ttg.slice<{dim = 0, parent = #blocked3}>> to tensor<32xi64, #ttg.slice<{dim = 0, parent = #blocked3}>>
      %180 = arith.extsi %30 : i32 to i64
      %181 = tt.splat %180 : i64 -> tensor<32xi64, #ttg.slice<{dim = 0, parent = #blocked3}>>
      %182 = arith.addi %181, %179 : tensor<32xi64, #ttg.slice<{dim = 0, parent = #blocked3}>>
      %183 = arith.muli %7, %6 : i64
      %184 = tt.addptr %arg2, %183 : !tt.ptr<bf16>, i64
      %185 = tt.expand_dims %178 {axis = 1 : i32} : tensor<4xi64, #ttg.slice<{dim = 1, parent = #blocked3}>> -> tensor<4x1xi64, #blocked3>
      %186 = arith.extsi %arg13 : i32 to i64
      %187 = tt.expand_dims %175 {axis = 1 : i32} : tensor<4xi64, #ttg.slice<{dim = 1, parent = #blocked3}>> -> tensor<4x1xi64, #blocked3>
      %188 = arith.muli %186, %176 : i64
      %189 = tt.splat %186 : i64 -> tensor<4x1xi64, #blocked3>
      %190 = arith.muli %189, %187 : tensor<4x1xi64, #blocked3>
      %191 = tt.addptr %184, %188 : !tt.ptr<bf16>, i64
      %192 = tt.expand_dims %182 {axis = 0 : i32} : tensor<32xi64, #ttg.slice<{dim = 0, parent = #blocked3}>> -> tensor<1x32xi64, #blocked3>
      %193 = tt.broadcast %190 : tensor<4x1xi64, #blocked3> -> tensor<4x32xi64, #blocked3>
      %194 = tt.expand_dims %179 {axis = 0 : i32} : tensor<32xi64, #ttg.slice<{dim = 0, parent = #blocked3}>> -> tensor<1x32xi64, #blocked3>
      %195 = tt.broadcast %194 : tensor<1x32xi64, #blocked3> -> tensor<4x32xi64, #blocked3>
      %196 = tt.addptr %191, %180 : !tt.ptr<bf16>, i64
      %197 = arith.addi %195, %193 : tensor<4x32xi64, #blocked3>
      %198 = arith.extsi %arg4 : i32 to i64
      %199 = tt.splat %198 : i64 -> tensor<4x1xi64, #blocked3>
      %200 = arith.cmpi slt, %185, %199 : tensor<4x1xi64, #blocked3>
      %201 = arith.extsi %arg5 : i32 to i64
      %202 = tt.splat %201 : i64 -> tensor<1x32xi64, #blocked3>
      %203 = arith.cmpi slt, %192, %202 : tensor<1x32xi64, #blocked3>
      %204 = tt.broadcast %200 : tensor<4x1xi1, #blocked3> -> tensor<4x32xi1, #blocked3>
      %205 = tt.broadcast %203 : tensor<1x32xi1, #blocked3> -> tensor<4x32xi1, #blocked3>
      %206 = arith.andi %204, %205 : tensor<4x32xi1, #blocked3>
      %207 = tt.splat %196 : !tt.ptr<bf16> -> tensor<4x32x!tt.ptr<bf16>, #blocked3>
      %208 = tt.addptr %207, %197 : tensor<4x32x!tt.ptr<bf16>, #blocked3>, tensor<4x32xi64, #blocked3>
      tt.store %208, %174, %206 : tensor<4x32x!tt.ptr<bf16>, #blocked3>
    }
    tt.return
  }
}

{-#
  external_resources: {
    mlir_reproducer: {
      pipeline: "builtin.module(optimize-amd-lds-usage{lds-limit=0 target-arch=gfx950}, triton-scf-to-cf, convert-index-to-llvm{index-bitwidth=0}, allocate-amdgpu-shared-memory, convert-triton-amdgpu-to-llvm{arch=gfx950 ftz=true}, canonicalize{  max-iterations=10 max-num-rewrites=-1 region-simplify=normal test-convergence=false top-down=true}, cse, convert-cf-to-llvm{index-bitwidth=0}, convert-arith-to-llvm{index-bitwidth=0}, canonicalize{  max-iterations=10 max-num-rewrites=-1 region-simplify=normal test-convergence=false top-down=true}, cse, symbol-dce, enable-line-info, convert-builtin-func-to-llvm{ftz=true})",
      disable_threading: false,
      verify_each: true
    }
  }
#-}
/tmp/torchinductor_root/t3/ct3t3fw7xnhqwm57kt7agtaxeqou6t67nnepo76oz4ssegp6addy.py:18:0: error: Failures have been detected while processing an MLIR pass pipeline
/tmp/torchinductor_root/t3/ct3t3fw7xnhqwm57kt7agtaxeqou6t67nnepo76oz4ssegp6addy.py:18:0: note: Pipeline failed while executing [`ConvertTritonAMDGPUToLLVM` on 'builtin.module' operation]: reproducer generated at `std::errs, please share the reproducer above with Triton project.`
[rank4]:E1103 11:31:40.621000 513 torch/_inductor/runtime/triton_heuristics.py:750] [22/0] Triton compilation failed: _batched_gemm_afp4_wfp4_pre_quant_kernel_0
[rank4]:E1103 11:31:40.621000 513 torch/_inductor/runtime/triton_heuristics.py:750] [22/0] def _batched_gemm_afp4_wfp4_pre_quant_kernel(
[rank4]:E1103 11:31:40.621000 513 torch/_inductor/runtime/triton_heuristics.py:750] [22/0]     a_ptr,
[rank4]:E1103 11:31:40.621000 513 torch/_inductor/runtime/triton_heuristics.py:750] [22/0]     b_ptr,
[rank4]:E1103 11:31:40.621000 513 torch/_inductor/runtime/triton_heuristics.py:750] [22/0]     c_ptr,
[rank4]:E1103 11:31:40.621000 513 torch/_inductor/runtime/triton_heuristics.py:750] [22/0]     b_scales_ptr,
[rank4]:E1103 11:31:40.621000 513 torch/_inductor/runtime/triton_heuristics.py:750] [22/0]     M,
[rank4]:E1103 11:31:40.621000 513 torch/_inductor/runtime/triton_heuristics.py:750] [22/0]     N,
[rank4]:E1103 11:31:40.621000 513 torch/_inductor/runtime/triton_heuristics.py:750] [22/0]     K,
[rank4]:E1103 11:31:40.621000 513 torch/_inductor/runtime/triton_heuristics.py:750] [22/0]     stride_ab,
[rank4]:E1103 11:31:40.621000 513 torch/_inductor/runtime/triton_heuristics.py:750] [22/0]     stride_am,
[rank4]:E1103 11:31:40.621000 513 torch/_inductor/runtime/triton_heuristics.py:750] [22/0]     stride_ak,
[rank4]:E1103 11:31:40.621000 513 torch/_inductor/runtime/triton_heuristics.py:750] [22/0]     stride_bb,
[rank4]:E1103 11:31:40.621000 513 torch/_inductor/runtime/triton_heuristics.py:750] [22/0]     stride_bk,
[rank4]:E1103 11:31:40.621000 513 torch/_inductor/runtime/triton_heuristics.py:750] [22/0]     stride_bn,
[rank4]:E1103 11:31:40.621000 513 torch/_inductor/runtime/triton_heuristics.py:750] [22/0]     stride_cb,
[rank4]:E1103 11:31:40.621000 513 torch/_inductor/runtime/triton_heuristics.py:750] [22/0]     stride_ck,
[rank4]:E1103 11:31:40.621000 513 torch/_inductor/runtime/triton_heuristics.py:750] [22/0]     stride_cm,
[rank4]:E1103 11:31:40.621000 513 torch/_inductor/runtime/triton_heuristics.py:750] [22/0]     stride_cn,
[rank4]:E1103 11:31:40.621000 513 torch/_inductor/runtime/triton_heuristics.py:750] [22/0]     stride_bsb,
[rank4]:E1103 11:31:40.621000 513 torch/_inductor/runtime/triton_heuristics.py:750] [22/0]     stride_bsn,
[rank4]:E1103 11:31:40.621000 513 torch/_inductor/runtime/triton_heuristics.py:750] [22/0]     stride_bsk,
[rank4]:E1103 11:31:40.621000 513 torch/_inductor/runtime/triton_heuristics.py:750] [22/0]     # Meta-parameters
[rank4]:E1103 11:31:40.621000 513 torch/_inductor/runtime/triton_heuristics.py:750] [22/0]     BLOCK_SIZE_M: tl.constexpr,
[rank4]:E1103 11:31:40.621000 513 torch/_inductor/runtime/triton_heuristics.py:750] [22/0]     BLOCK_SIZE_N: tl.constexpr,
[rank4]:E1103 11:31:40.621000 513 torch/_inductor/runtime/triton_heuristics.py:750] [22/0]     BLOCK_SIZE_K: tl.constexpr,
[rank4]:E1103 11:31:40.621000 513 torch/_inductor/runtime/triton_heuristics.py:750] [22/0]     GROUP_SIZE_M: tl.constexpr,
[rank4]:E1103 11:31:40.621000 513 torch/_inductor/runtime/triton_heuristics.py:750] [22/0]     NUM_KSPLIT: tl.constexpr,
[rank4]:E1103 11:31:40.621000 513 torch/_inductor/runtime/triton_heuristics.py:750] [22/0]     SPLITK_BLOCK_SIZE: tl.constexpr,
[rank4]:E1103 11:31:40.621000 513 torch/_inductor/runtime/triton_heuristics.py:750] [22/0]     EVEN_K: tl.constexpr,
[rank4]:E1103 11:31:40.621000 513 torch/_inductor/runtime/triton_heuristics.py:750] [22/0]     GRID_MN: tl.constexpr,
[rank4]:E1103 11:31:40.621000 513 torch/_inductor/runtime/triton_heuristics.py:750] [22/0]     cache_modifier: tl.constexpr,
[rank4]:E1103 11:31:40.621000 513 torch/_inductor/runtime/triton_heuristics.py:750] [22/0] ):
[rank4]:E1103 11:31:40.621000 513 torch/_inductor/runtime/triton_heuristics.py:750] [22/0]     """Kernel for computing the matmul C = A x B.
[rank4]:E1103 11:31:40.621000 513 torch/_inductor/runtime/triton_heuristics.py:750] [22/0]     A and B inputs are in the microscale fp4 (mxfp4) format.
[rank4]:E1103 11:31:40.621000 513 torch/_inductor/runtime/triton_heuristics.py:750] [22/0]     A_scales and B_scales are in e8m0 format.
[rank4]:E1103 11:31:40.621000 513 torch/_inductor/runtime/triton_heuristics.py:750] [22/0]     A has shape (M, K), B has shape (K, N) and C has shape (M, N)
[rank4]:E1103 11:31:40.621000 513 torch/_inductor/runtime/triton_heuristics.py:750] [22/0]     """
[rank4]:E1103 11:31:40.621000 513 torch/_inductor/runtime/triton_heuristics.py:750] [22/0] 
[rank4]:E1103 11:31:40.621000 513 torch/_inductor/runtime/triton_heuristics.py:750] [22/0]     tl.assume(stride_ab > 0)
[rank4]:E1103 11:31:40.621000 513 torch/_inductor/runtime/triton_heuristics.py:750] [22/0]     tl.assume(stride_am > 0)
[rank4]:E1103 11:31:40.621000 513 torch/_inductor/runtime/triton_heuristics.py:750] [22/0]     tl.assume(stride_ak > 0)
[rank4]:E1103 11:31:40.621000 513 torch/_inductor/runtime/triton_heuristics.py:750] [22/0]     tl.assume(stride_bb > 0)
[rank4]:E1103 11:31:40.621000 513 torch/_inductor/runtime/triton_heuristics.py:750] [22/0]     tl.assume(stride_bk > 0)
[rank4]:E1103 11:31:40.621000 513 torch/_inductor/runtime/triton_heuristics.py:750] [22/0]     tl.assume(stride_bn > 0)
[rank4]:E1103 11:31:40.621000 513 torch/_inductor/runtime/triton_heuristics.py:750] [22/0]     tl.assume(stride_cb > 0)
[rank4]:E1103 11:31:40.621000 513 torch/_inductor/runtime/triton_heuristics.py:750] [22/0]     tl.assume(stride_cm > 0)
[rank4]:E1103 11:31:40.621000 513 torch/_inductor/runtime/triton_heuristics.py:750] [22/0]     tl.assume(stride_cn > 0)
[rank4]:E1103 11:31:40.621000 513 torch/_inductor/runtime/triton_heuristics.py:750] [22/0]     tl.assume(stride_bsb > 0)
[rank4]:E1103 11:31:40.621000 513 torch/_inductor/runtime/triton_heuristics.py:750] [22/0]     tl.assume(stride_bsk > 0)
[rank4]:E1103 11:31:40.621000 513 torch/_inductor/runtime/triton_heuristics.py:750] [22/0]     tl.assume(stride_bsn > 0)
[rank4]:E1103 11:31:40.621000 513 torch/_inductor/runtime/triton_heuristics.py:750] [22/0] 
[rank4]:E1103 11:31:40.621000 513 torch/_inductor/runtime/triton_heuristics.py:750] [22/0]     # -----------------------------------------------------------
[rank4]:E1103 11:31:40.621000 513 torch/_inductor/runtime/triton_heuristics.py:750] [22/0]     # Map program ids `pid` to the block of C it should compute.
[rank4]:E1103 11:31:40.621000 513 torch/_inductor/runtime/triton_heuristics.py:750] [22/0]     # This is done in a grouped ordering to promote L2 data reuse.
[rank4]:E1103 11:31:40.621000 513 torch/_inductor/runtime/triton_heuristics.py:750] [22/0]     pid_batch = tl.program_id(axis=0)
[rank4]:E1103 11:31:40.621000 513 torch/_inductor/runtime/triton_heuristics.py:750] [22/0]     pid_unified = tl.program_id(axis=1)
[rank4]:E1103 11:31:40.621000 513 torch/_inductor/runtime/triton_heuristics.py:750] [22/0]     pid_k = pid_unified % NUM_KSPLIT
[rank4]:E1103 11:31:40.621000 513 torch/_inductor/runtime/triton_heuristics.py:750] [22/0]     pid = pid_unified // NUM_KSPLIT
[rank4]:E1103 11:31:40.621000 513 torch/_inductor/runtime/triton_heuristics.py:750] [22/0]     num_pid_m = tl.cdiv(M, BLOCK_SIZE_M)
[rank4]:E1103 11:31:40.621000 513 torch/_inductor/runtime/triton_heuristics.py:750] [22/0]     num_pid_n = tl.cdiv(N, BLOCK_SIZE_N)
[rank4]:E1103 11:31:40.621000 513 torch/_inductor/runtime/triton_heuristics.py:750] [22/0] 
[rank4]:E1103 11:31:40.621000 513 torch/_inductor/runtime/triton_heuristics.py:750] [22/0]     # Cast batch id and batch dimension strides to int64 to avoid int32 overflow during offset calculation
[rank4]:E1103 11:31:40.621000 513 torch/_inductor/runtime/triton_heuristics.py:750] [22/0]     # Note: If you're attempting to cast strides to int64 to prevent integer overflow, use `tl.cast` instead of `.to()`.
[rank4]:E1103 11:31:40.621000 513 torch/_inductor/runtime/triton_heuristics.py:750] [22/0]     # See https://github.com/ROCm/aiter/pull/597 for rationale
[rank4]:E1103 11:31:40.621000 513 torch/_inductor/runtime/triton_heuristics.py:750] [22/0]     stride_ab = tl.cast(stride_ab, tl.int64)
[rank4]:E1103 11:31:40.621000 513 torch/_inductor/runtime/triton_heuristics.py:750] [22/0]     stride_bb = tl.cast(stride_bb, tl.int64)
[rank4]:E1103 11:31:40.621000 513 torch/_inductor/runtime/triton_heuristics.py:750] [22/0]     stride_cb = tl.cast(stride_cb, tl.int64)
[rank4]:E1103 11:31:40.621000 513 torch/_inductor/runtime/triton_heuristics.py:750] [22/0]     pid_batch = tl.cast(pid_batch, tl.int64)
[rank4]:E1103 11:31:40.621000 513 torch/_inductor/runtime/triton_heuristics.py:750] [22/0] 
[rank4]:E1103 11:31:40.621000 513 torch/_inductor/runtime/triton_heuristics.py:750] [22/0]     if NUM_KSPLIT == 1:
[rank4]:E1103 11:31:40.621000 513 torch/_inductor/runtime/triton_heuristics.py:750] [22/0]         remap_xcd(pid, GRID_MN)
[rank4]:E1103 11:31:40.621000 513 torch/_inductor/runtime/triton_heuristics.py:750] [22/0] 
[rank4]:E1103 11:31:40.621000 513 torch/_inductor/runtime/triton_heuristics.py:750] [22/0]         pid_m, pid_n = pid_grid(pid, num_pid_m, num_pid_n, GROUP_SIZE_M=GROUP_SIZE_M)
[rank4]:E1103 11:31:40.621000 513 torch/_inductor/runtime/triton_heuristics.py:750] [22/0]     else:
[rank4]:E1103 11:31:40.621000 513 torch/_inductor/runtime/triton_heuristics.py:750] [22/0]         pid_m = pid // num_pid_n
[rank4]:E1103 11:31:40.621000 513 torch/_inductor/runtime/triton_heuristics.py:750] [22/0]         pid_n = pid % num_pid_n
[rank4]:E1103 11:31:40.621000 513 torch/_inductor/runtime/triton_heuristics.py:750] [22/0] 
[rank4]:E1103 11:31:40.621000 513 torch/_inductor/runtime/triton_heuristics.py:750] [22/0]     tl.assume(pid_batch >= 0)
[rank4]:E1103 11:31:40.621000 513 torch/_inductor/runtime/triton_heuristics.py:750] [22/0]     tl.assume(pid_m >= 0)
[rank4]:E1103 11:31:40.621000 513 torch/_inductor/runtime/triton_heuristics.py:750] [22/0]     tl.assume(pid_n >= 0)
[rank4]:E1103 11:31:40.621000 513 torch/_inductor/runtime/triton_heuristics.py:750] [22/0]     # We assume 32 elements along K share the same scale.
[rank4]:E1103 11:31:40.621000 513 torch/_inductor/runtime/triton_heuristics.py:750] [22/0]     SCALE_GROUP_SIZE: tl.constexpr = 32
[rank4]:E1103 11:31:40.621000 513 torch/_inductor/runtime/triton_heuristics.py:750] [22/0] 
[rank4]:E1103 11:31:40.621000 513 torch/_inductor/runtime/triton_heuristics.py:750] [22/0]     if (pid_k * SPLITK_BLOCK_SIZE // 2) < K:
[rank4]:E1103 11:31:40.621000 513 torch/_inductor/runtime/triton_heuristics.py:750] [22/0] 
[rank4]:E1103 11:31:40.621000 513 torch/_inductor/runtime/triton_heuristics.py:750] [22/0]         num_k_iter = tl.cdiv(SPLITK_BLOCK_SIZE // 2, BLOCK_SIZE_K // 2)
[rank4]:E1103 11:31:40.621000 513 torch/_inductor/runtime/triton_heuristics.py:750] [22/0] 
[rank4]:E1103 11:31:40.621000 513 torch/_inductor/runtime/triton_heuristics.py:750] [22/0]         # Create pointers for first block of A and B input matrices
[rank4]:E1103 11:31:40.621000 513 torch/_inductor/runtime/triton_heuristics.py:750] [22/0]         # The BLOCK sizes are of the elements and in fp4 we pack 2 per uint8 container.
[rank4]:E1103 11:31:40.621000 513 torch/_inductor/runtime/triton_heuristics.py:750] [22/0]         offs_k_bf16 = tl.arange(0, BLOCK_SIZE_K)
[rank4]:E1103 11:31:40.621000 513 torch/_inductor/runtime/triton_heuristics.py:750] [22/0]         offs_k_split_bf16 = pid_k * SPLITK_BLOCK_SIZE + offs_k_bf16
[rank4]:E1103 11:31:40.621000 513 torch/_inductor/runtime/triton_heuristics.py:750] [22/0]         offs_am = (pid_m * BLOCK_SIZE_M + tl.arange(0, BLOCK_SIZE_M)) % M
[rank4]:E1103 11:31:40.621000 513 torch/_inductor/runtime/triton_heuristics.py:750] [22/0]         a_ptrs = a_ptr + (
[rank4]:E1103 11:31:40.621000 513 torch/_inductor/runtime/triton_heuristics.py:750] [22/0]             pid_batch * stride_ab
[rank4]:E1103 11:31:40.621000 513 torch/_inductor/runtime/triton_heuristics.py:750] [22/0]             + offs_am[:, None] * stride_am
[rank4]:E1103 11:31:40.621000 513 torch/_inductor/runtime/triton_heuristics.py:750] [22/0]             + offs_k_split_bf16[None, :] * stride_ak
[rank4]:E1103 11:31:40.621000 513 torch/_inductor/runtime/triton_heuristics.py:750] [22/0]         )
[rank4]:E1103 11:31:40.621000 513 torch/_inductor/runtime/triton_heuristics.py:750] [22/0] 
[rank4]:E1103 11:31:40.621000 513 torch/_inductor/runtime/triton_heuristics.py:750] [22/0]         offs_k = tl.arange(0, BLOCK_SIZE_K // 2)
[rank4]:E1103 11:31:40.621000 513 torch/_inductor/runtime/triton_heuristics.py:750] [22/0]         offs_k_split = pid_k * (SPLITK_BLOCK_SIZE // 2) + offs_k
[rank4]:E1103 11:31:40.621000 513 torch/_inductor/runtime/triton_heuristics.py:750] [22/0]         offs_bn = (pid_n * BLOCK_SIZE_N + tl.arange(0, BLOCK_SIZE_N)) % N
[rank4]:E1103 11:31:40.621000 513 torch/_inductor/runtime/triton_heuristics.py:750] [22/0]         b_ptrs = b_ptr + (
[rank4]:E1103 11:31:40.621000 513 torch/_inductor/runtime/triton_heuristics.py:750] [22/0]             pid_batch * stride_bb
[rank4]:E1103 11:31:40.621000 513 torch/_inductor/runtime/triton_heuristics.py:750] [22/0]             + offs_k_split[:, None] * stride_bk
[rank4]:E1103 11:31:40.621000 513 torch/_inductor/runtime/triton_heuristics.py:750] [22/0]             + offs_bn[None, :] * stride_bn
[rank4]:E1103 11:31:40.621000 513 torch/_inductor/runtime/triton_heuristics.py:750] [22/0]         )
[rank4]:E1103 11:31:40.621000 513 torch/_inductor/runtime/triton_heuristics.py:750] [22/0]         # Create pointers for the first block of A and B scales
[rank4]:E1103 11:31:40.621000 513 torch/_inductor/runtime/triton_heuristics.py:750] [22/0]         offs_ks = (pid_k * (SPLITK_BLOCK_SIZE // SCALE_GROUP_SIZE)) + tl.arange(
[rank4]:E1103 11:31:40.621000 513 torch/_inductor/runtime/triton_heuristics.py:750] [22/0]             0, BLOCK_SIZE_K // SCALE_GROUP_SIZE
[rank4]:E1103 11:31:40.621000 513 torch/_inductor/runtime/triton_heuristics.py:750] [22/0]         )
[rank4]:E1103 11:31:40.621000 513 torch/_inductor/runtime/triton_heuristics.py:750] [22/0]         # B scales are N x K even though B operand is K x N.
[rank4]:E1103 11:31:40.621000 513 torch/_inductor/runtime/triton_heuristics.py:750] [22/0]         b_scale_ptrs = (
[rank4]:E1103 11:31:40.621000 513 torch/_inductor/runtime/triton_heuristics.py:750] [22/0]             b_scales_ptr
[rank4]:E1103 11:31:40.621000 513 torch/_inductor/runtime/triton_heuristics.py:750] [22/0]             + pid_batch * stride_bsb
[rank4]:E1103 11:31:40.621000 513 torch/_inductor/runtime/triton_heuristics.py:750] [22/0]             + offs_bn[:, None] * stride_bsn
[rank4]:E1103 11:31:40.621000 513 torch/_inductor/runtime/triton_heuristics.py:750] [22/0]             + offs_ks[None, :] * stride_bsk
[rank4]:E1103 11:31:40.621000 513 torch/_inductor/runtime/triton_heuristics.py:750] [22/0]         )
[rank4]:E1103 11:31:40.621000 513 torch/_inductor/runtime/triton_heuristics.py:750] [22/0] 
[rank4]:E1103 11:31:40.621000 513 torch/_inductor/runtime/triton_heuristics.py:750] [22/0]         accumulator = tl.zeros((BLOCK_SIZE_M, BLOCK_SIZE_N), dtype=tl.float32)
[rank4]:E1103 11:31:40.621000 513 torch/_inductor/runtime/triton_heuristics.py:750] [22/0] 
[rank4]:E1103 11:31:40.621000 513 torch/_inductor/runtime/triton_heuristics.py:750] [22/0]         for k in range(pid_k * num_k_iter, (pid_k + 1) * num_k_iter):
[rank4]:E1103 11:31:40.621000 513 torch/_inductor/runtime/triton_heuristics.py:750] [22/0]             b_scales = tl.load(b_scale_ptrs)
[rank4]:E1103 11:31:40.621000 513 torch/_inductor/runtime/triton_heuristics.py:750] [22/0]             # a_scales = tl.full((BLOCK_SIZE_M, BLOCK_SIZE_K//SCALE_GROUP_SIZE), 127, dtype=tl.uint8)
[rank4]:E1103 11:31:40.621000 513 torch/_inductor/runtime/triton_heuristics.py:750] [22/0]             # b_scales = tl.full((BLOCK_SIZE_N, BLOCK_SIZE_K//SCALE_GROUP_SIZE), 127, dtype=tl.uint8)
[rank4]:E1103 11:31:40.621000 513 torch/_inductor/runtime/triton_heuristics.py:750] [22/0]             # Load the next block of A and B, generate a mask by checking the K dimension.
[rank4]:E1103 11:31:40.621000 513 torch/_inductor/runtime/triton_heuristics.py:750] [22/0]             # If it is out of bounds, set it to 0.
[rank4]:E1103 11:31:40.621000 513 torch/_inductor/runtime/triton_heuristics.py:750] [22/0]             if EVEN_K:
[rank4]:E1103 11:31:40.621000 513 torch/_inductor/runtime/triton_heuristics.py:750] [22/0]                 a_bf16 = tl.load(a_ptrs)
[rank4]:E1103 11:31:40.621000 513 torch/_inductor/runtime/triton_heuristics.py:750] [22/0]                 b = tl.load(b_ptrs, cache_modifier=cache_modifier)
[rank4]:E1103 11:31:40.621000 513 torch/_inductor/runtime/triton_heuristics.py:750] [22/0]             else:
[rank4]:E1103 11:31:40.621000 513 torch/_inductor/runtime/triton_heuristics.py:750] [22/0]                 a_bf16 = tl.load(
[rank4]:E1103 11:31:40.621000 513 torch/_inductor/runtime/triton_heuristics.py:750] [22/0]                     a_ptrs, mask=offs_k[None, :] < K - k * BLOCK_SIZE_K, other=0
[rank4]:E1103 11:31:40.621000 513 torch/_inductor/runtime/triton_heuristics.py:750] [22/0]                 )
[rank4]:E1103 11:31:40.621000 513 torch/_inductor/runtime/triton_heuristics.py:750] [22/0]                 b = tl.load(
[rank4]:E1103 11:31:40.621000 513 torch/_inductor/runtime/triton_heuristics.py:750] [22/0]                     b_ptrs, mask=offs_k[:, None] < K - k * (BLOCK_SIZE_K // 2), other=0
[rank4]:E1103 11:31:40.621000 513 torch/_inductor/runtime/triton_heuristics.py:750] [22/0]                 )
[rank4]:E1103 11:31:40.621000 513 torch/_inductor/runtime/triton_heuristics.py:750] [22/0] 
[rank4]:E1103 11:31:40.621000 513 torch/_inductor/runtime/triton_heuristics.py:750] [22/0]             a, a_scales = _mxfp4_quant_op(a_bf16, BLOCK_SIZE_K, BLOCK_SIZE_M, 32)
[rank4]:E1103 11:31:40.621000 513 torch/_inductor/runtime/triton_heuristics.py:750] [22/0] 
[rank4]:E1103 11:31:40.621000 513 torch/_inductor/runtime/triton_heuristics.py:750] [22/0]             accumulator += tl.dot_scaled(a, a_scales, "e2m1", b, b_scales, "e2m1")
[rank4]:E1103 11:31:40.621000 513 torch/_inductor/runtime/triton_heuristics.py:750] [22/0] 
[rank4]:E1103 11:31:40.621000 513 torch/_inductor/runtime/triton_heuristics.py:750] [22/0]             # Advance the ptrs to the next K block.
[rank4]:E1103 11:31:40.621000 513 torch/_inductor/runtime/triton_heuristics.py:750] [22/0]             a_ptrs += BLOCK_SIZE_K * stride_ak
[rank4]:E1103 11:31:40.621000 513 torch/_inductor/runtime/triton_heuristics.py:750] [22/0]             b_ptrs += (BLOCK_SIZE_K // 2) * stride_bk
[rank4]:E1103 11:31:40.621000 513 torch/_inductor/runtime/triton_heuristics.py:750] [22/0]             b_scale_ptrs += (BLOCK_SIZE_K // SCALE_GROUP_SIZE) * stride_bsk
[rank4]:E1103 11:31:40.621000 513 torch/_inductor/runtime/triton_heuristics.py:750] [22/0] 
[rank4]:E1103 11:31:40.621000 513 torch/_inductor/runtime/triton_heuristics.py:750] [22/0]         c = accumulator.to(c_ptr.type.element_ty)
[rank4]:E1103 11:31:40.621000 513 torch/_inductor/runtime/triton_heuristics.py:750] [22/0] 
[rank4]:E1103 11:31:40.621000 513 torch/_inductor/runtime/triton_heuristics.py:750] [22/0]         # Write back the block of the output matrix C with masks.
[rank4]:E1103 11:31:40.621000 513 torch/_inductor/runtime/triton_heuristics.py:750] [22/0]         offs_cm = pid_m * BLOCK_SIZE_M + tl.arange(0, BLOCK_SIZE_M).to(tl.int64)
[rank4]:E1103 11:31:40.621000 513 torch/_inductor/runtime/triton_heuristics.py:750] [22/0]         offs_cn = pid_n * BLOCK_SIZE_N + tl.arange(0, BLOCK_SIZE_N).to(tl.int64)
[rank4]:E1103 11:31:40.621000 513 torch/_inductor/runtime/triton_heuristics.py:750] [22/0]         c_ptrs = (
[rank4]:E1103 11:31:40.621000 513 torch/_inductor/runtime/triton_heuristics.py:750] [22/0]             c_ptr
[rank4]:E1103 11:31:40.621000 513 torch/_inductor/runtime/triton_heuristics.py:750] [22/0]             + pid_batch * stride_cb
[rank4]:E1103 11:31:40.621000 513 torch/_inductor/runtime/triton_heuristics.py:750] [22/0]             + stride_cm * offs_cm[:, None]
[rank4]:E1103 11:31:40.621000 513 torch/_inductor/runtime/triton_heuristics.py:750] [22/0]             + stride_cn * offs_cn[None, :]
[rank4]:E1103 11:31:40.621000 513 torch/_inductor/runtime/triton_heuristics.py:750] [22/0]             + pid_k * stride_ck
[rank4]:E1103 11:31:40.621000 513 torch/_inductor/runtime/triton_heuristics.py:750] [22/0]         )
[rank4]:E1103 11:31:40.621000 513 torch/_inductor/runtime/triton_heuristics.py:750] [22/0]         c_mask = (offs_cm[:, None] < M) & (offs_cn[None, :] < N)
[rank4]:E1103 11:31:40.621000 513 torch/_inductor/runtime/triton_heuristics.py:750] [22/0]         tl.store(c_ptrs, c, mask=c_mask)
[rank4]:E1103 11:31:40.621000 513 torch/_inductor/runtime/triton_heuristics.py:750] [22/0] 
[rank4]:E1103 11:31:40.621000 513 torch/_inductor/runtime/triton_heuristics.py:750] [22/0] metadata: {'signature': {'a_ptr': '*bf16', 'b_ptr': '*u8', 'c_ptr': '*bf16', 'b_scales_ptr': '*u8', 'M': 'i32', 'N': 'i32', 'K': 'i32', 'stride_ab': 'i32', 'stride_am': 'i32', 'stride_ak': 'constexpr', 'stride_bb': 'i32', 'stride_bk': 'constexpr', 'stride_bn': 'i32', 'stride_cb': 'i32', 'stride_ck': 'i32', 'stride_cm': 'i32', 'stride_cn': 'constexpr', 'stride_bsb': 'i32', 'stride_bsn': 'i32', 'stride_bsk': 'constexpr', 'BLOCK_SIZE_M': 'constexpr', 'BLOCK_SIZE_N': 'constexpr', 'BLOCK_SIZE_K': 'constexpr', 'GROUP_SIZE_M': 'constexpr', 'NUM_KSPLIT': 'constexpr', 'SPLITK_BLOCK_SIZE': 'constexpr', 'EVEN_K': 'constexpr', 'GRID_MN': 'constexpr', 'cache_modifier': 'constexpr'}, 'device': 4, 'constants': {'stride_ak': 1, 'stride_bk': 1, 'stride_cn': 1, 'stride_bsk': 1, 'BLOCK_SIZE_M': 4, 'BLOCK_SIZE_N': 32, 'BLOCK_SIZE_K': 128, 'GROUP_SIZE_M': 1, 'NUM_KSPLIT': 1, 'SPLITK_BLOCK_SIZE': 128, 'EVEN_K': True, 'GRID_MN': 64, 'cache_modifier': '.cg'}, 'configs': [{(0,): [['tt.divisibility', 16]], (1,): [['tt.divisibility', 16]], (2,): [['tt.divisibility', 16]], (3,): [['tt.divisibility', 16]], (4,): [['tt.divisibility', 16]], (5,): [['tt.divisibility', 16]], (6,): [['tt.divisibility', 16]], (7,): [['tt.divisibility', 16]], (8,): [['tt.divisibility', 16]], (10,): [['tt.divisibility', 16]], (12,): [['tt.divisibility', 16]], (13,): [['tt.divisibility', 16]], (14,): [['tt.divisibility', 16]], (15,): [['tt.divisibility', 16]], (17,): [['tt.divisibility', 16]]}], 'device_type': 'hip', 'num_warps': 4, 'num_stages': 1, 'debug': False, 'cc': 'gfx950'}
[rank4]:E1103 11:31:40.621000 513 torch/_inductor/runtime/triton_heuristics.py:750] [22/0] Traceback (most recent call last):
[rank4]:E1103 11:31:40.621000 513 torch/_inductor/runtime/triton_heuristics.py:750] [22/0]   File "/opt/venv/lib/python3.10/site-packages/torch/_inductor/runtime/triton_heuristics.py", line 748, in _precompile_config
[rank4]:E1103 11:31:40.621000 513 torch/_inductor/runtime/triton_heuristics.py:750] [22/0]     binary = triton.compile(*compile_args, **compile_kwargs)
[rank4]:E1103 11:31:40.621000 513 torch/_inductor/runtime/triton_heuristics.py:750] [22/0]   File "/opt/venv/lib/python3.10/site-packages/triton/compiler/compiler.py", line 322, in compile
[rank4]:E1103 11:31:40.621000 513 torch/_inductor/runtime/triton_heuristics.py:750] [22/0]     next_module = compile_ir(module, metadata)
[rank4]:E1103 11:31:40.621000 513 torch/_inductor/runtime/triton_heuristics.py:750] [22/0]   File "/opt/venv/lib/python3.10/site-packages/triton/backends/amd/compiler.py", line 450, in <lambda>
[rank4]:E1103 11:31:40.621000 513 torch/_inductor/runtime/triton_heuristics.py:750] [22/0]     stages["llir"] = lambda src, metadata: self.make_llir(src, metadata, options)
[rank4]:E1103 11:31:40.621000 513 torch/_inductor/runtime/triton_heuristics.py:750] [22/0]   File "/opt/venv/lib/python3.10/site-packages/triton/backends/amd/compiler.py", line 325, in make_llir
[rank4]:E1103 11:31:40.621000 513 torch/_inductor/runtime/triton_heuristics.py:750] [22/0]     pm.run(mod)
[rank4]:E1103 11:31:40.621000 513 torch/_inductor/runtime/triton_heuristics.py:750] [22/0] RuntimeError: PassManager::run failed
ler_DP2_TP2: /app/triton/third_party/amd/lib/TritonAMDGPUDialectToLLVM/ScaledUpcastToLLVM.cpp:73: virtual llvm::LogicalResult {anonymous}::ScaledUpcastFp4Pattern::matchAndRewrite(mlir::triton::amdgpu::ScaledUpcastFp4Op, mlir::ConvertOpToLLVMPattern<mlir::triton::amdgpu::ScaledUpcastFp4Op>::OpAdaptor, mlir::ConversionPatternRewriter&) const: Assertion `inputVals.size() % 4 == 0' failed.
#blocked = #ttg.blocked<{sizePerThread = [1, 1, 2], threadsPerWarp = [1, 4, 16], warpsPerCTA = [4, 1, 1], order = [2, 1, 0]}>
#blocked1 = #ttg.blocked<{sizePerThread = [1, 2], threadsPerWarp = [1, 64], warpsPerCTA = [4, 1], order = [1, 0]}>
#blocked2 = #ttg.blocked<{sizePerThread = [1, 1, 1], threadsPerWarp = [1, 4, 16], warpsPerCTA = [4, 1, 1], order = [2, 1, 0]}>
#blocked3 = #ttg.blocked<{sizePerThread = [1, 1], threadsPerWarp = [2, 32], warpsPerCTA = [4, 1], order = [1, 0]}>
#blocked4 = #ttg.blocked<{sizePerThread = [1, 1, 2], threadsPerWarp = [1, 32, 2], warpsPerCTA = [1, 1, 4], order = [1, 2, 0]}>
#blocked5 = #ttg.blocked<{sizePerThread = [2, 1], threadsPerWarp = [2, 32], warpsPerCTA = [4, 1], order = [1, 0]}>
#blocked6 = #ttg.blocked<{sizePerThread = [8, 1], threadsPerWarp = [8, 8], warpsPerCTA = [1, 4], order = [0, 1]}>
#blocked7 = #ttg.blocked<{sizePerThread = [1, 1, 1, 2], threadsPerWarp = [1, 4, 16, 1], warpsPerCTA = [4, 1, 1, 1], order = [3, 2, 1, 0]}>
#blocked8 = #ttg.blocked<{sizePerThread = [1, 1], threadsPerWarp = [1, 64], warpsPerCTA = [4, 1], order = [1, 0]}>
#blocked9 = #ttg.blocked<{sizePerThread = [1, 2, 1], threadsPerWarp = [1, 2, 32], warpsPerCTA = [1, 4, 1], order = [2, 1, 0]}>
#linear = #ttg.linear<{register = [], lane = [[0, 0, 0], [0, 0, 0], [0, 0, 0], [0, 0, 0], [0, 1, 0], [0, 2, 0]], warp = [[1, 0, 0], [2, 0, 0]], block = []}>
#linear1 = #ttg.linear<{register = [[0, 1], [0, 2]], lane = [[1, 0], [2, 0], [4, 0], [8, 0], [16, 0], [0, 0]], warp = [[0, 0], [0, 0]], block = []}>
#linear2 = #ttg.linear<{register = [[0, 0]], lane = [[0, 0], [0, 0], [0, 0], [0, 0], [0, 1], [0, 2]], warp = [[1, 0], [2, 0]], block = []}>
#shared = #ttg.swizzled_shared<{vec = 1, perPhase = 1, maxPhase = 1, order = [1, 0]}>
#smem = #ttg.shared_memory
module attributes {"ttg.num-ctas" = 1 : i32, "ttg.num-warps" = 4 : i32, ttg.target = "hip:gfx950", "ttg.threads-per-warp" = 64 : i32} {
  tt.func public @_batched_gemm_afp4_wfp4_pre_quant_kernel(%arg0: !tt.ptr<bf16> {tt.divisibility = 16 : i32}, %arg1: !tt.ptr<i8> {tt.divisibility = 16 : i32}, %arg2: !tt.ptr<bf16> {tt.divisibility = 16 : i32}, %arg3: !tt.ptr<i8> {tt.divisibility = 16 : i32}, %arg4: i32 {tt.divisibility = 16 : i32}, %arg5: i32 {tt.divisibility = 16 : i32}, %arg6: i32 {tt.divisibility = 16 : i32}, %arg7: i32 {tt.divisibility = 16 : i32}, %arg8: i32 {tt.divisibility = 16 : i32}, %arg9: i32 {tt.divisibility = 16 : i32}, %arg10: i32 {tt.divisibility = 16 : i32}, %arg11: i32 {tt.divisibility = 16 : i32}, %arg12: i32 {tt.divisibility = 16 : i32}, %arg13: i32 {tt.divisibility = 16 : i32}, %arg14: i32 {tt.divisibility = 16 : i32}, %arg15: i32) attributes {noinline = false} {
    %cst = arith.constant dense<127> : tensor<4x4x1xi8, #blocked>
    %cst_0 = arith.constant dense<0x7FC0> : tensor<4x128xbf16, #blocked1>
    %cst_1 = arith.constant dense<2097152> : tensor<4x4x1xi32, #blocked>
    %cst_2 = arith.constant dense<4> : tensor<4x4x16xi8, #blocked2>
    %c31_i32 = arith.constant 31 : i32
    %cst_3 = arith.constant dense<0.000000e+00> : tensor<4x32xf32, #blocked3>
    %c32_i32 = arith.constant 32 : i32
    %c4_i32 = arith.constant 4 : i32
    %true = arith.constant true
    %c0_i32 = arith.constant 0 : i32
    %cst_4 = arith.constant dense<-8388608> : tensor<4x4x1xi32, #blocked>
    %cst_5 = arith.constant dense<2.000000e+00> : tensor<4x4x1xf32, #blocked>
    %cst_6 = arith.constant dense<0.000000e+00> : tensor<4x4x1xf32, #blocked>
    %cst_7 = arith.constant dense<-2147483648> : tensor<4x4x32xi32, #blocked>
    %cst_8 = arith.constant dense<23> : tensor<4x4x32xi32, #blocked>
    %cst_9 = arith.constant dense<255> : tensor<4x4x32xi32, #blocked>
    %cst_10 = arith.constant dense<8388607> : tensor<4x4x32xi32, #blocked>
    %cst_11 = arith.constant dense<1> : tensor<4x4x32xi32, #blocked>
    %cst_12 = arith.constant dense<127> : tensor<4x4x32xi32, #blocked>
    %cst_13 = arith.constant dense<4194304> : tensor<4x4x32xi32, #blocked>
    %cst_14 = arith.constant dense<126> : tensor<4x4x32xi32, #blocked>
    %cst_15 = arith.constant dense<2> : tensor<4x4x32xi32, #blocked>
    %cst_16 = arith.constant dense<21> : tensor<4x4x32xi32, #blocked>
    %cst_17 = arith.constant dense<28> : tensor<4x4x32xi32, #blocked>
    %cst_18 = arith.constant dense<-1.270000e+02> : tensor<4x4x1xf32, #blocked>
    %cst_19 = arith.constant dense<7> : tensor<4x32xi16, #ttg.slice<{dim = 2, parent = #blocked4}>>
    %cst_20 = arith.constant dense<-1> : tensor<4x32xi8, #ttg.slice<{dim = 2, parent = #blocked4}>>
    %cst_21 = arith.constant dense<0x7FC0> : tensor<128x32xbf16, #blocked5>
    %cst_22 = arith.constant dense<7> : tensor<4x4x32xi32, #blocked>
    %cst_23 = arith.constant dense<1.270000e+02> : tensor<4x4x1xf32, #blocked>
    %cst_24 = arith.constant dense<1.270000e+02> : tensor<4x4x1xf32, #linear>
    %cst_25 = arith.constant dense<-1.270000e+02> : tensor<4x4x1xf32, #linear>
    %cst_26 = arith.constant dense<2.000000e+00> : tensor<4x4x1xf32, #linear>
    %cst_27 = arith.constant dense<-8388608> : tensor<4x4x1xi32, #linear>
    %cst_28 = arith.constant dense<2097152> : tensor<4x4x1xi32, #linear>
    %cst_29 = arith.constant dense<127> : tensor<4x4x1xi8, #linear>
    %cst_30 = arith.constant dense<7> : tensor<4x4xi16, #ttg.slice<{dim = 2, parent = #blocked}>>
    %cst_31 = arith.constant dense<-1> : tensor<4x4xi8, #ttg.slice<{dim = 2, parent = #blocked}>>
    llvm.intr.assume %true : i1
    llvm.intr.assume %true : i1
    llvm.intr.assume %true : i1
    llvm.intr.assume %true : i1
    llvm.intr.assume %true : i1
    llvm.intr.assume %true : i1
    llvm.intr.assume %true : i1
    llvm.intr.assume %true : i1
    llvm.intr.assume %true : i1
    llvm.intr.assume %true : i1
    llvm.intr.assume %true : i1
    llvm.intr.assume %true : i1
    %0 = tt.get_program_id x : i32
    %1 = tt.get_program_id y : i32
    %2 = arith.addi %arg5, %c31_i32 : i32
    %3 = arith.divsi %2, %c32_i32 : i32
    %4 = arith.extsi %arg7 : i32 to i64
    %5 = arith.extsi %arg9 : i32 to i64
    %6 = arith.extsi %arg11 : i32 to i64
    %7 = arith.extsi %0 : i32 to i64
    %8 = arith.divsi %1, %3 : i32
    %9 = arith.remsi %1, %3 : i32
    llvm.intr.assume %true : i1
    llvm.intr.assume %true : i1
    llvm.intr.assume %true : i1
    %10 = arith.cmpi sgt, %arg6, %c0_i32 : i32
    scf.if %10 {
      %11 = arith.muli %8, %c4_i32 : i32
      %12 = tt.make_range {end = 4 : i32, start = 0 : i32} : tensor<4xi32, #ttg.slice<{dim = 1, parent = #blocked1}>>
      %13 = tt.make_range {end = 4 : i32, start = 0 : i32} : tensor<4xi32, #ttg.slice<{dim = 1, parent = #blocked3}>>
      %14 = tt.splat %11 : i32 -> tensor<4xi32, #ttg.slice<{dim = 1, parent = #blocked1}>>
      %15 = arith.addi %14, %12 : tensor<4xi32, #ttg.slice<{dim = 1, parent = #blocked1}>>
      %16 = tt.splat %arg4 : i32 -> tensor<4xi32, #ttg.slice<{dim = 1, parent = #blocked1}>>
      %17 = arith.remsi %15, %16 : tensor<4xi32, #ttg.slice<{dim = 1, parent = #blocked1}>>
      %18 = arith.muli %7, %4 : i64
      %19 = tt.expand_dims %17 {axis = 1 : i32} : tensor<4xi32, #ttg.slice<{dim = 1, parent = #blocked1}>> -> tensor<4x1xi32, #blocked1>
      %20 = tt.splat %arg8 : i32 -> tensor<4x1xi32, #blocked1>
      %21 = arith.muli %19, %20 : tensor<4x1xi32, #blocked1>
      %22 = arith.extsi %21 : tensor<4x1xi32, #blocked1> to tensor<4x1xi64, #blocked1>
      %23 = tt.make_range {end = 128 : i32, start = 0 : i32} : tensor<128xi32, #ttg.slice<{dim = 0, parent = #blocked1}>>
      %24 = tt.expand_dims %23 {axis = 0 : i32} : tensor<128xi32, #ttg.slice<{dim = 0, parent = #blocked1}>> -> tensor<1x128xi32, #blocked1>
      %25 = arith.extsi %24 : tensor<1x128xi32, #blocked1> to tensor<1x128xi64, #blocked1>
      %26 = tt.broadcast %22 : tensor<4x1xi64, #blocked1> -> tensor<4x128xi64, #blocked1>
      %27 = tt.broadcast %25 : tensor<1x128xi64, #blocked1> -> tensor<4x128xi64, #blocked1>
      %28 = arith.addi %26, %27 : tensor<4x128xi64, #blocked1>
      %29 = tt.addptr %arg0, %18 : !tt.ptr<bf16>, i64
      %30 = arith.muli %9, %c32_i32 : i32
      %31 = tt.make_range {end = 32 : i32, start = 0 : i32} : tensor<32xi32, #ttg.slice<{dim = 0, parent = #blocked6}>>
      %32 = tt.make_range {end = 32 : i32, start = 0 : i32} : tensor<32xi32, #ttg.slice<{dim = 0, parent = #blocked3}>>
      %33 = tt.make_range {end = 32 : i32, start = 0 : i32} : tensor<32xi32, #ttg.slice<{dim = 1, parent = #linear1}>>
      %34 = tt.splat %30 : i32 -> tensor<32xi32, #ttg.slice<{dim = 0, parent = #blocked6}>>
      %35 = tt.splat %30 : i32 -> tensor<32xi32, #ttg.slice<{dim = 1, parent = #linear1}>>
      %36 = arith.addi %34, %31 : tensor<32xi32, #ttg.slice<{dim = 0, parent = #blocked6}>>
      %37 = arith.addi %35, %33 : tensor<32xi32, #ttg.slice<{dim = 1, parent = #linear1}>>
      %38 = tt.splat %arg5 : i32 -> tensor<32xi32, #ttg.slice<{dim = 0, parent = #blocked6}>>
      %39 = tt.splat %arg5 : i32 -> tensor<32xi32, #ttg.slice<{dim = 1, parent = #linear1}>>
      %40 = arith.remsi %36, %38 : tensor<32xi32, #ttg.slice<{dim = 0, parent = #blocked6}>>
      %41 = arith.remsi %37, %39 : tensor<32xi32, #ttg.slice<{dim = 1, parent = #linear1}>>
      %42 = arith.muli %7, %5 : i64
…
'GROUP_SIZE_M': 'constexpr', 'NUM_KSPLIT': 'constexpr', 'SPLITK_BLOCK_SIZE': 'constexpr', 'EVEN_K': 'constexpr', 'GRID_MN': 'constexpr', 'cache_modifier': 'constexpr'}, 'device': 6, 'constants': {'stride_ak': 1, 'stride_bk': 1, 'stride_cn': 1, 'stride_bsk': 1, 'BLOCK_SIZE_M': 4, 'BLOCK_SIZE_N': 32, 'BLOCK_SIZE_K': 128, 'GROUP_SIZE_M': 1, 'NUM_KSPLIT': 1, 'SPLITK_BLOCK_SIZE': 128, 'EVEN_K': True, 'GRID_MN': 64, 'cache_modifier': '.cg'}, 'configs': [{(0,): [['tt.divisibility', 16]], (1,): [['tt.divisibility', 16]], (2,): [['tt.divisibility', 16]], (3,): [['tt.divisibility', 16]], (4,): [['tt.divisibility', 16]], (5,): [['tt.divisibility', 16]], (6,): [['tt.divisibility', 16]], (7,): [['tt.divisibility', 16]], (8,): [['tt.divisibility', 16]], (10,): [['tt.divisibility', 16]], (12,): [['tt.divisibility', 16]], (13,): [['tt.divisibility', 16]], (14,): [['tt.divisibility', 16]], (15,): [['tt.divisibility', 16]], (17,): [['tt.divisibility', 16]]}], 'device_type': 'hip', 'num_warps': 4, 'num_stages': 1, 'debug': False, 'cc': 'gfx950'}
[rank6]:E1103 11:31:40.965000 515 torch/_inductor/runtime/triton_heuristics.py:750] [22/0] Traceback (most recent call last):
[rank6]:E1103 11:31:40.965000 515 torch/_inductor/runtime/triton_heuristics.py:750] [22/0]   File "/opt/venv/lib/python3.10/site-packages/torch/_inductor/runtime/triton_heuristics.py", line 748, in _precompile_config
[rank6]:E1103 11:31:40.965000 515 torch/_inductor/runtime/triton_heuristics.py:750] [22/0]     binary = triton.compile(*compile_args, **compile_kwargs)
[rank6]:E1103 11:31:40.965000 515 torch/_inductor/runtime/triton_heuristics.py:750] [22/0]   File "/opt/venv/lib/python3.10/site-packages/triton/compiler/compiler.py", line 322, in compile
[rank6]:E1103 11:31:40.965000 515 torch/_inductor/runtime/triton_heuristics.py:750] [22/0]     next_module = compile_ir(module, metadata)
[rank6]:E1103 11:31:40.965000 515 torch/_inductor/runtime/triton_heuristics.py:750] [22/0]   File "/opt/venv/lib/python3.10/site-packages/triton/backends/amd/compiler.py", line 450, in <lambda>
[rank6]:E1103 11:31:40.965000 515 torch/_inductor/runtime/triton_heuristics.py:750] [22/0]     stages["llir"] = lambda src, metadata: self.make_llir(src, metadata, options)
[rank6]:E1103 11:31:40.965000 515 torch/_inductor/runtime/triton_heuristics.py:750] [22/0]   File "/opt/venv/lib/python3.10/site-packages/triton/backends/amd/compiler.py", line 325, in make_llir
[rank6]:E1103 11:31:40.965000 515 torch/_inductor/runtime/triton_heuristics.py:750] [22/0]     pm.run(mod)
[rank6]:E1103 11:31:40.965000 515 torch/_inductor/runtime/triton_heuristics.py:750] [22/0] RuntimeError: PassManager::run failed
[2025-11-03 11:31:40 DP0 TP0] Registering 0 cuda graph addresses
[2025-11-03 11:31:41 DP0 TP0] Scheduler hit an exception: Traceback (most recent call last):
  File "/sgl-workspace/sglang/python/sglang/srt/model_executor/cuda_graph_runner.py", line 381, in __init__
    self.capture()
  File "/sgl-workspace/sglang/python/sglang/srt/model_executor/cuda_graph_runner.py", line 500, in capture
    ) = self.capture_one_batch_size(bs, forward)
  File "/sgl-workspace/sglang/python/sglang/srt/model_executor/cuda_graph_runner.py", line 688, in capture_one_batch_size
    run_once()
  File "/sgl-workspace/sglang/python/sglang/srt/model_executor/cuda_graph_runner.py", line 675, in run_once
    logits_output_or_pp_proxy_tensors = forward(
  File "/opt/venv/lib/python3.10/site-packages/torch/_dynamo/eval_frame.py", line 817, in compile_wrapper
    raise e.remove_dynamo_frames() from None  # see TORCHDYNAMO_VERBOSE=1
  File "/opt/venv/lib/python3.10/site-packages/torch/_inductor/compile_fx.py", line 979, in _compile_fx_inner
    raise InductorError(e, currentframe()).with_traceback(
  File "/opt/venv/lib/python3.10/site-packages/torch/_inductor/compile_fx.py", line 963, in _compile_fx_inner
    mb_compiled_graph = fx_codegen_and_compile(
  File "/opt/venv/lib/python3.10/site-packages/torch/_inductor/compile_fx.py", line 1646, in fx_codegen_and_compile
    return scheme.codegen_and_compile(gm, example_inputs, inputs_to_check, graph_kwargs)
  File "/opt/venv/lib/python3.10/site-packages/torch/_inductor/compile_fx.py", line 1506, in codegen_and_compile
    compiled_module = graph.compile_to_module()
  File "/opt/venv/lib/python3.10/site-packages/torch/_inductor/graph.py", line 2318, in compile_to_module
    return self._compile_to_module()
  File "/opt/venv/lib/python3.10/site-packages/torch/_inductor/graph.py", line 2328, in _compile_to_module
    mod = self._compile_to_module_lines(wrapper_code)
  File "/opt/venv/lib/python3.10/site-packages/torch/_inductor/graph.py", line 2396, in _compile_to_module_lines
    mod = PyCodeCache.load_by_key_path(
  File "/opt/venv/lib/python3.10/site-packages/torch/_inductor/codecache.py", line 3462, in load_by_key_path
    mod = _reload_python_module(key, path, set_sys_modules=in_toplevel)
  File "/opt/venv/lib/python3.10/site-packages/torch/_inductor/runtime/compile_tasks.py", line 31, in _reload_python_module
    exec(code, mod.__dict__, mod.__dict__)
  File "/tmp/torchinductor_root/qg/cqgsnoaf7qv573naauflw76hoe7lt2j53i52yzx23qgjtfr4l44p.py", line 38, in <module>
    _batched_gemm_afp4_wfp4_pre_quant_kernel_0 = async_compile.triton('_batched_gemm_afp4_wfp4_pre_quant_kernel', '''
  File "/opt/venv/lib/python3.10/site-packages/torch/_inductor/async_compile.py", line 486, in triton
    kernel.precompile(
  File "/opt/venv/lib/python3.10/site-packages/torch/_inductor/runtime/triton_heuristics.py", line 437, in precompile
    self._precompile_worker()
  File "/opt/venv/lib/python3.10/site-packages/torch/_inductor/runtime/triton_heuristics.py", line 459, in _precompile_worker
    compile_results.append(self._precompile_config(c))
  File "/opt/venv/lib/python3.10/site-packages/torch/_inductor/runtime/triton_heuristics.py", line 748, in _precompile_config
    binary = triton.compile(*compile_args, **compile_kwargs)
  File "/opt/venv/lib/python3.10/site-packages/triton/compiler/compiler.py", line 322, in compile
    next_module = compile_ir(module, metadata)
  File "/opt/venv/lib/python3.10/site-packages/triton/backends/amd/compiler.py", line 450, in <lambda>
    stages["llir"] = lambda src, metadata: self.make_llir(src, metadata, options)
  File "/opt/venv/lib/python3.10/site-packages/triton/backends/amd/compiler.py", line 325, in make_llir
    pm.run(mod)
torch._inductor.exc.InductorError: RuntimeError: PassManager::run failed

Set TORCHDYNAMO_VERBOSE=1 for the internal stack trace (please do this especially if you're reporting a bug to PyTorch). For even more developer context, set TORCH_LOGS="+dynamo"


During handling of the above exception, another exception occurred:

Traceback (most recent call last):
  File "/sgl-workspace/sglang/python/sglang/srt/managers/scheduler.py", line 2786, in run_scheduler_process
    scheduler = Scheduler(
  File "/sgl-workspace/sglang/python/sglang/srt/managers/scheduler.py", line 319, in __init__
    self.tp_worker = TpModelWorker(
  File "/sgl-workspace/sglang/python/sglang/srt/managers/tp_worker.py", line 235, in __init__
    self._model_runner = ModelRunner(
  File "/sgl-workspace/sglang/python/sglang/srt/model_executor/model_runner.py", line 322, in __init__
    self.initialize(min_per_gpu_memory)
  File "/sgl-workspace/sglang/python/sglang/srt/model_executor/model_runner.py", line 479, in initialize
    self.init_device_graphs()
  File "/sgl-workspace/sglang/python/sglang/srt/model_executor/model_runner.py", line 1995, in init_device_graphs
    self.graph_runner = graph_runners[self.device](self)
  File "/sgl-workspace/sglang/python/sglang/srt/model_executor/cuda_graph_runner.py", line 383, in __init__
    raise Exception(
Exception: Capture cuda graph failed: RuntimeError: PassManager::run failed

Set TORCHDYNAMO_VERBOSE=1 for the internal stack trace (please do this especially if you're reporting a bug to PyTorch). For even more developer context, set TORCH_LOGS="+dynamo"

Possible solutions:
1. set --mem-fraction-static to a smaller value (e.g., 0.8 or 0.7)
2. set --cuda-graph-max-bs to a smaller value (e.g., 16)
3. disable torch compile by not using --enable-torch-compile
4. disable CUDA graph by --disable-cuda-graph. (Not recommended. Huge performance loss)
Open an issue on GitHub https://github.com/sgl-project/sglang/issues/new/choose 


[2025-11-03 11:31:41 DP1 TP1] Scheduler hit an exception: Traceback (most recent call last):
  File "/sgl-workspace/sglang/python/sglang/srt/model_executor/cuda_graph_runner.py", line 381, in __init__
    self.capture()
  File "/sgl-workspace/sglang/python/sglang/srt/model_executor/cuda_graph_runner.py", line 500, in capture
    ) = self.capture_one_batch_size(bs, forward)
  File "/sgl-workspace/sglang/python/sglang/srt/model_executor/cuda_graph_runner.py", line 688, in capture_one_batch_size
    run_once()
  File "/sgl-workspace/sglang/python/sglang/srt/model_executor/cuda_graph_runner.py", line 675, in run_once
    logits_output_or_pp_proxy_tensors = forward(
  File "/opt/venv/lib/python3.10/site-packages/torch/_dynamo/eval_frame.py", line 817, in compile_wrapper
    raise e.remove_dynamo_frames() from None  # see TORCHDYNAMO_VERBOSE=1
  File "/opt/venv/lib/python3.10/site-packages/torch/_inductor/compile_fx.py", line 979, in _compile_fx_inner
    raise InductorError(e, currentframe()).with_traceback(
  File "/opt/venv/lib/python3.10/site-packages/torch/_inductor/compile_fx.py", line 963, in _compile_fx_inner
    mb_compiled_graph = fx_codegen_and_compile(
  File "/opt/venv/lib/python3.10/site-packages/torch/_inductor/compile_fx.py", line 1646, in fx_codegen_and_compile
    return scheme.codegen_and_compile(gm, example_inputs, inputs_to_check, graph_kwargs)
  File "/opt/venv/lib/python3.10/site-packages/torch/_inductor/compile_fx.py", line 1506, in codegen_and_compile
    compiled_module = graph.compile_to_module()
  File "/opt/venv/lib/python3.10/site-packages/torch/_inductor/graph.py", line 2318, in compile_to_module
    return self._compile_to_module()
  File "/opt/venv/lib/python3.10/site-packages/torch/_inductor/graph.py", line 2328, in _compile_to_module
    mod = self._compile_to_module_lines(wrapper_code)
  File "/opt/venv/lib/python3.10/site-packages/torch/_inductor/graph.py", line 2396, in _compile_to_module_lines
    mod = PyCodeCache.load_by_key_path(
  File "/opt/venv/lib/python3.10/site-packages/torch/_inductor/codecache.py", line 3462, in load_by_key_path
    mod = _reload_python_module(key, path, set_sys_modules=in_toplevel)
  File "/opt/venv/lib/python3.10/site-packages/torch/_inductor/runtime/compile_tasks.py", line 31, in _reload_python_module
    exec(code, mod.__dict__, mod.__dict__)
  File "/tmp/torchinductor_root/u4/cu4fnpc62wbtrsq3q6m4vrhrnsfq72pxqfvfwbdlgyuapc53vmbi.py", line 38, in <module>
    _batched_gemm_afp4_wfp4_pre_quant_kernel_0 = async_compile.triton('_batched_gemm_afp4_wfp4_pre_quant_kernel', '''
  File "/opt/venv/lib/python3.10/site-packages/torch/_inductor/async_compile.py", line 486, in triton
    kernel.precompile(
  File "/opt/venv/lib/python3.10/site-packages/torch/_inductor/runtime/triton_heuristics.py", line 437, in precompile
    self._precompile_worker()
  File "/opt/venv/lib/python3.10/site-packages/torch/_inductor/runtime/triton_heuristics.py", line 459, in _precompile_worker
    compile_results.append(self._precompile_config(c))
  File "/opt/venv/lib/python3.10/site-packages/torch/_inductor/runtime/triton_heuristics.py", line 748, in _precompile_config
    binary = triton.compile(*compile_args, **compile_kwargs)
  File "/opt/venv/lib/python3.10/site-packages/triton/compiler/compiler.py", line 322, in compile
    next_module = compile_ir(module, metadata)
  File "/opt/venv/lib/python3.10/site-packages/triton/backends/amd/compiler.py", line 450, in <lambda>
    stages["llir"] = lambda src, metadata: self.make_llir(src, metadata, options)
  File "/opt/venv/lib/python3.10/site-packages/triton/backends/amd/compiler.py", line 325, in make_llir
    pm.run(mod)
torch._inductor.exc.InductorError: RuntimeError: PassManager::run failed

Set TORCHDYNAMO_VERBOSE=1 for the internal stack trace (please do this especially if you're reporting a bug to PyTorch). For even more developer context, set TORCH_LOGS="+dynamo"


During handling of the above exception, another exception occurred:

Traceback (most recent call last):
  File "/sgl-workspace/sglang/python/sglang/srt/managers/scheduler.py", line 2786, in run_scheduler_process
    scheduler = Scheduler(
  File "/sgl-workspace/sglang/python/sglang/srt/managers/scheduler.py", line 319, in __init__
    self.tp_worker = TpModelWorker(
  File "/sgl-workspace/sglang/python/sglang/srt/managers/tp_worker.py", line 235, in __init__
    self._model_runner = ModelRunner(
  File "/sgl-workspace/sglang/python/sglang/srt/model_executor/model_runner.py", line 322, in __init__
    self.initialize(min_per_gpu_memory)
  File "/sgl-workspace/sglang/python/sglang/srt/model_executor/model_runner.py", line 479, in initialize
    self.init_device_graphs()
  File "/sgl-workspace/sglang/python/sglang/srt/model_executor/model_runner.py", line 1995, in init_device_graphs
    self.graph_runner = graph_runners[self.device](self)
  File "/sgl-workspace/sglang/python/sglang/srt/model_executor/cuda_graph_runner.py", line 383, in __init__
    raise Exception(
Exception: Capture cuda graph failed: RuntimeError: PassManager::run failed

Set TORCHDYNAMO_VERBOSE=1 for the internal stack trace (please do this especially if you're reporting a bug to PyTorch). For even more developer context, set TORCH_LOGS="+dynamo"

Possible solutions:
1. set --mem-fraction-static to a smaller value (e.g., 0.8 or 0.7)
2. set --cuda-graph-max-bs to a smaller value (e.g., 16)
3. disable torch compile by not using --enable-torch-compile
4. disable CUDA graph by --disable-cuda-graph. (Not recommended. Huge performance loss)
Open an issue on GitHub https://github.com/sgl-project/sglang/issues/new/choose 


[2025-11-03 11:31:41 DP5 TP5] Scheduler hit an exception: Traceback (most recent call last):
  File "/sgl-workspace/sglang/python/sglang/srt/model_executor/cuda_graph_runner.py", line 381, in __init__
    self.capture()
  File "/sgl-workspace/sglang/python/sglang/srt/model_executor/cuda_graph_runner.py", line 500, in capture
    ) = self.capture_one_batch_size(bs, forward)
  File "/sgl-workspace/sglang/python/sglang/srt/model_executor/cuda_graph_runner.py", line 688, in capture_one_batch_size
    run_once()
  File "/sgl-workspace/sglang/python/sglang/srt/model_executor/cuda_graph_runner.py", line 675, in run_once
    logits_output_or_pp_proxy_tensors = forward(
  File "/opt/venv/lib/python3.10/site-packages/torch/_dynamo/eval_frame.py", line 817, in compile_wrapper
    raise e.remove_dynamo_frames() from None  # see TORCHDYNAMO_VERBOSE=1
  File "/opt/venv/lib/python3.10/site-packages/torch/_inductor/compile_fx.py", line 979, in _compile_fx_inner
    raise InductorError(e, currentframe()).with_traceback(
  File "/opt/venv/lib/python3.10/site-packages/torch/_inductor/compile_fx.py", line 963, in _compile_fx_inner
    mb_compiled_graph = fx_codegen_and_compile(
  File "/opt/venv/lib/python3.10/site-packages/torch/_inductor/compile_fx.py", line 1646, in fx_codegen_and_compile
    return scheme.codegen_and_compile(gm, example_inputs, inputs_to_check, graph_kwargs)
  File "/opt/venv/lib/python3.10/site-packages/torch/_inductor/compile_fx.py", line 1506, in codegen_and_compile
    compiled_module = graph.compile_to_module()
  File "/opt/venv/lib/python3.10/site-packages/torch/_inductor/graph.py", line 2318, in compile_to_module
    return self._compile_to_module()
  File "/opt/venv/lib/python3.10/site-packages/torch/_inductor/graph.py", line 2328, in _compile_to_module
    mod = self._compile_to_module_lines(wrapper_code)
  File "/opt/venv/lib/python3.10/site-packages/torch/_inductor/graph.py", line 2396, in _compile_to_module_lines
    mod = PyCodeCache.load_by_key_path(
  File "/opt/venv/lib/python3.10/site-packages/torch/_inductor/codecache.py", line 3462, in load_by_key_path
    mod = _reload_python_module(key, path, set_sys_modules=in_toplevel)
  File "/opt/venv/lib/python3.10/site-packages/torch/_inductor/runtime/compile_tasks.py", line 31, in _reload_python_module
    exec(code, mod.__dict__, mod.__dict__)
  File "/tmp/torchinductor_root/tm/ctmceenu2imu4zi3rrqe5pil7qagahbhgnw5fnxnwfpfmryd77bb.py", line 38, in <module>
    _batched_gemm_afp4_wfp4_pre_quant_kernel_0 = async_compile.triton('_batched_gemm_afp4_wfp4_pre_quant_kernel', '''
  File "/opt/venv/lib/python3.10/site-packages/torch/_inductor/async_compile.py", line 486, in triton
    kernel.precompile(
  File "/opt/venv/lib/python3.10/site-packages/torch/_inductor/runtime/triton_heuristics.py", line 437, in precompile
    self._precompile_worker()
  File "/opt/venv/lib/python3.10/site-packages/torch/_inductor/runtime/triton_heuristics.py", line 459, in _precompile_worker
    compile_results.append(self._precompile_config(c))
  File "/opt/venv/lib/python3.10/site-packages/torch/_inductor/runtime/triton_heuristics.py", line 748, in _precompile_config
    binary = triton.compile(*compile_args, **compile_kwargs)
  File "/opt/venv/lib/python3.10/site-packages/triton/compiler/compiler.py", line 322, in compile
    next_module = compile_ir(module, metadata)
  File "/opt/venv/lib/python3.10/site-packages/triton/backends/amd/compiler.py", line 450, in <lambda>
    stages["llir"] = lambda src, metadata: self.make_llir(src, metadata, options)
  File "/opt/venv/lib/python3.10/site-packages/triton/backends/amd/compiler.py", line 325, in make_llir
    pm.run(mod)
torch._inductor.exc.InductorError: RuntimeError: PassManager::run failed

Set TORCHDYNAMO_VERBOSE=1 for the internal stack trace (please do this especially if you're reporting a bug to PyTorch). For even more developer context, set TORCH_LOGS="+dynamo"


During handling of the above exception, another exception occurred:

Traceback (most recent call last):
  File "/sgl-workspace/sglang/python/sglang/srt/managers/scheduler.py", line 2786, in run_scheduler_process
    scheduler = Scheduler(
  File "/sgl-workspace/sglang/python/sglang/srt/managers/scheduler.py", line 319, in __init__
    self.tp_worker = TpModelWorker(
  File "/sgl-workspace/sglang/python/sglang/srt/managers/tp_worker.py", line 235, in __init__
    self._model_runner = ModelRunner(
  File "/sgl-workspace/sglang/python/sglang/srt/model_executor/model_runner.py", line 322, in __init__
    self.initialize(min_per_gpu_memory)
  File "/sgl-workspace/sglang/python/sglang/srt/model_executor/model_runner.py", line 479, in initialize
    self.init_device_graphs()
  File "/sgl-workspace/sglang/python/sglang/srt/model_executor/model_runner.py", line 1995, in init_device_graphs
    self.graph_runner = graph_runners[self.device](self)
  File "/sgl-workspace/sglang/python/sglang/srt/model_executor/cuda_graph_runner.py", line 383, in __init__
    raise Exception(
Exception: Capture cuda graph failed: RuntimeError: PassManager::run failed

Set TORCHDYNAMO_VERBOSE=1 for the internal stack trace (please do this especially if you're reporting a bug to PyTorch). For even more developer context, set TORCH_LOGS="+dynamo"

Possible solutions:
1. set --mem-fraction-static to a smaller value (e.g., 0.8 or 0.7)
2. set --cuda-graph-max-bs to a smaller value (e.g., 16)
3. disable torch compile by not using --enable-torch-compile
4. disable CUDA graph by --disable-cuda-graph. (Not recommended. Huge performance loss)
Open an issue on GitHub https://github.com/sgl-project/sglang/issues/new/choose 


[2025-11-03 11:31:41 DP7 TP7] Scheduler hit an exception: Traceback (most recent call last):
  File "/sgl-workspace/sglang/python/sglang/srt/model_executor/cuda_graph_runner.py", line 381, in __init__
    self.capture()
  File "/sgl-workspace/sglang/python/sglang/srt/model_executor/cuda_graph_runner.py", line 500, in capture
    ) = self.capture_one_batch_size(bs, forward)
  File "/sgl-workspace/sglang/python/sglang/srt/model_executor/cuda_graph_runner.py", line 688, in capture_one_batch_size
    run_once()
  File "/sgl-workspace/sglang/python/sglang/srt/model_executor/cuda_graph_runner.py", line 675, in run_once
    logits_output_or_pp_proxy_tensors = forward(
  File "/opt/venv/lib/python3.10/site-packages/torch/_dynamo/eval_frame.py", line 817, in compile_wrapper
    raise e.remove_dynamo_frames() from None  # see TORCHDYNAMO_VERBOSE=1
  File "/opt/venv/lib/python3.10/site-packages/torch/_inductor/compile_fx.py", line 979, in _compile_fx_inner
    raise InductorError(e, currentframe()).with_traceback(
  File "/opt/venv/lib/python3.10/site-packages/torch/_inductor/compile_fx.py", line 963, in _compile_fx_inner
    mb_compiled_graph = fx_codegen_and_compile(
  File "/opt/venv/lib/python3.10/site-packages/torch/_inductor/compile_fx.py", line 1646, in fx_codegen_and_compile
    return scheme.codegen_and_compile(gm, example_inputs, inputs_to_check, graph_kwargs)
  File "/opt/venv/lib/python3.10/site-packages/torch/_inductor/compile_fx.py", line 1506, in codegen_and_compile
    compiled_module = graph.compile_to_module()
  File "/opt/venv/lib/python3.10/site-packages/torch/_inductor/graph.py", line 2318, in compile_to_module
    return self._compile_to_module()
  File "/opt/venv/lib/python3.10/site-packages/torch/_inductor/graph.py", line 2328, in _compile_to_module
    mod = self._compile_to_module_lines(wrapper_code)
  File "/opt/venv/lib/python3.10/site-packages/torch/_inductor/graph.py", line 2396, in _compile_to_module_lines
    mod = PyCodeCache.load_by_key_path(
  File "/opt/venv/lib/python3.10/site-packages/torch/_inductor/codecache.py", line 3462, in load_by_key_path
    mod = _reload_python_module(key, path, set_sys_modules=in_toplevel)
  File "/opt/venv/lib/python3.10/site-packages/torch/_inductor/runtime/compile_tasks.py", line 31, in _reload_python_module
    exec(code, mod.__dict__, mod.__dict__)
  File "/tmp/torchinductor_root/ak/cakbedn2f7cj4eqs3al5ygu2rdzforicyweesoc6i3q2nhz66hnv.py", line 38, in <module>
    _batched_gemm_afp4_wfp4_pre_quant_kernel_0 = async_compile.triton('_batched_gemm_afp4_wfp4_pre_quant_kernel', '''
  File "/opt/venv/lib/python3.10/site-packages/torch/_inductor/async_compile.py", line 486, in triton
    kernel.precompile(
  File "/opt/venv/lib/python3.10/site-packages/torch/_inductor/runtime/triton_heuristics.py", line 437, in precompile
    self._precompile_worker()
  File "/opt/venv/lib/python3.10/site-packages/torch/_inductor/runtime/triton_heuristics.py", line 459, in _precompile_worker
    compile_results.append(self._precompile_config(c))
  File "/opt/venv/lib/python3.10/site-packages/torch/_inductor/runtime/triton_heuristics.py", line 748, in _precompile_config
    binary = triton.compile(*compile_args, **compile_kwargs)
  File "/opt/venv/lib/python3.10/site-packages/triton/compiler/compiler.py", line 322, in compile
    next_module = compile_ir(module, metadata)
  File "/opt/venv/lib/python3.10/site-packages/triton/backends/amd/compiler.py", line 450, in <lambda>
    stages["llir"] = lambda src, metadata: self.make_llir(src, metadata, options)
  File "/opt/venv/lib/python3.10/site-packages/triton/backends/amd/compiler.py", line 325, in make_llir
    pm.run(mod)
torch._inductor.exc.InductorError: RuntimeError: PassManager::run failed

Set TORCHDYNAMO_VERBOSE=1 for the internal stack trace (please do this especially if you're reporting a bug to PyTorch). For even more developer context, set TORCH_LOGS="+dynamo"


During handling of the above exception, another exception occurred:

Traceback (most recent call last):
  File "/sgl-workspace/sglang/python/sglang/srt/managers/scheduler.py", line 2786, in run_scheduler_process
    scheduler = Scheduler(
  File "/sgl-workspace/sglang/python/sglang/srt/managers/scheduler.py", line 319, in __init__
    self.tp_worker = TpModelWorker(
  File "/sgl-workspace/sglang/python/sglang/srt/managers/tp_worker.py", line 235, in __init__
    self._model_runner = ModelRunner(
  File "/sgl-workspace/sglang/python/sglang/srt/model_executor/model_runner.py", line 322, in __init__
    self.initialize(min_per_gpu_memory)
  File "/sgl-workspace/sglang/python/sglang/srt/model_executor/model_runner.py", line 479, in initialize
    self.init_device_graphs()
  File "/sgl-workspace/sglang/python/sglang/srt/model_executor/model_runner.py", line 1995, in init_device_graphs
    self.graph_runner = graph_runners[self.device](self)
  File "/sgl-workspace/sglang/python/sglang/srt/model_executor/cuda_graph_runner.py", line 383, in __init__
    raise Exception(
Exception: Capture cuda graph failed: RuntimeError: PassManager::run failed

Set TORCHDYNAMO_VERBOSE=1 for the internal stack trace (please do this especially if you're reporting a bug to PyTorch). For even more developer context, set TORCH_LOGS="+dynamo"

Possible solutions:
1. set --mem-fraction-static to a smaller value (e.g., 0.8 or 0.7)
2. set --cuda-graph-max-bs to a smaller value (e.g., 16)
3. disable torch compile by not using --enable-torch-compile
4. disable CUDA graph by --disable-cuda-graph. (Not recommended. Huge performance loss)
Open an issue on GitHub https://github.com/sgl-project/sglang/issues/new/choose 


[2025-11-03 11:31:41 DP4 TP4] Scheduler hit an exception: Traceback (most recent call last):
  File "/sgl-workspace/sglang/python/sglang/srt/model_executor/cuda_graph_runner.py", line 381, in __init__
    self.capture()
  File "/sgl-workspace/sglang/python/sglang/srt/model_executor/cuda_graph_runner.py", line 500, in capture
    ) = self.capture_one_batch_size(bs, forward)
  File "/sgl-workspace/sglang/python/sglang/srt/model_executor/cuda_graph_runner.py", line 688, in capture_one_batch_size
    run_once()
  File "/sgl-workspace/sglang/python/sglang/srt/model_executor/cuda_graph_runner.py", line 675, in run_once
    logits_output_or_pp_proxy_tensors = forward(
  File "/opt/venv/lib/python3.10/site-packages/torch/_dynamo/eval_frame.py", line 817, in compile_wrapper
    raise e.remove_dynamo_frames() from None  # see TORCHDYNAMO_VERBOSE=1
  File "/opt/venv/lib/python3.10/site-packages/torch/_inductor/compile_fx.py", line 979, in _compile_fx_inner
    raise InductorError(e, currentframe()).with_traceback(
  File "/opt/venv/lib/python3.10/site-packages/torch/_inductor/compile_fx.py", line 963, in _compile_fx_inner
    mb_compiled_graph = fx_codegen_and_compile(
  File "/opt/venv/lib/python3.10/site-packages/torch/_inductor/compile_fx.py", line 1646, in fx_codegen_and_compile
    return scheme.codegen_and_compile(gm, example_inputs, inputs_to_check, graph_kwargs)
  File "/opt/venv/lib/python3.10/site-packages/torch/_inductor/compile_fx.py", line 1506, in codegen_and_compile
    compiled_module = graph.compile_to_module()
  File "/opt/venv/lib/python3.10/site-packages/torch/_inductor/graph.py", line 2318, in compile_to_module
    return self._compile_to_module()
  File "/opt/venv/lib/python3.10/site-packages/torch/_inductor/graph.py", line 2328, in _compile_to_module
    mod = self._compile_to_module_lines(wrapper_code)
  File "/opt/venv/lib/python3.10/site-packages/torch/_inductor/graph.py", line 2396, in _compile_to_module_lines
    mod = PyCodeCache.load_by_key_path(
  File "/opt/venv/lib/python3.10/site-packages/torch/_inductor/codecache.py", line 3462, in load_by_key_path
    mod = _reload_python_module(key, path, set_sys_modules=in_toplevel)
  File "/opt/venv/lib/python3.10/site-packages/torch/_inductor/runtime/compile_tasks.py", line 31, in _reload_python_module
    exec(code, mod.__dict__, mod.__dict__)
  File "/tmp/torchinductor_root/kb/ckbholskekd5monmzoob5oljoxgfz4xlzonoap6m2ll232d6zm3s.py", line 38, in <module>
    _batched_gemm_afp4_wfp4_pre_quant_kernel_0 = async_compile.triton('_batched_gemm_afp4_wfp4_pre_quant_kernel', '''
  File "/opt/venv/lib/python3.10/site-packages/torch/_inductor/async_compile.py", line 486, in triton
    kernel.precompile(
  File "/opt/venv/lib/python3.10/site-packages/torch/_inductor/runtime/triton_heuristics.py", line 437, in precompile
    self._precompile_worker()
  File "/opt/venv/lib/python3.10/site-packages/torch/_inductor/runtime/triton_heuristics.py", line 459, in _precompile_worker
    compile_results.append(self._precompile_config(c))
  File "/opt/venv/lib/python3.10/site-packages/torch/_inductor/runtime/triton_heuristics.py", line 748, in _precompile_config
    binary = triton.compile(*compile_args, **compile_kwargs)
  File "/opt/venv/lib/python3.10/site-packages/triton/compiler/compiler.py", line 322, in compile
    next_module = compile_ir(module, metadata)
  File "/opt/venv/lib/python3.10/site-packages/triton/backends/amd/compiler.py", line 450, in <lambda>
    stages["llir"] = lambda src, metadata: self.make_llir(src, metadata, options)
  File "/opt/venv/lib/python3.10/site-packages/triton/backends/amd/compiler.py", line 325, in make_llir
    pm.run(mod)
torch._inductor.exc.InductorError: RuntimeError: PassManager::run failed

Set TORCHDYNAMO_VERBOSE=1 for the internal stack trace (please do this especially if you're reporting a bug to PyTorch). For even more developer context, set TORCH_LOGS="+dynamo"


During handling of the above exception, another exception occurred:

Traceback (most recent call last):
  File "/sgl-workspace/sglang/python/sglang/srt/managers/scheduler.py", line 2786, in run_scheduler_process
    scheduler = Scheduler(
  File "/sgl-workspace/sglang/python/sglang/srt/managers/scheduler.py", line 319, in __init__
    self.tp_worker = TpModelWorker(
  File "/sgl-workspace/sglang/python/sglang/srt/managers/tp_worker.py", line 235, in __init__
    self._model_runner = ModelRunner(
  File "/sgl-workspace/sglang/python/sglang/srt/model_executor/model_runner.py", line 322, in __init__
    self.initialize(min_per_gpu_memory)
  File "/sgl-workspace/sglang/python/sglang/srt/model_executor/model_runner.py", line 479, in initialize
    self.init_device_graphs()
  File "/sgl-workspace/sglang/python/sglang/srt/model_executor/model_runner.py", line 1995, in init_device_graphs
    self.graph_runner = graph_runners[self.device](self)
  File "/sgl-workspace/sglang/python/sglang/srt/model_executor/cuda_graph_runner.py", line 383, in __init__
    raise Exception(
Exception: Capture cuda graph failed: RuntimeError: PassManager::run failed

Set TORCHDYNAMO_VERBOSE=1 for the internal stack trace (please do this especially if you're reporting a bug to PyTorch). For even more developer context, set TORCH_LOGS="+dynamo"

Possible solutions:
1. set --mem-fraction-static to a smaller value (e.g., 0.8 or 0.7)
2. set --cuda-graph-max-bs to a smaller value (e.g., 16)
3. disable torch compile by not using --enable-torch-compile
4. disable CUDA graph by --disable-cuda-graph. (Not recommended. Huge performance loss)
Open an issue on GitHub https://github.com/sgl-project/sglang/issues/new/choose 


[2025-11-03 11:31:41 DP6 TP6] Scheduler hit an exception: Traceback (most recent call last):
  File "/sgl-workspace/sglang/python/sglang/srt/model_executor/cuda_graph_runner.py", line 381, in __init__
    self.capture()
  File "/sgl-workspace/sglang/python/sglang/srt/model_executor/cuda_graph_runner.py", line 500, in capture
    ) = self.capture_one_batch_size(bs, forward)
  File "/sgl-workspace/sglang/python/sglang/srt/model_executor/cuda_graph_runner.py", line 688, in capture_one_batch_size
    run_once()
  File "/sgl-workspace/sglang/python/sglang/srt/model_executor/cuda_graph_runner.py", line 675, in run_once
    logits_output_or_pp_proxy_tensors = forward(
  File "/opt/venv/lib/python3.10/site-packages/torch/_dynamo/eval_frame.py", line 817, in compile_wrapper
    raise e.remove_dynamo_frames() from None  # see TORCHDYNAMO_VERBOSE=1
  File "/opt/venv/lib/python3.10/site-packages/torch/_inductor/compile_fx.py", line 979, in _compile_fx_inner
    raise InductorError(e, currentframe()).with_traceback(
  File "/opt/venv/lib/python3.10/site-packages/torch/_inductor/compile_fx.py", line 963, in _compile_fx_inner
    mb_compiled_graph = fx_codegen_and_compile(
  File "/opt/venv/lib/python3.10/site-packages/torch/_inductor/compile_fx.py", line 1646, in fx_codegen_and_compile
    return scheme.codegen_and_compile(gm, example_inputs, inputs_to_check, graph_kwargs)
  File "/opt/venv/lib/python3.10/site-packages/torch/_inductor/compile_fx.py", line 1506, in codegen_and_compile
    compiled_module = graph.compile_to_module()
  File "/opt/venv/lib/python3.10/site-packages/torch/_inductor/graph.py", line 2318, in compile_to_module
    return self._compile_to_module()
  File "/opt/venv/lib/python3.10/site-packages/torch/_inductor/graph.py", line 2328, in _compile_to_module
    mod = self._compile_to_module_lines(wrapper_code)
  File "/opt/venv/lib/python3.10/site-packages/torch/_inductor/graph.py", line 2396, in _compile_to_module_lines
    mod = PyCodeCache.load_by_key_path(
  File "/opt/venv/lib/python3.10/site-packages/torch/_inductor/codecache.py", line 3462, in load_by_key_path
    mod = _reload_python_module(key, path, set_sys_modules=in_toplevel)
  File "/opt/venv/lib/python3.10/site-packages/torch/_inductor/runtime/compile_tasks.py", line 31, in _reload_python_module
    exec(code, mod.__dict__, mod.__dict__)
  File "/tmp/torchinductor_root/pj/cpjly2vl4nqwtzgee66y5vt32vu6dgbpxnwply3m77qu7msp2omg.py", line 38, in <module>
    _batched_gemm_afp4_wfp4_pre_quant_kernel_0 = async_compile.triton('_batched_gemm_afp4_wfp4_pre_quant_kernel', '''
  File "/opt/venv/lib/python3.10/site-packages/torch/_inductor/async_compile.py", line 486, in triton
    kernel.precompile(
  File "/opt/venv/lib/python3.10/site-packages/torch/_inductor/runtime/triton_heuristics.py", line 437, in precompile
    self._precompile_worker()
  File "/opt/venv/lib/python3.10/site-packages/torch/_inductor/runtime/triton_heuristics.py", line 459, in _precompile_worker
    compile_results.append(self._precompile_config(c))
  File "/opt/venv/lib/python3.10/site-packages/torch/_inductor/runtime/triton_heuristics.py", line 748, in _precompile_config
    binary = triton.compile(*compile_args, **compile_kwargs)
  File "/opt/venv/lib/python3.10/site-packages/triton/compiler/compiler.py", line 322, in compile
    next_module = compile_ir(module, metadata)
  File "/opt/venv/lib/python3.10/site-packages/triton/backends/amd/compiler.py", line 450, in <lambda>
    stages["llir"] = lambda src, metadata: self.make_llir(src, metadata, options)
  File "/opt/venv/lib/python3.10/site-packages/triton/backends/amd/compiler.py", line 325, in make_llir
    pm.run(mod)
torch._inductor.exc.InductorError: RuntimeError: PassManager::run failed

Set TORCHDYNAMO_VERBOSE=1 for the internal stack trace (please do this especially if you're reporting a bug to PyTorch). For even more developer context, set TORCH_LOGS="+dynamo"


During handling of the above exception, another exception occurred:

Traceback (most recent call last):
  File "/sgl-workspace/sglang/python/sglang/srt/managers/scheduler.py", line 2786, in run_scheduler_process
    scheduler = Scheduler(
  File "/sgl-workspace/sglang/python/sglang/srt/managers/scheduler.py", line 319, in __init__
    self.tp_worker = TpModelWorker(
  File "/sgl-workspace/sglang/python/sglang/srt/managers/tp_worker.py", line 235, in __init__
    self._model_runner = ModelRunner(
  File "/sgl-workspace/sglang/python/sglang/srt/model_executor/model_runner.py", line 322, in __init__
    self.initialize(min_per_gpu_memory)
  File "/sgl-workspace/sglang/python/sglang/srt/model_executor/model_runner.py", line 479, in initialize
    self.init_device_graphs()
  File "/sgl-workspace/sglang/python/sglang/srt/model_executor/model_runner.py", line 1995, in init_device_graphs
    self.graph_runner = graph_runners[self.device](self)
  File "/sgl-workspace/sglang/python/sglang/srt/model_executor/cuda_graph_runner.py", line 383, in __init__
    raise Exception(
Exception: Capture cuda graph failed: RuntimeError: PassManager::run failed

Set TORCHDYNAMO_VERBOSE=1 for the internal stack trace (please do this especially if you're reporting a bug to PyTorch). For even more developer context, set TORCH_LOGS="+dynamo"

Possible solutions:
1. set --mem-fraction-static to a smaller value (e.g., 0.8 or 0.7)
2. set --cuda-graph-max-bs to a smaller value (e.g., 16)
3. disable torch compile by not using --enable-torch-compile
4. disable CUDA graph by --disable-cuda-graph. (Not recommended. Huge performance loss)
Open an issue on GitHub https://github.com/sgl-project/sglang/issues/new/choose 


[2025-11-03 11:31:41 DP2 TP2] Scheduler hit an exception: Traceback (most recent call last):
  File "/sgl-workspace/sglang/python/sglang/srt/model_executor/cuda_graph_runner.py", line 381, in __init__
    self.capture()
  File "/sgl-workspace/sglang/python/sglang/srt/model_executor/cuda_graph_runner.py", line 500, in capture
    ) = self.capture_one_batch_size(bs, forward)
  File "/sgl-workspace/sglang/python/sglang/srt/model_executor/cuda_graph_runner.py", line 688, in capture_one_batch_size
    run_once()
  File "/sgl-workspace/sglang/python/sglang/srt/model_executor/cuda_graph_runner.py", line 675, in run_once
    logits_output_or_pp_proxy_tensors = forward(
  File "/opt/venv/lib/python3.10/site-packages/torch/_dynamo/eval_frame.py", line 817, in compile_wrapper
    raise e.remove_dynamo_frames() from None  # see TORCHDYNAMO_VERBOSE=1
  File "/opt/venv/lib/python3.10/site-packages/torch/_inductor/compile_fx.py", line 979, in _compile_fx_inner
    raise InductorError(e, currentframe()).with_traceback(
  File "/opt/venv/lib/python3.10/site-packages/torch/_inductor/compile_fx.py", line 963, in _compile_fx_inner
    mb_compiled_graph = fx_codegen_and_compile(
  File "/opt/venv/lib/python3.10/site-packages/torch/_inductor/compile_fx.py", line 1646, in fx_codegen_and_compile
    return scheme.codegen_and_compile(gm, example_inputs, inputs_to_check, graph_kwargs)
  File "/opt/venv/lib/python3.10/site-packages/torch/_inductor/compile_fx.py", line 1506, in codegen_and_compile
    compiled_module = graph.compile_to_module()
  File "/opt/venv/lib/python3.10/site-packages/torch/_inductor/graph.py", line 2318, in compile_to_module
    return self._compile_to_module()
  File "/opt/venv/lib/python3.10/site-packages/torch/_inductor/graph.py", line 2328, in _compile_to_module
    mod = self._compile_to_module_lines(wrapper_code)
  File "/opt/venv/lib/python3.10/site-packages/torch/_inductor/graph.py", line 2396, in _compile_to_module_lines
    mod = PyCodeCache.load_by_key_path(
  File "/opt/venv/lib/python3.10/site-packages/torch/_inductor/codecache.py", line 3462, in load_by_key_path
    mod = _reload_python_module(key, path, set_sys_modules=in_toplevel)
  File "/opt/venv/lib/python3.10/site-packages/torch/_inductor/runtime/compile_tasks.py", line 31, in _reload_python_module
    exec(code, mod.__dict__, mod.__dict__)
  File "/tmp/torchinductor_root/xv/cxvgv42f65hkiltj6b5iwoiz2l5sndhmjhvwbjdojjhantp37qny.py", line 38, in <module>
    _batched_gemm_afp4_wfp4_pre_quant_kernel_0 = async_compile.triton('_batched_gemm_afp4_wfp4_pre_quant_kernel', '''
  File "/opt/venv/lib/python3.10/site-packages/torch/_inductor/async_compile.py", line 486, in triton
    kernel.precompile(
  File "/opt/venv/lib/python3.10/site-packages/torch/_inductor/runtime/triton_heuristics.py", line 437, in precompile
    self._precompile_worker()
  File "/opt/venv/lib/python3.10/site-packages/torch/_inductor/runtime/triton_heuristics.py", line 459, in _precompile_worker
    compile_results.append(self._precompile_config(c))
  File "/opt/venv/lib/python3.10/site-packages/torch/_inductor/runtime/triton_heuristics.py", line 748, in _precompile_config
    binary = triton.compile(*compile_args, **compile_kwargs)
  File "/opt/venv/lib/python3.10/site-packages/triton/compiler/compiler.py", line 322, in compile
    next_module = compile_ir(module, metadata)
  File "/opt/venv/lib/python3.10/site-packages/triton/backends/amd/compiler.py", line 450, in <lambda>
    stages["llir"] = lambda src, metadata: self.make_llir(src, metadata, options)
  File "/opt/venv/lib/python3.10/site-packages/triton/backends/amd/compiler.py", line 325, in make_llir
    pm.run(mod)
torch._inductor.exc.InductorError: RuntimeError: PassManager::run failed

Set TORCHDYNAMO_VERBOSE=1 for the internal stack trace (please do this especially if you're reporting a bug to PyTorch). For even more developer context, set TORCH_LOGS="+dynamo"


During handling of the above exception, another exception occurred:

Traceback (most recent call last):
  File "/sgl-workspace/sglang/python/sglang/srt/managers/scheduler.py", line 2786, in run_scheduler_process
    scheduler = Scheduler(
  File "/sgl-workspace/sglang/python/sglang/srt/managers/scheduler.py", line 319, in __init__
    self.tp_worker = TpModelWorker(
  File "/sgl-workspace/sglang/python/sglang/srt/managers/tp_worker.py", line 235, in __init__
    self._model_runner = ModelRunner(
  File "/sgl-workspace/sglang/python/sglang/srt/model_executor/model_runner.py", line 322, in __init__
    self.initialize(min_per_gpu_memory)
  File "/sgl-workspace/sglang/python/sglang/srt/model_executor/model_runner.py", line 479, in initialize
    self.init_device_graphs()
  File "/sgl-workspace/sglang/python/sglang/srt/model_executor/model_runner.py", line 1995, in init_device_graphs
    self.graph_runner = graph_runners[self.device](self)
  File "/sgl-workspace/sglang/python/sglang/srt/model_executor/cuda_graph_runner.py", line 383, in __init__
    raise Exception(
Exception: Capture cuda graph failed: RuntimeError: PassManager::run failed

Set TORCHDYNAMO_VERBOSE=1 for the internal stack trace (please do this especially if you're reporting a bug to PyTorch). For even more developer context, set TORCH_LOGS="+dynamo"

Possible solutions:
1. set --mem-fraction-static to a smaller value (e.g., 0.8 or 0.7)
2. set --cuda-graph-max-bs to a smaller value (e.g., 16)
3. disable torch compile by not using --enable-torch-compile
4. disable CUDA graph by --disable-cuda-graph. (Not recommended. Huge performance loss)
Open an issue on GitHub https://github.com/sgl-project/sglang/issues/new/choose 


[2025-11-03 11:31:41 DP3 TP3] Scheduler hit an exception: Traceback (most recent call last):
  File "/sgl-workspace/sglang/python/sglang/srt/model_executor/cuda_graph_runner.py", line 381, in __init__
    self.capture()
  File "/sgl-workspace/sglang/python/sglang/srt/model_executor/cuda_graph_runner.py", line 500, in capture
    ) = self.capture_one_batch_size(bs, forward)
  File "/sgl-workspace/sglang/python/sglang/srt/model_executor/cuda_graph_runner.py", line 688, in capture_one_batch_size
    run_once()
  File "/sgl-workspace/sglang/python/sglang/srt/model_executor/cuda_graph_runner.py", line 675, in run_once
    logits_output_or_pp_proxy_tensors = forward(
  File "/opt/venv/lib/python3.10/site-packages/torch/_dynamo/eval_frame.py", line 817, in compile_wrapper
    raise e.remove_dynamo_frames() from None  # see TORCHDYNAMO_VERBOSE=1
  File "/opt/venv/lib/python3.10/site-packages/torch/_inductor/compile_fx.py", line 979, in _compile_fx_inner
    raise InductorError(e, currentframe()).with_traceback(
  File "/opt/venv/lib/python3.10/site-packages/torch/_inductor/compile_fx.py", line 963, in _compile_fx_inner
    mb_compiled_graph = fx_codegen_and_compile(
  File "/opt/venv/lib/python3.10/site-packages/torch/_inductor/compile_fx.py", line 1646, in fx_codegen_and_compile
    return scheme.codegen_and_compile(gm, example_inputs, inputs_to_check, graph_kwargs)
  File "/opt/venv/lib/python3.10/site-packages/torch/_inductor/compile_fx.py", line 1506, in codegen_and_compile
    compiled_module = graph.compile_to_module()
  File "/opt/venv/lib/python3.10/site-packages/torch/_inductor/graph.py", line 2318, in compile_to_module
    return self._compile_to_module()
  File "/opt/venv/lib/python3.10/site-packages/torch/_inductor/graph.py", line 2328, in _compile_to_module
    mod = self._compile_to_module_lines(wrapper_code)
  File "/opt/venv/lib/python3.10/site-packages/torch/_inductor/graph.py", line 2396, in _compile_to_module_lines
    mod = PyCodeCache.load_by_key_path(
  File "/opt/venv/lib/python3.10/site-packages/torch/_inductor/codecache.py", line 3462, in load_by_key_path
    mod = _reload_python_module(key, path, set_sys_modules=in_toplevel)
  File "/opt/venv/lib/python3.10/site-packages/torch/_inductor/runtime/compile_tasks.py", line 31, in _reload_python_module
    exec(code, mod.__dict__, mod.__dict__)
  File "/tmp/torchinductor_root/fp/cfplyp6avjs7k66evomdrkblvk3x7vmq4xbwl45377k5xadqi4oz.py", line 38, in <module>
    _batched_gemm_afp4_wfp4_pre_quant_kernel_0 = async_compile.triton('_batched_gemm_afp4_wfp4_pre_quant_kernel', '''
  File "/opt/venv/lib/python3.10/site-packages/torch/_inductor/async_compile.py", line 486, in triton
    kernel.precompile(
  File "/opt/venv/lib/python3.10/site-packages/torch/_inductor/runtime/triton_heuristics.py", line 437, in precompile
    self._precompile_worker()
  File "/opt/venv/lib/python3.10/site-packages/torch/_inductor/runtime/triton_heuristics.py", line 459, in _precompile_worker
    compile_results.append(self._precompile_config(c))
  File "/opt/venv/lib/python3.10/site-packages/torch/_inductor/runtime/triton_heuristics.py", line 748, in _precompile_config
    binary = triton.compile(*compile_args, **compile_kwargs)
  File "/opt/venv/lib/python3.10/site-packages/triton/compiler/compiler.py", line 322, in compile
    next_module = compile_ir(module, metadata)
  File "/opt/venv/lib/python3.10/site-packages/triton/backends/amd/compiler.py", line 450, in <lambda>
    stages["llir"] = lambda src, metadata: self.make_llir(src, metadata, options)
  File "/opt/venv/lib/python3.10/site-packages/triton/backends/amd/compiler.py", line 325, in make_llir
    pm.run(mod)
torch._inductor.exc.InductorError: RuntimeError: PassManager::run failed

Set TORCHDYNAMO_VERBOSE=1 for the internal stack trace (please do this especially if you're reporting a bug to PyTorch). For even more developer context, set TORCH_LOGS="+dynamo"


During handling of the above exception, another exception occurred:

Traceback (most recent call last):
  File "/sgl-workspace/sglang/python/sglang/srt/managers/scheduler.py", line 2786, in run_scheduler_process
    scheduler = Scheduler(
  File "/sgl-workspace/sglang/python/sglang/srt/managers/scheduler.py", line 319, in __init__
    self.tp_worker = TpModelWorker(
  File "/sgl-workspace/sglang/python/sglang/srt/managers/tp_worker.py", line 235, in __init__
    self._model_runner = ModelRunner(
  File "/sgl-workspace/sglang/python/sglang/srt/model_executor/model_runner.py", line 322, in __init__
    self.initialize(min_per_gpu_memory)
  File "/sgl-workspace/sglang/python/sglang/srt/model_executor/model_runner.py", line 479, in initialize
    self.init_device_graphs()
  File "/sgl-workspace/sglang/python/sglang/srt/model_executor/model_runner.py", line 1995, in init_device_graphs
    self.graph_runner = graph_runners[self.device](self)
  File "/sgl-workspace/sglang/python/sglang/srt/model_executor/cuda_graph_runner.py", line 383, in __init__
    raise Exception(
Exception: Capture cuda graph failed: RuntimeError: PassManager::run failed

Set TORCHDYNAMO_VERBOSE=1 for the internal stack trace (please do this especially if you're reporting a bug to PyTorch). For even more developer context, set TORCH_LOGS="+dynamo"

Possible solutions:
1. set --mem-fraction-static to a smaller value (e.g., 0.8 or 0.7)
2. set --cuda-graph-max-bs to a smaller value (e.g., 16)
3. disable torch compile by not using --enable-torch-compile
4. disable CUDA graph by --disable-cuda-graph. (Not recommended. Huge performance loss)
Open an issue on GitHub https://github.com/sgl-project/sglang/issues/new/choose 


[rank0]:[W1103 11:31:42.342062975 ProcessGroupNCCL.cpp:1522] Warning: WARNING: destroy_process_group() was not called before program exit, which can leak resources. For more info, please see https://pytorch.org/docs/stable/distributed.html#shutdown (function operator())
[rank1]:[W1103 11:31:42.458757820 ProcessGroupNCCL.cpp:1522] Warning: WARNING: destroy_process_group() was not called before program exit, which can leak resources. For more info, please see https://pytorch.org/docs/stable/distributed.html#shutdown (function operator())
[rank3]:[W1103 11:31:42.468856514 ProcessGroupNCCL.cpp:1522] Warning: WARNING: destroy_process_group() was not called before program exit, which can leak resources. For more info, please see https://pytorch.org/docs/stable/distributed.html#shutdown (function operator())
[rank4]:[W1103 11:31:42.468984741 ProcessGroupNCCL.cpp:1522] Warning: WARNING: destroy_process_group() was not called before program exit, which can leak resources. For more info, please see https://pytorch.org/docs/stable/distributed.html#shutdown (function operator())
[rank2]:[W1103 11:31:42.469099309 ProcessGroupNCCL.cpp:1522] Warning: WARNING: destroy_process_group() was not called before program exit, which can leak resources. For more info, please see https://pytorch.org/docs/stable/distributed.html#shutdown (function operator())
[rank5]:[W1103 11:31:42.469170988 ProcessGroupNCCL.cpp:1522] Warning: WARNING: destroy_process_group() was not called before program exit, which can leak resources. For more info, please see https://pytorch.org/docs/stable/distributed.html#shutdown (function operator())
[rank6]:[W1103 11:31:42.479225912 ProcessGroupNCCL.cpp:1522] Warning: WARNING: destroy_process_group() was not called before program exit, which can leak resources. For more info, please see https://pytorch.org/docs/stable/distributed.html#shutdown (function operator())
[rank7]:[W1103 11:31:42.489202987 ProcessGroupNCCL.cpp:1522] Warning: WARNING: destroy_process_group() was not called before program exit, which can leak resources. For more info, please see https://pytorch.org/docs/stable/distributed.html#shutdown (function operator())
