INFO 11-06 11:00:44 [__init__.py:241] Automatically detected platform rocm.
/sgl-workspace/sglang/python/sglang/srt/layers/quantization/awq.py:67: UserWarning: HIP does not support fused_marlin_moe currently.
  warnings.warn(f"HIP does not support fused_marlin_moe currently.")
/sgl-workspace/sglang/python/sglang/srt/layers/quantization/gguf.py:46: UserWarning: Only CUDA support GGUF q uantization currently.
  warnings.warn(f"Only CUDA support GGUF q uantization currently.")
[2025-11-06 11:00:44] WARNING model_config.py:715: quark quantization is not fully optimized yet. The speed can be slower than non-quantized models.
[2025-11-06 11:00:44] WARNING server_args.py:1165: Attention backend not explicitly specified. Use aiter backend by default.
[2025-11-06 11:00:44] INFO trace.py:52: opentelemetry package is not installed, tracing disabled
[2025-11-06 11:00:44] server_args=ServerArgs(model_path='/mnt/raid/models/deepseek-ai/amd-DeepSeek-R1-MXFP4-Preview', tokenizer_path='/mnt/raid/models/deepseek-ai/amd-DeepSeek-R1-MXFP4-Preview', tokenizer_mode='auto', tokenizer_worker_num=1, skip_tokenizer_init=False, load_format='auto', model_loader_extra_config='{}', trust_remote_code=True, context_length=None, is_embedding=False, enable_multimodal=None, revision=None, model_impl='auto', host='127.0.0.1', port=30000, grpc_mode=False, skip_server_warmup=False, warmups=None, nccl_port=None, checkpoint_engine_wait_weights_before_ready=False, dtype='auto', quantization=None, quantization_param_path=None, kv_cache_dtype='auto', enable_fp32_lm_head=False, modelopt_quant=None, modelopt_checkpoint_restore_path=None, modelopt_checkpoint_save_path=None, modelopt_export_path=None, quantize_and_serve=False, mem_fraction_static=0.765, max_running_requests=1024, max_queued_requests=None, max_total_tokens=None, chunked_prefill_size=16384, max_prefill_tokens=16384, schedule_policy='fcfs', enable_priority_scheduling=False, abort_on_priority_when_disabled=False, schedule_low_priority_values_first=False, priority_scheduling_preemption_threshold=10, schedule_conservativeness=1.0, page_size=1, hybrid_kvcache_ratio=None, swa_full_tokens_ratio=0.8, disable_hybrid_swa_memory=False, radix_eviction_policy='lru', device='cuda', tp_size=8, pp_size=1, pp_max_micro_batch_size=None, stream_interval=1, stream_output=False, random_seed=970329444, constrained_json_whitespace_pattern=None, constrained_json_disable_any_whitespace=False, watchdog_timeout=300, dist_timeout=None, download_dir=None, base_gpu_id=0, gpu_id_step=1, sleep_on_idle=False, log_level='info', log_level_http=None, log_requests=False, log_requests_level=2, crash_dump_folder=None, show_time_cost=False, enable_metrics=False, enable_metrics_for_all_schedulers=False, tokenizer_metrics_custom_labels_header='x-custom-labels', tokenizer_metrics_allowed_custom_labels=None, bucket_time_to_first_token=None, bucket_inter_token_latency=None, bucket_e2e_request_latency=None, collect_tokens_histogram=False, prompt_tokens_buckets=None, generation_tokens_buckets=None, gc_warning_threshold_secs=0.0, decode_log_interval=40, enable_request_time_stats_logging=False, kv_events_config=None, enable_trace=False, otlp_traces_endpoint='localhost:4317', api_key=None, served_model_name='/mnt/raid/models/deepseek-ai/amd-DeepSeek-R1-MXFP4-Preview', weight_version='default', chat_template=None, completion_template=None, file_storage_path='sglang_storage', enable_cache_report=False, reasoning_parser=None, tool_call_parser=None, tool_server=None, sampling_defaults='model', dp_size=1, load_balance_method='round_robin', load_watch_interval=0.1, prefill_round_robin_balance=False, dist_init_addr=None, nnodes=1, node_rank=0, json_model_override_args='{}', preferred_sampling_params=None, enable_lora=None, max_lora_rank=None, lora_target_modules=None, lora_paths=None, max_loaded_loras=None, max_loras_per_batch=8, lora_eviction_policy='lru', lora_backend='csgmv', max_lora_chunk_size=16, attention_backend='aiter', decode_attention_backend=None, prefill_attention_backend=None, sampling_backend='pytorch', grammar_backend='xgrammar', mm_attention_backend=None, nsa_prefill_backend='flashmla_sparse', nsa_decode_backend='fa3', speculative_algorithm=None, speculative_draft_model_path=None, speculative_draft_model_revision=None, speculative_draft_load_format=None, speculative_num_steps=None, speculative_eagle_topk=None, speculative_num_draft_tokens=None, speculative_accept_threshold_single=1.0, speculative_accept_threshold_acc=1.0, speculative_token_map=None, speculative_attention_mode='prefill', speculative_moe_runner_backend=None, speculative_ngram_min_match_window_size=1, speculative_ngram_max_match_window_size=12, speculative_ngram_min_bfs_breadth=1, speculative_ngram_max_bfs_breadth=10, speculative_ngram_match_type='BFS', speculative_ngram_branch_length=18, speculative_ngram_capacity=10000000, ep_size=1, moe_a2a_backend='none', moe_runner_backend='auto', flashinfer_mxfp4_moe_precision='default', enable_flashinfer_allreduce_fusion=False, deepep_mode='auto', ep_num_redundant_experts=0, ep_dispatch_algorithm='static', init_expert_location='trivial', enable_eplb=False, eplb_algorithm='auto', eplb_rebalance_num_iterations=1000, eplb_rebalance_layers_per_chunk=None, eplb_min_rebalancing_utilization_threshold=1.0, expert_distribution_recorder_mode=None, expert_distribution_recorder_buffer_size=1000, enable_expert_distribution_metrics=False, deepep_config=None, moe_dense_tp_size=None, elastic_ep_backend=None, mooncake_ib_device=None, max_mamba_cache_size=None, mamba_ssm_dtype='float32', mamba_full_memory_ratio=0.9, enable_hierarchical_cache=False, hicache_ratio=2.0, hicache_size=0, hicache_write_policy='write_through', hicache_io_backend='kernel', hicache_mem_layout='layer_first', hicache_storage_backend=None, hicache_storage_prefetch_policy='best_effort', hicache_storage_backend_extra_config=None, enable_lmcache=False, kt_amx_weight_path=None, kt_amx_method='AMXINT4', kt_cpuinfer=None, kt_threadpool_count=2, kt_num_gpu_experts=None, enable_double_sparsity=False, ds_channel_config_path=None, ds_heavy_channel_num=32, ds_heavy_token_num=256, ds_heavy_channel_type='qk', ds_sparse_decode_threshold=4096, cpu_offload_gb=0, offload_group_size=-1, offload_num_in_group=1, offload_prefetch_step=1, offload_mode='cpu', multi_item_scoring_delimiter=None, disable_radix_cache=False, cuda_graph_max_bs=512, cuda_graph_bs=[1, 2, 4, 8, 12, 16, 24, 32, 40, 48, 56, 64, 72, 80, 88, 96, 104, 112, 120, 128, 136, 144, 152, 160, 168, 176, 184, 192, 200, 208, 216, 224, 232, 240, 248, 256, 272, 288, 304, 320, 336, 352, 368, 384, 400, 416, 432, 448, 464, 480, 496, 512], disable_cuda_graph=False, disable_cuda_graph_padding=False, enable_profile_cuda_graph=False, enable_cudagraph_gc=False, enable_nccl_nvls=False, enable_symm_mem=False, disable_flashinfer_cutlass_moe_fp4_allgather=False, enable_tokenizer_batch_encode=False, disable_tokenizer_batch_decode=False, disable_outlines_disk_cache=False, disable_custom_all_reduce=False, enable_mscclpp=False, enable_torch_symm_mem=False, disable_overlap_schedule=False, enable_mixed_chunk=False, enable_dp_attention=False, enable_dp_lm_head=False, enable_two_batch_overlap=False, enable_single_batch_overlap=False, tbo_token_distribution_threshold=0.48, enable_torch_compile=True, enable_piecewise_cuda_graph=False, torch_compile_max_bs=32, piecewise_cuda_graph_max_tokens=4096, piecewise_cuda_graph_tokens=[4, 8, 12, 16, 20, 24, 28, 32, 48, 64, 80, 96, 112, 128, 144, 160, 176, 192, 208, 224, 240, 256, 288, 320, 352, 384, 416, 448, 480, 512, 640, 768, 896, 1024, 1152, 1280, 1408, 1536, 1664, 1792, 1920, 2048, 2176, 2304, 2432, 2560, 2688, 2816, 2944, 3072, 3200, 3328, 3456, 3584, 3712, 3840, 3968, 4096], piecewise_cuda_graph_compiler='eager', torchao_config='', enable_nan_detection=False, enable_p2p_check=False, triton_attention_reduce_in_fp32=False, triton_attention_num_kv_splits=16, triton_attention_split_tile_size=None, num_continuous_decode_steps=1, delete_ckpt_after_loading=False, enable_memory_saver=False, enable_weights_cpu_backup=False, allow_auto_truncate=False, enable_custom_logit_processor=False, flashinfer_mla_disable_ragged=False, disable_shared_experts_fusion=False, disable_chunked_prefix_cache=False, disable_fast_image_processor=False, keep_mm_feature_on_device=False, enable_return_hidden_states=False, scheduler_recv_interval=1, numa_node=None, enable_deterministic_inference=False, rl_on_policy_target=None, enable_dynamic_batch_tokenizer=False, dynamic_batch_tokenizer_batch_size=32, dynamic_batch_tokenizer_batch_timeout=0.002, debug_tensor_dump_output_folder=None, debug_tensor_dump_layers=None, debug_tensor_dump_input_file=None, debug_tensor_dump_inject=False, disaggregation_mode='null', disaggregation_transfer_backend='mooncake', disaggregation_bootstrap_port=8998, disaggregation_decode_tp=None, disaggregation_decode_dp=None, disaggregation_prefill_pp=1, disaggregation_ib_device=None, disaggregation_decode_enable_offload_kvcache=False, num_reserved_decode_tokens=512, disaggregation_decode_polling_interval=1, custom_weight_loader=[], weight_loader_disable_mmap=False, remote_instance_weight_loader_seed_instance_ip=None, remote_instance_weight_loader_seed_instance_service_port=None, remote_instance_weight_loader_send_weights_group_ports=None, enable_pdmux=False, pdmux_config_path=None, sm_group_num=8, mm_max_concurrent_calls=32, mm_per_request_timeout=10.0, decrypted_config_file=None, decrypted_draft_config_file=None)
[2025-11-06 11:00:44] quark quantization is not fully optimized yet. The speed can be slower than non-quantized models.
[2025-11-06 11:00:45] Using default HuggingFace chat template with detected content format: string
INFO 11-06 11:00:53 [__init__.py:241] Automatically detected platform rocm.
INFO 11-06 11:00:53 [__init__.py:241] Automatically detected platform rocm.
INFO 11-06 11:00:53 [__init__.py:241] Automatically detected platform rocm.
INFO 11-06 11:00:53 [__init__.py:241] Automatically detected platform rocm.
INFO 11-06 11:00:53 [__init__.py:241] Automatically detected platform rocm.
/sgl-workspace/sglang/python/sglang/srt/layers/quantization/awq.py:67: UserWarning: HIP does not support fused_marlin_moe currently.
  warnings.warn(f"HIP does not support fused_marlin_moe currently.")
/sgl-workspace/sglang/python/sglang/srt/layers/quantization/gguf.py:46: UserWarning: Only CUDA support GGUF q uantization currently.
  warnings.warn(f"Only CUDA support GGUF q uantization currently.")
[2025-11-06 11:00:53] INFO trace.py:52: opentelemetry package is not installed, tracing disabled
INFO 11-06 11:00:53 [__init__.py:241] Automatically detected platform rocm.
INFO 11-06 11:00:53 [__init__.py:241] Automatically detected platform rocm.
/sgl-workspace/sglang/python/sglang/srt/layers/quantization/awq.py:67: UserWarning: HIP does not support fused_marlin_moe currently.
  warnings.warn(f"HIP does not support fused_marlin_moe currently.")
[2025-11-06 11:00:53 TP1] Process 209 gpu_id 1 is running on CPUs: [16, 17, 18, 19, 20, 21, 22, 23, 24, 25, 26, 27, 28, 29, 30, 31, 144, 145, 146, 147, 148, 149, 150, 151, 152, 153, 154, 155, 156, 157, 158, 159]
[2025-11-06 11:00:53 TP1] quark quantization is not fully optimized yet. The speed can be slower than non-quantized models.
INFO 11-06 11:00:53 [__init__.py:241] Automatically detected platform rocm.
/sgl-workspace/sglang/python/sglang/srt/layers/quantization/gguf.py:46: UserWarning: Only CUDA support GGUF q uantization currently.
  warnings.warn(f"Only CUDA support GGUF q uantization currently.")
[2025-11-06 11:00:53] INFO trace.py:52: opentelemetry package is not installed, tracing disabled
/sgl-workspace/sglang/python/sglang/srt/layers/quantization/awq.py:67: UserWarning: HIP does not support fused_marlin_moe currently.
  warnings.warn(f"HIP does not support fused_marlin_moe currently.")
[2025-11-06 11:00:53 TP5] Process 213 gpu_id 5 is running on CPUs: [80, 81, 82, 83, 84, 85, 86, 87, 88, 89, 90, 91, 92, 93, 94, 95, 208, 209, 210, 211, 212, 213, 214, 215, 216, 217, 218, 219, 220, 221, 222, 223]
[2025-11-06 11:00:53 TP5] quark quantization is not fully optimized yet. The speed can be slower than non-quantized models.
INFO 11-06 11:00:53 [__init__.py:241] Automatically detected platform rocm.
/sgl-workspace/sglang/python/sglang/srt/layers/quantization/awq.py:67: UserWarning: HIP does not support fused_marlin_moe currently.
  warnings.warn(f"HIP does not support fused_marlin_moe currently.")
/sgl-workspace/sglang/python/sglang/srt/layers/quantization/awq.py:67: UserWarning: HIP does not support fused_marlin_moe currently.
  warnings.warn(f"HIP does not support fused_marlin_moe currently.")
/sgl-workspace/sglang/python/sglang/srt/layers/quantization/gguf.py:46: UserWarning: Only CUDA support GGUF q uantization currently.
  warnings.warn(f"Only CUDA support GGUF q uantization currently.")
[2025-11-06 11:00:53 TP1] quark quantization is not fully optimized yet. The speed can be slower than non-quantized models.
[2025-11-06 11:00:53 TP1] Init torch distributed begin.
[2025-11-06 11:00:53] INFO trace.py:52: opentelemetry package is not installed, tracing disabled
/sgl-workspace/sglang/python/sglang/srt/layers/quantization/gguf.py:46: UserWarning: Only CUDA support GGUF q uantization currently.
  warnings.warn(f"Only CUDA support GGUF q uantization currently.")
/sgl-workspace/sglang/python/sglang/srt/layers/quantization/gguf.py:46: UserWarning: Only CUDA support GGUF q uantization currently.
  warnings.warn(f"Only CUDA support GGUF q uantization currently.")
[2025-11-06 11:00:53] INFO trace.py:52: opentelemetry package is not installed, tracing disabled
[2025-11-06 11:00:53] INFO trace.py:52: opentelemetry package is not installed, tracing disabled
[2025-11-06 11:00:53 TP0] Process 208 gpu_id 0 is running on CPUs: [0, 1, 2, 3, 4, 5, 6, 7, 8, 9, 10, 11, 12, 13, 14, 15, 128, 129, 130, 131, 132, 133, 134, 135, 136, 137, 138, 139, 140, 141, 142, 143]
[2025-11-06 11:00:53 TP0] quark quantization is not fully optimized yet. The speed can be slower than non-quantized models.
[2025-11-06 11:00:53 TP5] quark quantization is not fully optimized yet. The speed can be slower than non-quantized models.
[2025-11-06 11:00:53 TP5] Init torch distributed begin.
[2025-11-06 11:00:53 TP3] Process 211 gpu_id 3 is running on CPUs: [48, 49, 50, 51, 52, 53, 54, 55, 56, 57, 58, 59, 60, 61, 62, 63, 176, 177, 178, 179, 180, 181, 182, 183, 184, 185, 186, 187, 188, 189, 190, 191]
[2025-11-06 11:00:53 TP3] quark quantization is not fully optimized yet. The speed can be slower than non-quantized models.
/sgl-workspace/sglang/python/sglang/srt/layers/quantization/awq.py:67: UserWarning: HIP does not support fused_marlin_moe currently.
  warnings.warn(f"HIP does not support fused_marlin_moe currently.")
/sgl-workspace/sglang/python/sglang/srt/layers/quantization/awq.py:67: UserWarning: HIP does not support fused_marlin_moe currently.
  warnings.warn(f"HIP does not support fused_marlin_moe currently.")
/sgl-workspace/sglang/python/sglang/srt/layers/quantization/awq.py:67: UserWarning: HIP does not support fused_marlin_moe currently.
  warnings.warn(f"HIP does not support fused_marlin_moe currently.")
/sgl-workspace/sglang/python/sglang/srt/layers/quantization/gguf.py:46: UserWarning: Only CUDA support GGUF q uantization currently.
  warnings.warn(f"Only CUDA support GGUF q uantization currently.")
/sgl-workspace/sglang/python/sglang/srt/layers/quantization/gguf.py:46: UserWarning: Only CUDA support GGUF q uantization currently.
  warnings.warn(f"Only CUDA support GGUF q uantization currently.")
[2025-11-06 11:00:54] INFO trace.py:52: opentelemetry package is not installed, tracing disabled
[2025-11-06 11:00:54] INFO trace.py:52: opentelemetry package is not installed, tracing disabled
[2025-11-06 11:00:54 TP0] quark quantization is not fully optimized yet. The speed can be slower than non-quantized models.
[2025-11-06 11:00:54 TP0] Init torch distributed begin.
/sgl-workspace/sglang/python/sglang/srt/layers/quantization/gguf.py:46: UserWarning: Only CUDA support GGUF q uantization currently.
  warnings.warn(f"Only CUDA support GGUF q uantization currently.")
[2025-11-06 11:00:54 TP7] Process 215 gpu_id 7 is running on CPUs: [112, 113, 114, 115, 116, 117, 118, 119, 120, 121, 122, 123, 124, 125, 126, 127, 240, 241, 242, 243, 244, 245, 246, 247, 248, 249, 250, 251, 252, 253, 254, 255]
[2025-11-06 11:00:54 TP7] quark quantization is not fully optimized yet. The speed can be slower than non-quantized models.
[2025-11-06 11:00:54 TP4] Process 212 gpu_id 4 is running on CPUs: [64, 65, 66, 67, 68, 69, 70, 71, 72, 73, 74, 75, 76, 77, 78, 79, 192, 193, 194, 195, 196, 197, 198, 199, 200, 201, 202, 203, 204, 205, 206, 207]
[2025-11-06 11:00:54 TP4] quark quantization is not fully optimized yet. The speed can be slower than non-quantized models.
/sgl-workspace/sglang/python/sglang/srt/layers/quantization/awq.py:67: UserWarning: HIP does not support fused_marlin_moe currently.
  warnings.warn(f"HIP does not support fused_marlin_moe currently.")
[2025-11-06 11:00:54] INFO trace.py:52: opentelemetry package is not installed, tracing disabled
[2025-11-06 11:00:54 TP3] quark quantization is not fully optimized yet. The speed can be slower than non-quantized models.
[2025-11-06 11:00:54 TP3] Init torch distributed begin.
[2025-11-06 11:00:54 TP2] Process 210 gpu_id 2 is running on CPUs: [32, 33, 34, 35, 36, 37, 38, 39, 40, 41, 42, 43, 44, 45, 46, 47, 160, 161, 162, 163, 164, 165, 166, 167, 168, 169, 170, 171, 172, 173, 174, 175]
[2025-11-06 11:00:54 TP2] quark quantization is not fully optimized yet. The speed can be slower than non-quantized models.
/sgl-workspace/sglang/python/sglang/srt/layers/quantization/gguf.py:46: UserWarning: Only CUDA support GGUF q uantization currently.
  warnings.warn(f"Only CUDA support GGUF q uantization currently.")
[2025-11-06 11:00:54] INFO trace.py:52: opentelemetry package is not installed, tracing disabled
[2025-11-06 11:00:54 TP6] Process 214 gpu_id 6 is running on CPUs: [96, 97, 98, 99, 100, 101, 102, 103, 104, 105, 106, 107, 108, 109, 110, 111, 224, 225, 226, 227, 228, 229, 230, 231, 232, 233, 234, 235, 236, 237, 238, 239]
[2025-11-06 11:00:54 TP6] quark quantization is not fully optimized yet. The speed can be slower than non-quantized models.
[2025-11-06 11:00:54 TP7] quark quantization is not fully optimized yet. The speed can be slower than non-quantized models.
[2025-11-06 11:00:54 TP7] Init torch distributed begin.
[2025-11-06 11:00:54 TP4] quark quantization is not fully optimized yet. The speed can be slower than non-quantized models.
[2025-11-06 11:00:54 TP4] Init torch distributed begin.
[2025-11-06 11:00:54 TP2] quark quantization is not fully optimized yet. The speed can be slower than non-quantized models.
[2025-11-06 11:00:54 TP2] Init torch distributed begin.
[2025-11-06 11:00:54 TP6] quark quantization is not fully optimized yet. The speed can be slower than non-quantized models.
[2025-11-06 11:00:54 TP6] Init torch distributed begin.
[Gloo] Rank 0 is connected to 7 peer ranks. Expected number of connected peer ranks is : 7
[Gloo] Rank 1 is connected to 7 peer ranks. Expected number of connected peer ranks is : 7
[Gloo] Rank 4 is connected to 7 peer ranks. Expected number of connected peer ranks is : 7
[Gloo] Rank 2 is connected to 7 peer ranks. Expected number of connected peer ranks is : 7
[Gloo] Rank 3 is connected to 7 peer ranks. Expected number of connected peer ranks is : 7
[Gloo] Rank 6 is connected to 7 peer ranks. Expected number of connected peer ranks is : 7
[Gloo] Rank 5 is connected to 7 peer ranks. Expected number of connected peer ranks is : 7
[Gloo] Rank 7 is connected to 7 peer ranks. Expected number of connected peer ranks is : 7
[Gloo] Rank 6 is connected to 7 peer ranks. Expected number of connected peer ranks is : 7
[Gloo] Rank 1 is connected to 7 peer ranks. Expected number of connected peer ranks is : 7
[Gloo] Rank 3 is connected to 7 peer ranks. Expected number of connected peer ranks is : 7
[Gloo] Rank 0 is connected to 7 peer ranks. Expected number of connected peer ranks is : 7
[Gloo] Rank 5 is connected to 7 peer ranks. Expected number of connected peer ranks is : 7
[Gloo] Rank 7 is connected to 7 peer ranks. Expected number of connected peer ranks is : 7
[Gloo] Rank 4 is connected to 7 peer ranks. Expected number of connected peer ranks is : 7
[Gloo] Rank 2 is connected to 7 peer ranks. Expected number of connected peer ranks is : 7
[2025-11-06 11:00:54 TP0] sglang is using nccl==2.26.6
[Gloo] Rank 0 is connected to 0 peer ranks. Expected number of connected peer ranks is : 0
[Gloo] Rank 0 is connected to 0 peer ranks. Expected number of connected peer ranks is : 0
[Gloo] Rank 0 is connected to 0 peer ranks. Expected number of connected peer ranks is : 0
[Gloo] Rank 0 is connected to 0 peer ranks. Expected number of connected peer ranks is : 0
[Gloo] Rank 0 is connected to 0 peer ranks. Expected number of connected peer ranks is : 0
[Gloo] Rank 0 is connected to 0 peer ranks. Expected number of connected peer ranks is : 0
[Gloo] Rank 0 is connected to 0 peer ranks. Expected number of connected peer ranks is : 0
[Gloo] Rank 0 is connected to 0 peer ranks. Expected number of connected peer ranks is : 0
[Gloo] Rank 0 is connected to 0 peer ranks. Expected number of connected peer ranks is : 0
[Gloo] Rank 0 is connected to 0 peer ranks. Expected number of connected peer ranks is : 0
[Gloo] Rank 0 is connected to 0 peer ranks. Expected number of connected peer ranks is : 0
[Gloo] Rank 0 is connected to 0 peer ranks. Expected number of connected peer ranks is : 0
[Gloo] Rank 0 is connected to 0 peer ranks. Expected number of connected peer ranks is : 0
[Gloo] Rank 0 is connected to 0 peer ranks. Expected number of connected peer ranks is : 0
[Gloo] Rank 0 is connected to 0 peer ranks. Expected number of connected peer ranks is : 0
[Gloo] Rank 0 is connected to 0 peer ranks. Expected number of connected peer ranks is : 0
[Gloo] Rank 2 is connected to 7 peer ranks. Expected number of connected peer ranks is : 7
[Gloo] Rank 1 is connected to 7 peer ranks. Expected number of connected peer ranks is : 7
[Gloo] Rank 4 is connected to 7 peer ranks. Expected number of connected peer ranks is : 7
[Gloo] Rank 0 is connected to 7 peer ranks. Expected number of connected peer ranks is : 7
[Gloo] Rank 5 is connected to 7 peer ranks. Expected number of connected peer ranks is : 7
[Gloo] Rank 7 is connected to 7 peer ranks. Expected number of connected peer ranks is : 7
[Gloo] Rank 3 is connected to 7 peer ranks. Expected number of connected peer ranks is : 7
[Gloo] Rank 6 is connected to 7 peer ranks. Expected number of connected peer ranks is : 7
[2025-11-06 11:01:01 TP7] Init torch distributed ends. mem usage=3.10 GB
[2025-11-06 11:01:01 TP4] Init torch distributed ends. mem usage=3.10 GB
[2025-11-06 11:01:01 TP5] Init torch distributed ends. mem usage=3.17 GB
[2025-11-06 11:01:01 TP0] Init torch distributed ends. mem usage=3.22 GB
[2025-11-06 11:01:01 TP6] Init torch distributed ends. mem usage=3.11 GB
[2025-11-06 11:01:01 TP3] Init torch distributed ends. mem usage=3.24 GB
[2025-11-06 11:01:01 TP2] Init torch distributed ends. mem usage=3.24 GB
[2025-11-06 11:01:01 TP1] Init torch distributed ends. mem usage=2.82 GB
/opt/venv/lib/python3.10/site-packages/apex/transformer/functional/fused_rope.py:49: UserWarning: Aiter backend is selected for fused RoPE. This has lower precision. To disable aiter, export USE_ROCM_AITER_ROPE_BACKEND=0
  warnings.warn("Aiter backend is selected for fused RoPE. This has lower precision. To disable aiter, export USE_ROCM_AITER_ROPE_BACKEND=0", UserWarning)
/opt/venv/lib/python3.10/site-packages/apex/transformer/functional/fused_rope.py:49: UserWarning: Aiter backend is selected for fused RoPE. This has lower precision. To disable aiter, export USE_ROCM_AITER_ROPE_BACKEND=0
  warnings.warn("Aiter backend is selected for fused RoPE. This has lower precision. To disable aiter, export USE_ROCM_AITER_ROPE_BACKEND=0", UserWarning)
/opt/venv/lib/python3.10/site-packages/apex/transformer/functional/fused_rope.py:49: UserWarning: Aiter backend is selected for fused RoPE. This has lower precision. To disable aiter, export USE_ROCM_AITER_ROPE_BACKEND=0
  warnings.warn("Aiter backend is selected for fused RoPE. This has lower precision. To disable aiter, export USE_ROCM_AITER_ROPE_BACKEND=0", UserWarning)
/opt/venv/lib/python3.10/site-packages/apex/transformer/functional/fused_rope.py:49: UserWarning: Aiter backend is selected for fused RoPE. This has lower precision. To disable aiter, export USE_ROCM_AITER_ROPE_BACKEND=0
  warnings.warn("Aiter backend is selected for fused RoPE. This has lower precision. To disable aiter, export USE_ROCM_AITER_ROPE_BACKEND=0", UserWarning)
/opt/venv/lib/python3.10/site-packages/apex/transformer/functional/fused_rope.py:49: UserWarning: Aiter backend is selected for fused RoPE. This has lower precision. To disable aiter, export USE_ROCM_AITER_ROPE_BACKEND=0
  warnings.warn("Aiter backend is selected for fused RoPE. This has lower precision. To disable aiter, export USE_ROCM_AITER_ROPE_BACKEND=0", UserWarning)
/opt/venv/lib/python3.10/site-packages/apex/transformer/functional/fused_rope.py:49: UserWarning: Aiter backend is selected for fused RoPE. This has lower precision. To disable aiter, export USE_ROCM_AITER_ROPE_BACKEND=0
  warnings.warn("Aiter backend is selected for fused RoPE. This has lower precision. To disable aiter, export USE_ROCM_AITER_ROPE_BACKEND=0", UserWarning)
/opt/venv/lib/python3.10/site-packages/apex/transformer/functional/fused_rope.py:49: UserWarning: Aiter backend is selected for fused RoPE. This has lower precision. To disable aiter, export USE_ROCM_AITER_ROPE_BACKEND=0
  warnings.warn("Aiter backend is selected for fused RoPE. This has lower precision. To disable aiter, export USE_ROCM_AITER_ROPE_BACKEND=0", UserWarning)
/opt/venv/lib/python3.10/site-packages/apex/transformer/functional/fused_rope.py:49: UserWarning: Aiter backend is selected for fused RoPE. This has lower precision. To disable aiter, export USE_ROCM_AITER_ROPE_BACKEND=0
  warnings.warn("Aiter backend is selected for fused RoPE. This has lower precision. To disable aiter, export USE_ROCM_AITER_ROPE_BACKEND=0", UserWarning)
[2025-11-06 11:01:02 TP0] Load weight begin. avail mem=284.28 GB
[2025-11-06 11:01:02 TP0] Only Deepseek V3/R1 on NV-platform with capability >= 80 can use shared experts fusion optimization. Shared experts fusion optimization is disabled.
[2025-11-06 11:01:02 TP5] Load weight begin. avail mem=284.33 GB
[2025-11-06 11:01:02 TP2] Load weight begin. avail mem=284.26 GB
[2025-11-06 11:01:02 TP4] Load weight begin. avail mem=284.40 GB
[2025-11-06 11:01:02 TP7] Load weight begin. avail mem=284.40 GB
[2025-11-06 11:01:02 TP1] Load weight begin. avail mem=284.68 GB
[2025-11-06 11:01:02 TP3] Load weight begin. avail mem=284.26 GB
[2025-11-06 11:01:02 TP6] Load weight begin. avail mem=284.39 GB
Loading safetensors checkpoint shards:   0% Completed | 0/73 [00:00<?, ?it/s]
Loading safetensors checkpoint shards:   1% Completed | 1/73 [00:00<00:11,  6.53it/s]
Loading safetensors checkpoint shards:   3% Completed | 2/73 [00:00<00:15,  4.53it/s]
Loading safetensors checkpoint shards:   4% Completed | 3/73 [00:00<00:18,  3.85it/s]
Loading safetensors checkpoint shards:   5% Completed | 4/73 [00:01<00:21,  3.28it/s]
Loading safetensors checkpoint shards:   7% Completed | 5/73 [00:01<00:21,  3.09it/s]
Loading safetensors checkpoint shards:   8% Completed | 6/73 [00:01<00:19,  3.47it/s]
Loading safetensors checkpoint shards:  10% Completed | 7/73 [00:02<00:20,  3.15it/s]
Loading safetensors checkpoint shards:  11% Completed | 8/73 [00:02<00:19,  3.42it/s]
Loading safetensors checkpoint shards:  12% Completed | 9/73 [00:02<00:15,  4.22it/s]
Loading safetensors checkpoint shards:  15% Completed | 11/73 [00:02<00:09,  6.57it/s]
Loading safetensors checkpoint shards:  18% Completed | 13/73 [00:03<00:15,  3.83it/s]
Loading safetensors checkpoint shards:  19% Completed | 14/73 [00:03<00:14,  4.11it/s]
Loading safetensors checkpoint shards:  22% Completed | 16/73 [00:03<00:10,  5.58it/s]
Loading safetensors checkpoint shards:  25% Completed | 18/73 [00:03<00:07,  7.29it/s]
Loading safetensors checkpoint shards:  27% Completed | 20/73 [00:04<00:06,  8.33it/s]
Loading safetensors checkpoint shards:  30% Completed | 22/73 [00:04<00:05, 10.07it/s]
Loading safetensors checkpoint shards:  33% Completed | 24/73 [00:04<00:04, 11.71it/s]
Loading safetensors checkpoint shards:  36% Completed | 26/73 [00:06<00:19,  2.41it/s]
Loading safetensors checkpoint shards:  38% Completed | 28/73 [00:08<00:27,  1.61it/s]
Loading safetensors checkpoint shards:  40% Completed | 29/73 [00:09<00:25,  1.75it/s]
Loading safetensors checkpoint shards:  41% Completed | 30/73 [00:09<00:22,  1.93it/s]
Loading safetensors checkpoint shards:  42% Completed | 31/73 [00:09<00:19,  2.18it/s]
Loading safetensors checkpoint shards:  45% Completed | 33/73 [00:09<00:11,  3.35it/s]
Loading safetensors checkpoint shards:  47% Completed | 34/73 [00:10<00:12,  3.14it/s]
Loading safetensors checkpoint shards:  48% Completed | 35/73 [00:10<00:11,  3.31it/s]
Loading safetensors checkpoint shards:  49% Completed | 36/73 [00:10<00:10,  3.58it/s]
Loading safetensors checkpoint shards:  51% Completed | 37/73 [00:10<00:10,  3.40it/s]
Loading safetensors checkpoint shards:  52% Completed | 38/73 [00:11<00:10,  3.28it/s]
Loading safetensors checkpoint shards:  53% Completed | 39/73 [00:11<00:09,  3.59it/s]
Loading safetensors checkpoint shards:  56% Completed | 41/73 [00:11<00:07,  4.32it/s]
Loading safetensors checkpoint shards:  58% Completed | 42/73 [00:12<00:08,  3.74it/s]
Loading safetensors checkpoint shards:  59% Completed | 43/73 [00:12<00:10,  2.82it/s]
Loading safetensors checkpoint shards:  60% Completed | 44/73 [00:13<00:09,  3.08it/s]
Loading safetensors checkpoint shards:  62% Completed | 45/73 [00:13<00:08,  3.44it/s]
Loading safetensors checkpoint shards:  63% Completed | 46/73 [00:13<00:08,  3.22it/s]
Loading safetensors checkpoint shards:  64% Completed | 47/73 [00:13<00:08,  3.23it/s]
Loading safetensors checkpoint shards:  66% Completed | 48/73 [00:14<00:07,  3.39it/s]
Loading safetensors checkpoint shards:  67% Completed | 49/73 [00:14<00:10,  2.19it/s]
Loading safetensors checkpoint shards:  68% Completed | 50/73 [00:15<00:08,  2.77it/s]
Loading safetensors checkpoint shards:  71% Completed | 52/73 [00:15<00:04,  4.31it/s]
Loading safetensors checkpoint shards:  75% Completed | 55/73 [00:15<00:02,  6.98it/s]
Loading safetensors checkpoint shards:  78% Completed | 57/73 [00:15<00:01,  8.80it/s]
Loading safetensors checkpoint shards:  81% Completed | 59/73 [00:15<00:01, 10.18it/s]
Loading safetensors checkpoint shards:  84% Completed | 61/73 [00:15<00:01, 11.25it/s]
Loading safetensors checkpoint shards:  86% Completed | 63/73 [00:15<00:00, 11.15it/s]
Loading safetensors checkpoint shards:  89% Completed | 65/73 [00:16<00:00, 11.56it/s]
Loading safetensors checkpoint shards:  92% Completed | 67/73 [00:16<00:00, 12.73it/s]
Loading safetensors checkpoint shards:  95% Completed | 69/73 [00:19<00:02,  1.62it/s]
Loading safetensors checkpoint shards:  97% Completed | 71/73 [00:20<00:01,  1.78it/s]
Loading safetensors checkpoint shards: 100% Completed | 73/73 [00:20<00:00,  2.45it/s]
Loading safetensors checkpoint shards: 100% Completed | 73/73 [00:20<00:00,  3.48it/s]

[2025-11-06 11:01:27 TP2] Load weight end. type=DeepseekV3ForCausalLM, dtype=torch.bfloat16, avail mem=241.66 GB, mem usage=42.60 GB.
[2025-11-06 11:01:27 TP0] Load weight end. type=DeepseekV3ForCausalLM, dtype=torch.bfloat16, avail mem=241.68 GB, mem usage=42.60 GB.
[2025-11-06 11:01:27 TP1] Load weight end. type=DeepseekV3ForCausalLM, dtype=torch.bfloat16, avail mem=242.08 GB, mem usage=42.60 GB.
[2025-11-06 11:01:28 TP5] Load weight end. type=DeepseekV3ForCausalLM, dtype=torch.bfloat16, avail mem=241.72 GB, mem usage=42.60 GB.
[2025-11-06 11:01:28 TP4] Load weight end. type=DeepseekV3ForCausalLM, dtype=torch.bfloat16, avail mem=241.80 GB, mem usage=42.60 GB.
[2025-11-06 11:01:28 TP3] Load weight end. type=DeepseekV3ForCausalLM, dtype=torch.bfloat16, avail mem=241.65 GB, mem usage=42.60 GB.
[2025-11-06 11:01:29 TP7] Load weight end. type=DeepseekV3ForCausalLM, dtype=torch.bfloat16, avail mem=241.80 GB, mem usage=42.60 GB.
[2025-11-06 11:01:29 TP6] Load weight end. type=DeepseekV3ForCausalLM, dtype=torch.bfloat16, avail mem=241.78 GB, mem usage=42.60 GB.
[2025-11-06 11:01:29 TP0] Using KV cache dtype: torch.bfloat16
[2025-11-06 11:01:29 TP7] KV Cache is allocated. #tokens: 2671567, KV size: 174.84 GB
[2025-11-06 11:01:29 TP0] KV Cache is allocated. #tokens: 2671567, KV size: 174.84 GB
[2025-11-06 11:01:29 TP7] Memory pool end. avail mem=66.25 GB
[2025-11-06 11:01:29 TP5] KV Cache is allocated. #tokens: 2671567, KV size: 174.84 GB
[2025-11-06 11:01:29 TP4] KV Cache is allocated. #tokens: 2671567, KV size: 174.84 GB
[2025-11-06 11:01:29 TP0] Memory pool end. avail mem=66.13 GB
[2025-11-06 11:01:29 TP5] Memory pool end. avail mem=66.18 GB
[2025-11-06 11:01:29 TP4] Memory pool end. avail mem=66.25 GB
[2025-11-06 11:01:29 TP3] KV Cache is allocated. #tokens: 2671567, KV size: 174.84 GB
[2025-11-06 11:01:29 TP3] Memory pool end. avail mem=66.11 GB
[2025-11-06 11:01:29 TP1] KV Cache is allocated. #tokens: 2671567, KV size: 174.84 GB
[2025-11-06 11:01:29 TP1] Memory pool end. avail mem=66.53 GB
[2025-11-06 11:01:29 TP2] KV Cache is allocated. #tokens: 2671567, KV size: 174.84 GB
[2025-11-06 11:01:29 TP2] Memory pool end. avail mem=66.11 GB
[2025-11-06 11:01:29 TP6] KV Cache is allocated. #tokens: 2671567, KV size: 174.84 GB
[2025-11-06 11:01:29 TP6] Memory pool end. avail mem=66.24 GB
[2025-11-06 11:01:29 TP4] Capture cuda graph begin. This can take up to several minutes. avail mem=66.12 GB
[2025-11-06 11:01:29 TP0] Capture cuda graph begin. This can take up to several minutes. avail mem=66.00 GB
[2025-11-06 11:01:29 TP3] Capture cuda graph begin. This can take up to several minutes. avail mem=65.98 GB
[2025-11-06 11:01:29 TP0] Capture cuda graph bs [1, 2, 4, 8, 12, 16, 24, 32, 40, 48, 56, 64, 72, 80, 88, 96, 104, 112, 120, 128, 136, 144, 152, 160, 168, 176, 184, 192, 200, 208, 216, 224, 232, 240, 248, 256, 272, 288, 304, 320, 336, 352, 368, 384, 400, 416, 432, 448, 464, 480, 496, 512]
[2025-11-06 11:01:29 TP5] Capture cuda graph begin. This can take up to several minutes. avail mem=66.05 GB
[2025-11-06 11:01:29 TP7] Capture cuda graph begin. This can take up to several minutes. avail mem=66.12 GB
[2025-11-06 11:01:29 TP2] Capture cuda graph begin. This can take up to several minutes. avail mem=65.98 GB
[2025-11-06 11:01:29 TP6] Capture cuda graph begin. This can take up to several minutes. avail mem=66.11 GB
[2025-11-06 11:01:29 TP1] Capture cuda graph begin. This can take up to several minutes. avail mem=66.40 GB
  0%|          | 0/52 [00:00<?, ?it/s]Capturing batches (bs=512 avail_mem=65.36 GB):   0%|          | 0/52 [00:00<?, ?it/s][aiter] hipModuleLoad: /sgl-workspace/aiter/hsa/gfx950//mla/mla_dec_stage1_bf16_a16w16_subQ16_mqa16.co GetFunction: _ZN5aiter39mla_dec_stage1_bf16_a16w16_subQ16_mqa16E Success
[aiter] [fused_moe] using 2stage default for (256, 512, 7168, 256, 256, 8, 'ActivationType.Silu', 'torch.bfloat16', 'torch.float4_e2m1fn_x2', 'torch.float4_e2m1fn_x2', 'QuantType.per_1x32', True, False) 
[2025-11-06 11:01:33 TP3] [fused_moe] using 2stage default for (256, 512, 7168, 256, 256, 8, 'ActivationType.Silu', 'torch.bfloat16', 'torch.float4_e2m1fn_x2', 'torch.float4_e2m1fn_x2', 'QuantType.per_1x32', True, False) 
[aiter] type hints mismatch, override to --> dynamic_per_group_scaled_quant_fp4(out: torch.Tensor, input: torch.Tensor, scales: torch.Tensor, group_size: int = 32, shuffle_scale: bool = True, num_rows: Optional[torch.Tensor] = None, num_rows_factor: int = 1) -> None
[2025-11-06 11:01:33 TP3] type hints mismatch, override to --> dynamic_per_group_scaled_quant_fp4(out: torch.Tensor, input: torch.Tensor, scales: torch.Tensor, group_size: int = 32, shuffle_scale: bool = True, num_rows: Optional[torch.Tensor] = None, num_rows_factor: int = 1) -> None
[aiter] type hints mismatch, override to --> ck_moe_stage1(hidden_states: torch.Tensor, w1: torch.Tensor, w2: torch.Tensor, sorted_token_ids: torch.Tensor, sorted_expert_ids: torch.Tensor, num_valid_ids: torch.Tensor, out: torch.Tensor, topk: int, kernelName: str = None, w1_scale: Optional[torch.Tensor] = None, a1_scale: Optional[torch.Tensor] = None, block_m: Optional[int] = 32, sorted_weights: Optional[torch.Tensor] = None, quant_type: int = 0, activation: int = 0) -> None
[2025-11-06 11:01:33 TP3] type hints mismatch, override to --> ck_moe_stage1(hidden_states: torch.Tensor, w1: torch.Tensor, w2: torch.Tensor, sorted_token_ids: torch.Tensor, sorted_expert_ids: torch.Tensor, num_valid_ids: torch.Tensor, out: torch.Tensor, topk: int, kernelName: str = None, w1_scale: Optional[torch.Tensor] = None, a1_scale: Optional[torch.Tensor] = None, block_m: Optional[int] = 32, sorted_weights: Optional[torch.Tensor] = None, quant_type: int = 0, activation: int = 0) -> None
[aiter] type hints mismatch, override to --> ck_moe_stage2(inter_states: torch.Tensor, w1: torch.Tensor, w2: torch.Tensor, sorted_token_ids: torch.Tensor, sorted_expert_ids: torch.Tensor, num_valid_ids: torch.Tensor, out: torch.Tensor, topk: int, kernelName: str = None, w2_scale: Optional[torch.Tensor] = None, a2_scale: Optional[torch.Tensor] = None, block_m: Optional[int] = 32, sorted_weights: Optional[torch.Tensor] = None, quant_type: int = 0, activation: int = 0) -> None
[2025-11-06 11:01:33 TP3] type hints mismatch, override to --> ck_moe_stage2(inter_states: torch.Tensor, w1: torch.Tensor, w2: torch.Tensor, sorted_token_ids: torch.Tensor, sorted_expert_ids: torch.Tensor, num_valid_ids: torch.Tensor, out: torch.Tensor, topk: int, kernelName: str = None, w2_scale: Optional[torch.Tensor] = None, a2_scale: Optional[torch.Tensor] = None, block_m: Optional[int] = 32, sorted_weights: Optional[torch.Tensor] = None, quant_type: int = 0, activation: int = 0) -> None
[aiter] hipModuleLoad: /sgl-workspace/aiter/hsa/gfx950//mla/mla_dec_stage1_bf16_a16w16_subQ16_mqa16.co GetFunction: _ZN5aiter39mla_dec_stage1_bf16_a16w16_subQ16_mqa16E Success
[aiter] [fused_moe] using 2stage default for (256, 512, 7168, 256, 256, 8, 'ActivationType.Silu', 'torch.bfloat16', 'torch.float4_e2m1fn_x2', 'torch.float4_e2m1fn_x2', 'QuantType.per_1x32', True, False) 
[2025-11-06 11:01:33 TP5] [fused_moe] using 2stage default for (256, 512, 7168, 256, 256, 8, 'ActivationType.Silu', 'torch.bfloat16', 'torch.float4_e2m1fn_x2', 'torch.float4_e2m1fn_x2', 'QuantType.per_1x32', True, False) 
[aiter] type hints mismatch, override to --> dynamic_per_group_scaled_quant_fp4(out: torch.Tensor, input: torch.Tensor, scales: torch.Tensor, group_size: int = 32, shuffle_scale: bool = True, num_rows: Optional[torch.Tensor] = None, num_rows_factor: int = 1) -> None
[2025-11-06 11:01:33 TP5] type hints mismatch, override to --> dynamic_per_group_scaled_quant_fp4(out: torch.Tensor, input: torch.Tensor, scales: torch.Tensor, group_size: int = 32, shuffle_scale: bool = True, num_rows: Optional[torch.Tensor] = None, num_rows_factor: int = 1) -> None
[aiter] type hints mismatch, override to --> ck_moe_stage1(hidden_states: torch.Tensor, w1: torch.Tensor, w2: torch.Tensor, sorted_token_ids: torch.Tensor, sorted_expert_ids: torch.Tensor, num_valid_ids: torch.Tensor, out: torch.Tensor, topk: int, kernelName: str = None, w1_scale: Optional[torch.Tensor] = None, a1_scale: Optional[torch.Tensor] = None, block_m: Optional[int] = 32, sorted_weights: Optional[torch.Tensor] = None, quant_type: int = 0, activation: int = 0) -> None
[2025-11-06 11:01:33 TP5] type hints mismatch, override to --> ck_moe_stage1(hidden_states: torch.Tensor, w1: torch.Tensor, w2: torch.Tensor, sorted_token_ids: torch.Tensor, sorted_expert_ids: torch.Tensor, num_valid_ids: torch.Tensor, out: torch.Tensor, topk: int, kernelName: str = None, w1_scale: Optional[torch.Tensor] = None, a1_scale: Optional[torch.Tensor] = None, block_m: Optional[int] = 32, sorted_weights: Optional[torch.Tensor] = None, quant_type: int = 0, activation: int = 0) -> None
[aiter] type hints mismatch, override to --> ck_moe_stage2(inter_states: torch.Tensor, w1: torch.Tensor, w2: torch.Tensor, sorted_token_ids: torch.Tensor, sorted_expert_ids: torch.Tensor, num_valid_ids: torch.Tensor, out: torch.Tensor, topk: int, kernelName: str = None, w2_scale: Optional[torch.Tensor] = None, a2_scale: Optional[torch.Tensor] = None, block_m: Optional[int] = 32, sorted_weights: Optional[torch.Tensor] = None, quant_type: int = 0, activation: int = 0) -> None
[2025-11-06 11:01:33 TP5] type hints mismatch, override to --> ck_moe_stage2(inter_states: torch.Tensor, w1: torch.Tensor, w2: torch.Tensor, sorted_token_ids: torch.Tensor, sorted_expert_ids: torch.Tensor, num_valid_ids: torch.Tensor, out: torch.Tensor, topk: int, kernelName: str = None, w2_scale: Optional[torch.Tensor] = None, a2_scale: Optional[torch.Tensor] = None, block_m: Optional[int] = 32, sorted_weights: Optional[torch.Tensor] = None, quant_type: int = 0, activation: int = 0) -> None
[aiter] hipModuleLoad: /sgl-workspace/aiter/hsa/gfx950//mla/mla_dec_stage1_bf16_a16w16_subQ16_mqa16.co GetFunction: _ZN5aiter39mla_dec_stage1_bf16_a16w16_subQ16_mqa16E Success
[aiter] [fused_moe] using 2stage default for (256, 512, 7168, 256, 256, 8, 'ActivationType.Silu', 'torch.bfloat16', 'torch.float4_e2m1fn_x2', 'torch.float4_e2m1fn_x2', 'QuantType.per_1x32', True, False) 
[2025-11-06 11:01:34 TP6] [fused_moe] using 2stage default for (256, 512, 7168, 256, 256, 8, 'ActivationType.Silu', 'torch.bfloat16', 'torch.float4_e2m1fn_x2', 'torch.float4_e2m1fn_x2', 'QuantType.per_1x32', True, False) 
[aiter] type hints mismatch, override to --> dynamic_per_group_scaled_quant_fp4(out: torch.Tensor, input: torch.Tensor, scales: torch.Tensor, group_size: int = 32, shuffle_scale: bool = True, num_rows: Optional[torch.Tensor] = None, num_rows_factor: int = 1) -> None
[2025-11-06 11:01:34 TP6] type hints mismatch, override to --> dynamic_per_group_scaled_quant_fp4(out: torch.Tensor, input: torch.Tensor, scales: torch.Tensor, group_size: int = 32, shuffle_scale: bool = True, num_rows: Optional[torch.Tensor] = None, num_rows_factor: int = 1) -> None
[aiter] type hints mismatch, override to --> ck_moe_stage1(hidden_states: torch.Tensor, w1: torch.Tensor, w2: torch.Tensor, sorted_token_ids: torch.Tensor, sorted_expert_ids: torch.Tensor, num_valid_ids: torch.Tensor, out: torch.Tensor, topk: int, kernelName: str = None, w1_scale: Optional[torch.Tensor] = None, a1_scale: Optional[torch.Tensor] = None, block_m: Optional[int] = 32, sorted_weights: Optional[torch.Tensor] = None, quant_type: int = 0, activation: int = 0) -> None
[2025-11-06 11:01:34 TP6] type hints mismatch, override to --> ck_moe_stage1(hidden_states: torch.Tensor, w1: torch.Tensor, w2: torch.Tensor, sorted_token_ids: torch.Tensor, sorted_expert_ids: torch.Tensor, num_valid_ids: torch.Tensor, out: torch.Tensor, topk: int, kernelName: str = None, w1_scale: Optional[torch.Tensor] = None, a1_scale: Optional[torch.Tensor] = None, block_m: Optional[int] = 32, sorted_weights: Optional[torch.Tensor] = None, quant_type: int = 0, activation: int = 0) -> None
[aiter] type hints mismatch, override to --> ck_moe_stage2(inter_states: torch.Tensor, w1: torch.Tensor, w2: torch.Tensor, sorted_token_ids: torch.Tensor, sorted_expert_ids: torch.Tensor, num_valid_ids: torch.Tensor, out: torch.Tensor, topk: int, kernelName: str = None, w2_scale: Optional[torch.Tensor] = None, a2_scale: Optional[torch.Tensor] = None, block_m: Optional[int] = 32, sorted_weights: Optional[torch.Tensor] = None, quant_type: int = 0, activation: int = 0) -> None
[2025-11-06 11:01:34 TP6] type hints mismatch, override to --> ck_moe_stage2(inter_states: torch.Tensor, w1: torch.Tensor, w2: torch.Tensor, sorted_token_ids: torch.Tensor, sorted_expert_ids: torch.Tensor, num_valid_ids: torch.Tensor, out: torch.Tensor, topk: int, kernelName: str = None, w2_scale: Optional[torch.Tensor] = None, a2_scale: Optional[torch.Tensor] = None, block_m: Optional[int] = 32, sorted_weights: Optional[torch.Tensor] = None, quant_type: int = 0, activation: int = 0) -> None
[aiter] hipModuleLoad: /sgl-workspace/aiter/hsa/gfx950//mla/mla_dec_stage1_bf16_a16w16_subQ16_mqa16.co GetFunction: _ZN5aiter39mla_dec_stage1_bf16_a16w16_subQ16_mqa16E Success
[aiter] [fused_moe] using 2stage default for (256, 512, 7168, 256, 256, 8, 'ActivationType.Silu', 'torch.bfloat16', 'torch.float4_e2m1fn_x2', 'torch.float4_e2m1fn_x2', 'QuantType.per_1x32', True, False) 
[2025-11-06 11:01:35 TP0] [fused_moe] using 2stage default for (256, 512, 7168, 256, 256, 8, 'ActivationType.Silu', 'torch.bfloat16', 'torch.float4_e2m1fn_x2', 'torch.float4_e2m1fn_x2', 'QuantType.per_1x32', True, False) 
[aiter] type hints mismatch, override to --> dynamic_per_group_scaled_quant_fp4(out: torch.Tensor, input: torch.Tensor, scales: torch.Tensor, group_size: int = 32, shuffle_scale: bool = True, num_rows: Optional[torch.Tensor] = None, num_rows_factor: int = 1) -> None
[2025-11-06 11:01:35 TP0] type hints mismatch, override to --> dynamic_per_group_scaled_quant_fp4(out: torch.Tensor, input: torch.Tensor, scales: torch.Tensor, group_size: int = 32, shuffle_scale: bool = True, num_rows: Optional[torch.Tensor] = None, num_rows_factor: int = 1) -> None
[aiter] type hints mismatch, override to --> ck_moe_stage1(hidden_states: torch.Tensor, w1: torch.Tensor, w2: torch.Tensor, sorted_token_ids: torch.Tensor, sorted_expert_ids: torch.Tensor, num_valid_ids: torch.Tensor, out: torch.Tensor, topk: int, kernelName: str = None, w1_scale: Optional[torch.Tensor] = None, a1_scale: Optional[torch.Tensor] = None, block_m: Optional[int] = 32, sorted_weights: Optional[torch.Tensor] = None, quant_type: int = 0, activation: int = 0) -> None
[2025-11-06 11:01:35 TP0] type hints mismatch, override to --> ck_moe_stage1(hidden_states: torch.Tensor, w1: torch.Tensor, w2: torch.Tensor, sorted_token_ids: torch.Tensor, sorted_expert_ids: torch.Tensor, num_valid_ids: torch.Tensor, out: torch.Tensor, topk: int, kernelName: str = None, w1_scale: Optional[torch.Tensor] = None, a1_scale: Optional[torch.Tensor] = None, block_m: Optional[int] = 32, sorted_weights: Optional[torch.Tensor] = None, quant_type: int = 0, activation: int = 0) -> None
[aiter] type hints mismatch, override to --> ck_moe_stage2(inter_states: torch.Tensor, w1: torch.Tensor, w2: torch.Tensor, sorted_token_ids: torch.Tensor, sorted_expert_ids: torch.Tensor, num_valid_ids: torch.Tensor, out: torch.Tensor, topk: int, kernelName: str = None, w2_scale: Optional[torch.Tensor] = None, a2_scale: Optional[torch.Tensor] = None, block_m: Optional[int] = 32, sorted_weights: Optional[torch.Tensor] = None, quant_type: int = 0, activation: int = 0) -> None
[2025-11-06 11:01:35 TP0] type hints mismatch, override to --> ck_moe_stage2(inter_states: torch.Tensor, w1: torch.Tensor, w2: torch.Tensor, sorted_token_ids: torch.Tensor, sorted_expert_ids: torch.Tensor, num_valid_ids: torch.Tensor, out: torch.Tensor, topk: int, kernelName: str = None, w2_scale: Optional[torch.Tensor] = None, a2_scale: Optional[torch.Tensor] = None, block_m: Optional[int] = 32, sorted_weights: Optional[torch.Tensor] = None, quant_type: int = 0, activation: int = 0) -> None
[aiter] hipModuleLoad: /sgl-workspace/aiter/hsa/gfx950//mla/mla_dec_stage1_bf16_a16w16_subQ16_mqa16.co GetFunction: _ZN5aiter39mla_dec_stage1_bf16_a16w16_subQ16_mqa16E Success
[aiter] [fused_moe] using 2stage default for (256, 512, 7168, 256, 256, 8, 'ActivationType.Silu', 'torch.bfloat16', 'torch.float4_e2m1fn_x2', 'torch.float4_e2m1fn_x2', 'QuantType.per_1x32', True, False) 
[2025-11-06 11:01:36 TP1] [fused_moe] using 2stage default for (256, 512, 7168, 256, 256, 8, 'ActivationType.Silu', 'torch.bfloat16', 'torch.float4_e2m1fn_x2', 'torch.float4_e2m1fn_x2', 'QuantType.per_1x32', True, False) 
[aiter] type hints mismatch, override to --> dynamic_per_group_scaled_quant_fp4(out: torch.Tensor, input: torch.Tensor, scales: torch.Tensor, group_size: int = 32, shuffle_scale: bool = True, num_rows: Optional[torch.Tensor] = None, num_rows_factor: int = 1) -> None
[2025-11-06 11:01:36 TP1] type hints mismatch, override to --> dynamic_per_group_scaled_quant_fp4(out: torch.Tensor, input: torch.Tensor, scales: torch.Tensor, group_size: int = 32, shuffle_scale: bool = True, num_rows: Optional[torch.Tensor] = None, num_rows_factor: int = 1) -> None
[aiter] type hints mismatch, override to --> ck_moe_stage1(hidden_states: torch.Tensor, w1: torch.Tensor, w2: torch.Tensor, sorted_token_ids: torch.Tensor, sorted_expert_ids: torch.Tensor, num_valid_ids: torch.Tensor, out: torch.Tensor, topk: int, kernelName: str = None, w1_scale: Optional[torch.Tensor] = None, a1_scale: Optional[torch.Tensor] = None, block_m: Optional[int] = 32, sorted_weights: Optional[torch.Tensor] = None, quant_type: int = 0, activation: int = 0) -> None
[2025-11-06 11:01:36 TP1] type hints mismatch, override to --> ck_moe_stage1(hidden_states: torch.Tensor, w1: torch.Tensor, w2: torch.Tensor, sorted_token_ids: torch.Tensor, sorted_expert_ids: torch.Tensor, num_valid_ids: torch.Tensor, out: torch.Tensor, topk: int, kernelName: str = None, w1_scale: Optional[torch.Tensor] = None, a1_scale: Optional[torch.Tensor] = None, block_m: Optional[int] = 32, sorted_weights: Optional[torch.Tensor] = None, quant_type: int = 0, activation: int = 0) -> None
[aiter] type hints mismatch, override to --> ck_moe_stage2(inter_states: torch.Tensor, w1: torch.Tensor, w2: torch.Tensor, sorted_token_ids: torch.Tensor, sorted_expert_ids: torch.Tensor, num_valid_ids: torch.Tensor, out: torch.Tensor, topk: int, kernelName: str = None, w2_scale: Optional[torch.Tensor] = None, a2_scale: Optional[torch.Tensor] = None, block_m: Optional[int] = 32, sorted_weights: Optional[torch.Tensor] = None, quant_type: int = 0, activation: int = 0) -> None
[2025-11-06 11:01:36 TP1] type hints mismatch, override to --> ck_moe_stage2(inter_states: torch.Tensor, w1: torch.Tensor, w2: torch.Tensor, sorted_token_ids: torch.Tensor, sorted_expert_ids: torch.Tensor, num_valid_ids: torch.Tensor, out: torch.Tensor, topk: int, kernelName: str = None, w2_scale: Optional[torch.Tensor] = None, a2_scale: Optional[torch.Tensor] = None, block_m: Optional[int] = 32, sorted_weights: Optional[torch.Tensor] = None, quant_type: int = 0, activation: int = 0) -> None
[aiter] hipModuleLoad: /sgl-workspace/aiter/hsa/gfx950//mla/mla_dec_stage1_bf16_a16w16_subQ16_mqa16.co GetFunction: _ZN5aiter39mla_dec_stage1_bf16_a16w16_subQ16_mqa16E Success
[aiter] [fused_moe] using 2stage default for (256, 512, 7168, 256, 256, 8, 'ActivationType.Silu', 'torch.bfloat16', 'torch.float4_e2m1fn_x2', 'torch.float4_e2m1fn_x2', 'QuantType.per_1x32', True, False) 
[2025-11-06 11:01:36 TP2] [fused_moe] using 2stage default for (256, 512, 7168, 256, 256, 8, 'ActivationType.Silu', 'torch.bfloat16', 'torch.float4_e2m1fn_x2', 'torch.float4_e2m1fn_x2', 'QuantType.per_1x32', True, False) 
[aiter] type hints mismatch, override to --> dynamic_per_group_scaled_quant_fp4(out: torch.Tensor, input: torch.Tensor, scales: torch.Tensor, group_size: int = 32, shuffle_scale: bool = True, num_rows: Optional[torch.Tensor] = None, num_rows_factor: int = 1) -> None
[2025-11-06 11:01:36 TP2] type hints mismatch, override to --> dynamic_per_group_scaled_quant_fp4(out: torch.Tensor, input: torch.Tensor, scales: torch.Tensor, group_size: int = 32, shuffle_scale: bool = True, num_rows: Optional[torch.Tensor] = None, num_rows_factor: int = 1) -> None
[aiter] type hints mismatch, override to --> ck_moe_stage1(hidden_states: torch.Tensor, w1: torch.Tensor, w2: torch.Tensor, sorted_token_ids: torch.Tensor, sorted_expert_ids: torch.Tensor, num_valid_ids: torch.Tensor, out: torch.Tensor, topk: int, kernelName: str = None, w1_scale: Optional[torch.Tensor] = None, a1_scale: Optional[torch.Tensor] = None, block_m: Optional[int] = 32, sorted_weights: Optional[torch.Tensor] = None, quant_type: int = 0, activation: int = 0) -> None
[2025-11-06 11:01:36 TP2] type hints mismatch, override to --> ck_moe_stage1(hidden_states: torch.Tensor, w1: torch.Tensor, w2: torch.Tensor, sorted_token_ids: torch.Tensor, sorted_expert_ids: torch.Tensor, num_valid_ids: torch.Tensor, out: torch.Tensor, topk: int, kernelName: str = None, w1_scale: Optional[torch.Tensor] = None, a1_scale: Optional[torch.Tensor] = None, block_m: Optional[int] = 32, sorted_weights: Optional[torch.Tensor] = None, quant_type: int = 0, activation: int = 0) -> None
[aiter] type hints mismatch, override to --> ck_moe_stage2(inter_states: torch.Tensor, w1: torch.Tensor, w2: torch.Tensor, sorted_token_ids: torch.Tensor, sorted_expert_ids: torch.Tensor, num_valid_ids: torch.Tensor, out: torch.Tensor, topk: int, kernelName: str = None, w2_scale: Optional[torch.Tensor] = None, a2_scale: Optional[torch.Tensor] = None, block_m: Optional[int] = 32, sorted_weights: Optional[torch.Tensor] = None, quant_type: int = 0, activation: int = 0) -> None
[2025-11-06 11:01:36 TP2] type hints mismatch, override to --> ck_moe_stage2(inter_states: torch.Tensor, w1: torch.Tensor, w2: torch.Tensor, sorted_token_ids: torch.Tensor, sorted_expert_ids: torch.Tensor, num_valid_ids: torch.Tensor, out: torch.Tensor, topk: int, kernelName: str = None, w2_scale: Optional[torch.Tensor] = None, a2_scale: Optional[torch.Tensor] = None, block_m: Optional[int] = 32, sorted_weights: Optional[torch.Tensor] = None, quant_type: int = 0, activation: int = 0) -> None
[aiter] hipModuleLoad: /sgl-workspace/aiter/hsa/gfx950//mla/mla_dec_stage1_bf16_a16w16_subQ16_mqa16.co GetFunction: _ZN5aiter39mla_dec_stage1_bf16_a16w16_subQ16_mqa16E Success
[aiter] [fused_moe] using 2stage default for (256, 512, 7168, 256, 256, 8, 'ActivationType.Silu', 'torch.bfloat16', 'torch.float4_e2m1fn_x2', 'torch.float4_e2m1fn_x2', 'QuantType.per_1x32', True, False) 
[2025-11-06 11:01:37 TP7] [fused_moe] using 2stage default for (256, 512, 7168, 256, 256, 8, 'ActivationType.Silu', 'torch.bfloat16', 'torch.float4_e2m1fn_x2', 'torch.float4_e2m1fn_x2', 'QuantType.per_1x32', True, False) 
[aiter] type hints mismatch, override to --> dynamic_per_group_scaled_quant_fp4(out: torch.Tensor, input: torch.Tensor, scales: torch.Tensor, group_size: int = 32, shuffle_scale: bool = True, num_rows: Optional[torch.Tensor] = None, num_rows_factor: int = 1) -> None
[2025-11-06 11:01:37 TP7] type hints mismatch, override to --> dynamic_per_group_scaled_quant_fp4(out: torch.Tensor, input: torch.Tensor, scales: torch.Tensor, group_size: int = 32, shuffle_scale: bool = True, num_rows: Optional[torch.Tensor] = None, num_rows_factor: int = 1) -> None
[aiter] type hints mismatch, override to --> ck_moe_stage1(hidden_states: torch.Tensor, w1: torch.Tensor, w2: torch.Tensor, sorted_token_ids: torch.Tensor, sorted_expert_ids: torch.Tensor, num_valid_ids: torch.Tensor, out: torch.Tensor, topk: int, kernelName: str = None, w1_scale: Optional[torch.Tensor] = None, a1_scale: Optional[torch.Tensor] = None, block_m: Optional[int] = 32, sorted_weights: Optional[torch.Tensor] = None, quant_type: int = 0, activation: int = 0) -> None
[2025-11-06 11:01:37 TP7] type hints mismatch, override to --> ck_moe_stage1(hidden_states: torch.Tensor, w1: torch.Tensor, w2: torch.Tensor, sorted_token_ids: torch.Tensor, sorted_expert_ids: torch.Tensor, num_valid_ids: torch.Tensor, out: torch.Tensor, topk: int, kernelName: str = None, w1_scale: Optional[torch.Tensor] = None, a1_scale: Optional[torch.Tensor] = None, block_m: Optional[int] = 32, sorted_weights: Optional[torch.Tensor] = None, quant_type: int = 0, activation: int = 0) -> None
[aiter] type hints mismatch, override to --> ck_moe_stage2(inter_states: torch.Tensor, w1: torch.Tensor, w2: torch.Tensor, sorted_token_ids: torch.Tensor, sorted_expert_ids: torch.Tensor, num_valid_ids: torch.Tensor, out: torch.Tensor, topk: int, kernelName: str = None, w2_scale: Optional[torch.Tensor] = None, a2_scale: Optional[torch.Tensor] = None, block_m: Optional[int] = 32, sorted_weights: Optional[torch.Tensor] = None, quant_type: int = 0, activation: int = 0) -> None
[2025-11-06 11:01:37 TP7] type hints mismatch, override to --> ck_moe_stage2(inter_states: torch.Tensor, w1: torch.Tensor, w2: torch.Tensor, sorted_token_ids: torch.Tensor, sorted_expert_ids: torch.Tensor, num_valid_ids: torch.Tensor, out: torch.Tensor, topk: int, kernelName: str = None, w2_scale: Optional[torch.Tensor] = None, a2_scale: Optional[torch.Tensor] = None, block_m: Optional[int] = 32, sorted_weights: Optional[torch.Tensor] = None, quant_type: int = 0, activation: int = 0) -> None
[aiter] hipModuleLoad: /sgl-workspace/aiter/hsa/gfx950//mla/mla_dec_stage1_bf16_a16w16_subQ16_mqa16.co GetFunction: _ZN5aiter39mla_dec_stage1_bf16_a16w16_subQ16_mqa16E Success
[aiter] [fused_moe] using 2stage default for (256, 512, 7168, 256, 256, 8, 'ActivationType.Silu', 'torch.bfloat16', 'torch.float4_e2m1fn_x2', 'torch.float4_e2m1fn_x2', 'QuantType.per_1x32', True, False) 
[2025-11-06 11:01:38 TP4] [fused_moe] using 2stage default for (256, 512, 7168, 256, 256, 8, 'ActivationType.Silu', 'torch.bfloat16', 'torch.float4_e2m1fn_x2', 'torch.float4_e2m1fn_x2', 'QuantType.per_1x32', True, False) 
[aiter] type hints mismatch, override to --> dynamic_per_group_scaled_quant_fp4(out: torch.Tensor, input: torch.Tensor, scales: torch.Tensor, group_size: int = 32, shuffle_scale: bool = True, num_rows: Optional[torch.Tensor] = None, num_rows_factor: int = 1) -> None
[2025-11-06 11:01:38 TP4] type hints mismatch, override to --> dynamic_per_group_scaled_quant_fp4(out: torch.Tensor, input: torch.Tensor, scales: torch.Tensor, group_size: int = 32, shuffle_scale: bool = True, num_rows: Optional[torch.Tensor] = None, num_rows_factor: int = 1) -> None
[aiter] type hints mismatch, override to --> ck_moe_stage1(hidden_states: torch.Tensor, w1: torch.Tensor, w2: torch.Tensor, sorted_token_ids: torch.Tensor, sorted_expert_ids: torch.Tensor, num_valid_ids: torch.Tensor, out: torch.Tensor, topk: int, kernelName: str = None, w1_scale: Optional[torch.Tensor] = None, a1_scale: Optional[torch.Tensor] = None, block_m: Optional[int] = 32, sorted_weights: Optional[torch.Tensor] = None, quant_type: int = 0, activation: int = 0) -> None
[2025-11-06 11:01:38 TP4] type hints mismatch, override to --> ck_moe_stage1(hidden_states: torch.Tensor, w1: torch.Tensor, w2: torch.Tensor, sorted_token_ids: torch.Tensor, sorted_expert_ids: torch.Tensor, num_valid_ids: torch.Tensor, out: torch.Tensor, topk: int, kernelName: str = None, w1_scale: Optional[torch.Tensor] = None, a1_scale: Optional[torch.Tensor] = None, block_m: Optional[int] = 32, sorted_weights: Optional[torch.Tensor] = None, quant_type: int = 0, activation: int = 0) -> None
[aiter] type hints mismatch, override to --> ck_moe_stage2(inter_states: torch.Tensor, w1: torch.Tensor, w2: torch.Tensor, sorted_token_ids: torch.Tensor, sorted_expert_ids: torch.Tensor, num_valid_ids: torch.Tensor, out: torch.Tensor, topk: int, kernelName: str = None, w2_scale: Optional[torch.Tensor] = None, a2_scale: Optional[torch.Tensor] = None, block_m: Optional[int] = 32, sorted_weights: Optional[torch.Tensor] = None, quant_type: int = 0, activation: int = 0) -> None
[2025-11-06 11:01:38 TP4] type hints mismatch, override to --> ck_moe_stage2(inter_states: torch.Tensor, w1: torch.Tensor, w2: torch.Tensor, sorted_token_ids: torch.Tensor, sorted_expert_ids: torch.Tensor, num_valid_ids: torch.Tensor, out: torch.Tensor, topk: int, kernelName: str = None, w2_scale: Optional[torch.Tensor] = None, a2_scale: Optional[torch.Tensor] = None, block_m: Optional[int] = 32, sorted_weights: Optional[torch.Tensor] = None, quant_type: int = 0, activation: int = 0) -> None
Capturing batches (bs=512 avail_mem=65.36 GB):   2%|         | 1/52 [00:08<07:10,  8.44s/it]Capturing batches (bs=496 avail_mem=64.64 GB):   2%|         | 1/52 [00:08<07:10,  8.44s/it]Capturing batches (bs=496 avail_mem=64.64 GB):   4%|         | 2/52 [00:08<03:09,  3.80s/it]Capturing batches (bs=480 avail_mem=64.39 GB):   4%|         | 2/52 [00:08<03:09,  3.80s/it]Capturing batches (bs=480 avail_mem=64.39 GB):   6%|         | 3/52 [00:09<01:48,  2.22s/it]Capturing batches (bs=464 avail_mem=64.38 GB):   6%|         | 3/52 [00:09<01:48,  2.22s/it]Capturing batches (bs=464 avail_mem=64.38 GB):   8%|         | 4/52 [00:09<01:12,  1.51s/it]Capturing batches (bs=448 avail_mem=64.38 GB):   8%|         | 4/52 [00:09<01:12,  1.51s/it]Capturing batches (bs=448 avail_mem=64.38 GB):  10%|         | 5/52 [00:10<00:55,  1.18s/it]Capturing batches (bs=432 avail_mem=64.36 GB):  10%|         | 5/52 [00:10<00:55,  1.18s/it]Capturing batches (bs=432 avail_mem=64.36 GB):  12%|        | 6/52 [00:10<00:43,  1.05it/s]Capturing batches (bs=416 avail_mem=64.36 GB):  12%|        | 6/52 [00:10<00:43,  1.05it/s]Capturing batches (bs=416 avail_mem=64.36 GB):  13%|        | 7/52 [00:11<00:33,  1.33it/s]Capturing batches (bs=400 avail_mem=64.35 GB):  13%|        | 7/52 [00:11<00:33,  1.33it/s]Capturing batches (bs=400 avail_mem=64.35 GB):  15%|        | 8/52 [00:11<00:30,  1.46it/s]Capturing batches (bs=384 avail_mem=64.34 GB):  15%|        | 8/52 [00:11<00:30,  1.46it/s]Capturing batches (bs=384 avail_mem=64.34 GB):  17%|        | 9/52 [00:12<00:27,  1.55it/s]Capturing batches (bs=368 avail_mem=64.32 GB):  17%|        | 9/52 [00:12<00:27,  1.55it/s]Capturing batches (bs=368 avail_mem=64.32 GB):  19%|        | 10/52 [00:12<00:22,  1.86it/s]Capturing batches (bs=352 avail_mem=64.31 GB):  19%|        | 10/52 [00:12<00:22,  1.86it/s]Capturing batches (bs=352 avail_mem=64.31 GB):  21%|        | 11/52 [00:13<00:21,  1.89it/s]Capturing batches (bs=336 avail_mem=64.30 GB):  21%|        | 11/52 [00:13<00:21,  1.89it/s]Capturing batches (bs=336 avail_mem=64.30 GB):  23%|       | 12/52 [00:13<00:20,  1.95it/s]Capturing batches (bs=320 avail_mem=64.29 GB):  23%|       | 12/52 [00:13<00:20,  1.95it/s]Capturing batches (bs=320 avail_mem=64.29 GB):  25%|       | 13/52 [00:14<00:19,  2.05it/s]Capturing batches (bs=304 avail_mem=64.29 GB):  25%|       | 13/52 [00:14<00:19,  2.05it/s]Capturing batches (bs=304 avail_mem=64.29 GB):  27%|       | 14/52 [00:14<00:16,  2.27it/s]Capturing batches (bs=288 avail_mem=64.28 GB):  27%|       | 14/52 [00:14<00:16,  2.27it/s]Capturing batches (bs=288 avail_mem=64.28 GB):  29%|       | 15/52 [00:14<00:15,  2.37it/s]Capturing batches (bs=272 avail_mem=64.27 GB):  29%|       | 15/52 [00:14<00:15,  2.37it/s]Capturing batches (bs=272 avail_mem=64.27 GB):  31%|       | 16/52 [00:15<00:15,  2.27it/s]Capturing batches (bs=256 avail_mem=64.26 GB):  31%|       | 16/52 [00:15<00:15,  2.27it/s][aiter] [fused_moe] using 2stage default for (256, 256, 7168, 256, 256, 8, 'ActivationType.Silu', 'torch.bfloat16', 'torch.float4_e2m1fn_x2', 'torch.float4_e2m1fn_x2', 'QuantType.per_1x32', True, False) 
[2025-11-06 11:01:45 TP1] [fused_moe] using 2stage default for (256, 256, 7168, 256, 256, 8, 'ActivationType.Silu', 'torch.bfloat16', 'torch.float4_e2m1fn_x2', 'torch.float4_e2m1fn_x2', 'QuantType.per_1x32', True, False) 
[aiter] [fused_moe] using 2stage default for (256, 256, 7168, 256, 256, 8, 'ActivationType.Silu', 'torch.bfloat16', 'torch.float4_e2m1fn_x2', 'torch.float4_e2m1fn_x2', 'QuantType.per_1x32', True, False) 
[2025-11-06 11:01:45 TP0] [fused_moe] using 2stage default for (256, 256, 7168, 256, 256, 8, 'ActivationType.Silu', 'torch.bfloat16', 'torch.float4_e2m1fn_x2', 'torch.float4_e2m1fn_x2', 'QuantType.per_1x32', True, False) 
[aiter] [fused_moe] using 2stage default for (256, 256, 7168, 256, 256, 8, 'ActivationType.Silu', 'torch.bfloat16', 'torch.float4_e2m1fn_x2', 'torch.float4_e2m1fn_x2', 'QuantType.per_1x32', True, False) 
[2025-11-06 11:01:45 TP3] [fused_moe] using 2stage default for (256, 256, 7168, 256, 256, 8, 'ActivationType.Silu', 'torch.bfloat16', 'torch.float4_e2m1fn_x2', 'torch.float4_e2m1fn_x2', 'QuantType.per_1x32', True, False) 
[aiter] [fused_moe] using 2stage default for (256, 256, 7168, 256, 256, 8, 'ActivationType.Silu', 'torch.bfloat16', 'torch.float4_e2m1fn_x2', 'torch.float4_e2m1fn_x2', 'QuantType.per_1x32', True, False) 
[2025-11-06 11:01:45 TP2] [fused_moe] using 2stage default for (256, 256, 7168, 256, 256, 8, 'ActivationType.Silu', 'torch.bfloat16', 'torch.float4_e2m1fn_x2', 'torch.float4_e2m1fn_x2', 'QuantType.per_1x32', True, False) 
[aiter] [fused_moe] using 2stage default for (256, 256, 7168, 256, 256, 8, 'ActivationType.Silu', 'torch.bfloat16', 'torch.float4_e2m1fn_x2', 'torch.float4_e2m1fn_x2', 'QuantType.per_1x32', True, False) 
[2025-11-06 11:01:45 TP5] [fused_moe] using 2stage default for (256, 256, 7168, 256, 256, 8, 'ActivationType.Silu', 'torch.bfloat16', 'torch.float4_e2m1fn_x2', 'torch.float4_e2m1fn_x2', 'QuantType.per_1x32', True, False) 
[aiter] [fused_moe] using 2stage default for (256, 256, 7168, 256, 256, 8, 'ActivationType.Silu', 'torch.bfloat16', 'torch.float4_e2m1fn_x2', 'torch.float4_e2m1fn_x2', 'QuantType.per_1x32', True, False) 
[2025-11-06 11:01:45 TP7] [fused_moe] using 2stage default for (256, 256, 7168, 256, 256, 8, 'ActivationType.Silu', 'torch.bfloat16', 'torch.float4_e2m1fn_x2', 'torch.float4_e2m1fn_x2', 'QuantType.per_1x32', True, False) 
[aiter] [fused_moe] using 2stage default for (256, 256, 7168, 256, 256, 8, 'ActivationType.Silu', 'torch.bfloat16', 'torch.float4_e2m1fn_x2', 'torch.float4_e2m1fn_x2', 'QuantType.per_1x32', True, False) 
[2025-11-06 11:01:45 TP4] [fused_moe] using 2stage default for (256, 256, 7168, 256, 256, 8, 'ActivationType.Silu', 'torch.bfloat16', 'torch.float4_e2m1fn_x2', 'torch.float4_e2m1fn_x2', 'QuantType.per_1x32', True, False) 
[aiter] [fused_moe] using 2stage default for (256, 256, 7168, 256, 256, 8, 'ActivationType.Silu', 'torch.bfloat16', 'torch.float4_e2m1fn_x2', 'torch.float4_e2m1fn_x2', 'QuantType.per_1x32', True, False) 
[2025-11-06 11:01:45 TP6] [fused_moe] using 2stage default for (256, 256, 7168, 256, 256, 8, 'ActivationType.Silu', 'torch.bfloat16', 'torch.float4_e2m1fn_x2', 'torch.float4_e2m1fn_x2', 'QuantType.per_1x32', True, False) 
Capturing batches (bs=256 avail_mem=64.26 GB):  33%|      | 17/52 [00:15<00:17,  2.01it/s]Capturing batches (bs=248 avail_mem=64.23 GB):  33%|      | 17/52 [00:15<00:17,  2.01it/s]Capturing batches (bs=248 avail_mem=64.23 GB):  35%|      | 18/52 [00:16<00:17,  1.99it/s]Capturing batches (bs=240 avail_mem=64.20 GB):  35%|      | 18/52 [00:16<00:17,  1.99it/s]Capturing batches (bs=240 avail_mem=64.20 GB):  37%|      | 19/52 [00:16<00:15,  2.07it/s]Capturing batches (bs=232 avail_mem=64.18 GB):  37%|      | 19/52 [00:16<00:15,  2.07it/s]Capturing batches (bs=232 avail_mem=64.18 GB):  38%|      | 20/52 [00:17<00:15,  2.09it/s]Capturing batches (bs=224 avail_mem=64.17 GB):  38%|      | 20/52 [00:17<00:15,  2.09it/s]Capturing batches (bs=224 avail_mem=64.17 GB):  40%|      | 21/52 [00:17<00:13,  2.28it/s]Capturing batches (bs=216 avail_mem=64.16 GB):  40%|      | 21/52 [00:17<00:13,  2.28it/s]Capturing batches (bs=216 avail_mem=64.16 GB):  42%|     | 22/52 [00:18<00:18,  1.59it/s]Capturing batches (bs=208 avail_mem=64.14 GB):  42%|     | 22/52 [00:18<00:18,  1.59it/s]Capturing batches (bs=208 avail_mem=64.14 GB):  44%|     | 23/52 [00:19<00:16,  1.79it/s]Capturing batches (bs=200 avail_mem=64.13 GB):  44%|     | 23/52 [00:19<00:16,  1.79it/s]Capturing batches (bs=200 avail_mem=64.13 GB):  46%|     | 24/52 [00:19<00:14,  1.91it/s]Capturing batches (bs=192 avail_mem=64.12 GB):  46%|     | 24/52 [00:19<00:14,  1.91it/s]Capturing batches (bs=192 avail_mem=64.12 GB):  48%|     | 25/52 [00:20<00:14,  1.90it/s]Capturing batches (bs=184 avail_mem=64.10 GB):  48%|     | 25/52 [00:20<00:14,  1.90it/s]Capturing batches (bs=184 avail_mem=64.10 GB):  50%|     | 26/52 [00:20<00:13,  1.89it/s]Capturing batches (bs=176 avail_mem=64.08 GB):  50%|     | 26/52 [00:20<00:13,  1.89it/s]Capturing batches (bs=176 avail_mem=64.08 GB):  52%|    | 27/52 [00:21<00:16,  1.53it/s]Capturing batches (bs=168 avail_mem=64.07 GB):  52%|    | 27/52 [00:21<00:16,  1.53it/s]Capturing batches (bs=168 avail_mem=64.07 GB):  54%|    | 28/52 [00:22<00:16,  1.48it/s]Capturing batches (bs=160 avail_mem=64.05 GB):  54%|    | 28/52 [00:22<00:16,  1.48it/s]Capturing batches (bs=160 avail_mem=64.05 GB):  56%|    | 29/52 [00:22<00:15,  1.46it/s]Capturing batches (bs=152 avail_mem=64.04 GB):  56%|    | 29/52 [00:22<00:15,  1.46it/s]Capturing batches (bs=152 avail_mem=64.04 GB):  58%|    | 30/52 [00:23<00:13,  1.65it/s]Capturing batches (bs=144 avail_mem=64.03 GB):  58%|    | 30/52 [00:23<00:13,  1.65it/s]Capturing batches (bs=144 avail_mem=64.03 GB):  60%|    | 31/52 [00:23<00:12,  1.67it/s]Capturing batches (bs=136 avail_mem=64.01 GB):  60%|    | 31/52 [00:23<00:12,  1.67it/s]Capturing batches (bs=136 avail_mem=64.01 GB):  62%|   | 32/52 [00:24<00:11,  1.69it/s]Capturing batches (bs=128 avail_mem=64.00 GB):  62%|   | 32/52 [00:24<00:11,  1.69it/s][aiter] [fused_moe] using 2stage default for (256, 128, 7168, 256, 256, 8, 'ActivationType.Silu', 'torch.bfloat16', 'torch.float4_e2m1fn_x2', 'torch.float4_e2m1fn_x2', 'QuantType.per_1x32', True, False) 
[2025-11-06 11:01:54 TP0] [fused_moe] using 2stage default for (256, 128, 7168, 256, 256, 8, 'ActivationType.Silu', 'torch.bfloat16', 'torch.float4_e2m1fn_x2', 'torch.float4_e2m1fn_x2', 'QuantType.per_1x32', True, False) 
[aiter] [fused_moe] using 2stage default for (256, 128, 7168, 256, 256, 8, 'ActivationType.Silu', 'torch.bfloat16', 'torch.float4_e2m1fn_x2', 'torch.float4_e2m1fn_x2', 'QuantType.per_1x32', True, False) 
[2025-11-06 11:01:54 TP3] [fused_moe] using 2stage default for (256, 128, 7168, 256, 256, 8, 'ActivationType.Silu', 'torch.bfloat16', 'torch.float4_e2m1fn_x2', 'torch.float4_e2m1fn_x2', 'QuantType.per_1x32', True, False) 
[aiter] [fused_moe] using 2stage default for (256, 128, 7168, 256, 256, 8, 'ActivationType.Silu', 'torch.bfloat16', 'torch.float4_e2m1fn_x2', 'torch.float4_e2m1fn_x2', 'QuantType.per_1x32', True, False) 
[2025-11-06 11:01:54 TP4] [fused_moe] using 2stage default for (256, 128, 7168, 256, 256, 8, 'ActivationType.Silu', 'torch.bfloat16', 'torch.float4_e2m1fn_x2', 'torch.float4_e2m1fn_x2', 'QuantType.per_1x32', True, False) 
[aiter] [fused_moe] using 2stage default for (256, 128, 7168, 256, 256, 8, 'ActivationType.Silu', 'torch.bfloat16', 'torch.float4_e2m1fn_x2', 'torch.float4_e2m1fn_x2', 'QuantType.per_1x32', True, False) 
[aiter] [fused_moe] using 2stage default for (256, 128, 7168, 256, 256, 8, 'ActivationType.Silu', 'torch.bfloat16', 'torch.float4_e2m1fn_x2', 'torch.float4_e2m1fn_x2', 'QuantType.per_1x32', True, False) 
[2025-11-06 11:01:54 TP7] [fused_moe] using 2stage default for (256, 128, 7168, 256, 256, 8, 'ActivationType.Silu', 'torch.bfloat16', 'torch.float4_e2m1fn_x2', 'torch.float4_e2m1fn_x2', 'QuantType.per_1x32', True, False) 
[2025-11-06 11:01:54 TP5] [fused_moe] using 2stage default for (256, 128, 7168, 256, 256, 8, 'ActivationType.Silu', 'torch.bfloat16', 'torch.float4_e2m1fn_x2', 'torch.float4_e2m1fn_x2', 'QuantType.per_1x32', True, False) 
[aiter] [fused_moe] using 2stage default for (256, 128, 7168, 256, 256, 8, 'ActivationType.Silu', 'torch.bfloat16', 'torch.float4_e2m1fn_x2', 'torch.float4_e2m1fn_x2', 'QuantType.per_1x32', True, False) 
[2025-11-06 11:01:54 TP2] [fused_moe] using 2stage default for (256, 128, 7168, 256, 256, 8, 'ActivationType.Silu', 'torch.bfloat16', 'torch.float4_e2m1fn_x2', 'torch.float4_e2m1fn_x2', 'QuantType.per_1x32', True, False) 
[aiter] [fused_moe] using 2stage default for (256, 128, 7168, 256, 256, 8, 'ActivationType.Silu', 'torch.bfloat16', 'torch.float4_e2m1fn_x2', 'torch.float4_e2m1fn_x2', 'QuantType.per_1x32', True, False) 
[2025-11-06 11:01:54 TP1] [fused_moe] using 2stage default for (256, 128, 7168, 256, 256, 8, 'ActivationType.Silu', 'torch.bfloat16', 'torch.float4_e2m1fn_x2', 'torch.float4_e2m1fn_x2', 'QuantType.per_1x32', True, False) 
[aiter] [fused_moe] using 2stage default for (256, 128, 7168, 256, 256, 8, 'ActivationType.Silu', 'torch.bfloat16', 'torch.float4_e2m1fn_x2', 'torch.float4_e2m1fn_x2', 'QuantType.per_1x32', True, False) 
[2025-11-06 11:01:54 TP6] [fused_moe] using 2stage default for (256, 128, 7168, 256, 256, 8, 'ActivationType.Silu', 'torch.bfloat16', 'torch.float4_e2m1fn_x2', 'torch.float4_e2m1fn_x2', 'QuantType.per_1x32', True, False) 
Capturing batches (bs=128 avail_mem=64.00 GB):  63%|   | 33/52 [00:24<00:09,  1.91it/s]Capturing batches (bs=120 avail_mem=63.97 GB):  63%|   | 33/52 [00:24<00:09,  1.91it/s]Capturing batches (bs=120 avail_mem=63.97 GB):  65%|   | 34/52 [00:25<00:09,  1.82it/s]Capturing batches (bs=112 avail_mem=63.95 GB):  65%|   | 34/52 [00:25<00:09,  1.82it/s]Capturing batches (bs=112 avail_mem=63.95 GB):  67%|   | 35/52 [00:26<00:09,  1.82it/s]Capturing batches (bs=104 avail_mem=63.94 GB):  67%|   | 35/52 [00:26<00:09,  1.82it/s]Capturing batches (bs=104 avail_mem=63.94 GB):  69%|   | 36/52 [00:26<00:07,  2.14it/s]Capturing batches (bs=96 avail_mem=63.92 GB):  69%|   | 36/52 [00:26<00:07,  2.14it/s] Capturing batches (bs=96 avail_mem=63.92 GB):  71%|   | 37/52 [00:26<00:07,  1.94it/s]Capturing batches (bs=88 avail_mem=63.91 GB):  71%|   | 37/52 [00:26<00:07,  1.94it/s]Capturing batches (bs=88 avail_mem=63.91 GB):  73%|  | 38/52 [00:27<00:07,  1.77it/s]Capturing batches (bs=80 avail_mem=63.89 GB):  73%|  | 38/52 [00:27<00:07,  1.77it/s]Capturing batches (bs=80 avail_mem=63.89 GB):  75%|  | 39/52 [00:28<00:06,  1.95it/s]Capturing batches (bs=72 avail_mem=63.88 GB):  75%|  | 39/52 [00:28<00:06,  1.95it/s]Capturing batches (bs=72 avail_mem=63.88 GB):  77%|  | 40/52 [00:28<00:05,  2.26it/s]Capturing batches (bs=64 avail_mem=63.86 GB):  77%|  | 40/52 [00:28<00:05,  2.26it/s][aiter] [fused_moe] using 2stage default for (256, 64, 7168, 256, 256, 8, 'ActivationType.Silu', 'torch.bfloat16', 'torch.float4_e2m1fn_x2', 'torch.float4_e2m1fn_x2', 'QuantType.per_1x32', True, False) 
[2025-11-06 11:01:58 TP2] [fused_moe] using 2stage default for (256, 64, 7168, 256, 256, 8, 'ActivationType.Silu', 'torch.bfloat16', 'torch.float4_e2m1fn_x2', 'torch.float4_e2m1fn_x2', 'QuantType.per_1x32', True, False) 
[aiter] [fused_moe] using 2stage default for (256, 64, 7168, 256, 256, 8, 'ActivationType.Silu', 'torch.bfloat16', 'torch.float4_e2m1fn_x2', 'torch.float4_e2m1fn_x2', 'QuantType.per_1x32', True, False) 
[2025-11-06 11:01:58 TP1] [fused_moe] using 2stage default for (256, 64, 7168, 256, 256, 8, 'ActivationType.Silu', 'torch.bfloat16', 'torch.float4_e2m1fn_x2', 'torch.float4_e2m1fn_x2', 'QuantType.per_1x32', True, False) 
[aiter] [fused_moe] using 2stage default for (256, 64, 7168, 256, 256, 8, 'ActivationType.Silu', 'torch.bfloat16', 'torch.float4_e2m1fn_x2', 'torch.float4_e2m1fn_x2', 'QuantType.per_1x32', True, False) 
[2025-11-06 11:01:58 TP5] [fused_moe] using 2stage default for (256, 64, 7168, 256, 256, 8, 'ActivationType.Silu', 'torch.bfloat16', 'torch.float4_e2m1fn_x2', 'torch.float4_e2m1fn_x2', 'QuantType.per_1x32', True, False) 
[aiter] [fused_moe] using 2stage default for (256, 64, 7168, 256, 256, 8, 'ActivationType.Silu', 'torch.bfloat16', 'torch.float4_e2m1fn_x2', 'torch.float4_e2m1fn_x2', 'QuantType.per_1x32', True, False) 
[2025-11-06 11:01:58 TP4] [fused_moe] using 2stage default for (256, 64, 7168, 256, 256, 8, 'ActivationType.Silu', 'torch.bfloat16', 'torch.float4_e2m1fn_x2', 'torch.float4_e2m1fn_x2', 'QuantType.per_1x32', True, False) 
[aiter] [fused_moe] using 2stage default for (256, 64, 7168, 256, 256, 8, 'ActivationType.Silu', 'torch.bfloat16', 'torch.float4_e2m1fn_x2', 'torch.float4_e2m1fn_x2', 'QuantType.per_1x32', True, False) 
[2025-11-06 11:01:58 TP6] [fused_moe] using 2stage default for (256, 64, 7168, 256, 256, 8, 'ActivationType.Silu', 'torch.bfloat16', 'torch.float4_e2m1fn_x2', 'torch.float4_e2m1fn_x2', 'QuantType.per_1x32', True, False) 
[aiter] [fused_moe] using 2stage default for (256, 64, 7168, 256, 256, 8, 'ActivationType.Silu', 'torch.bfloat16', 'torch.float4_e2m1fn_x2', 'torch.float4_e2m1fn_x2', 'QuantType.per_1x32', True, False) 
[2025-11-06 11:01:58 TP7] [fused_moe] using 2stage default for (256, 64, 7168, 256, 256, 8, 'ActivationType.Silu', 'torch.bfloat16', 'torch.float4_e2m1fn_x2', 'torch.float4_e2m1fn_x2', 'QuantType.per_1x32', True, False) 
[aiter] [fused_moe] using 2stage default for (256, 64, 7168, 256, 256, 8, 'ActivationType.Silu', 'torch.bfloat16', 'torch.float4_e2m1fn_x2', 'torch.float4_e2m1fn_x2', 'QuantType.per_1x32', True, False) 
[2025-11-06 11:01:58 TP3] [fused_moe] using 2stage default for (256, 64, 7168, 256, 256, 8, 'ActivationType.Silu', 'torch.bfloat16', 'torch.float4_e2m1fn_x2', 'torch.float4_e2m1fn_x2', 'QuantType.per_1x32', True, False) 
[aiter] [fused_moe] using 2stage default for (256, 64, 7168, 256, 256, 8, 'ActivationType.Silu', 'torch.bfloat16', 'torch.float4_e2m1fn_x2', 'torch.float4_e2m1fn_x2', 'QuantType.per_1x32', True, False) 
[2025-11-06 11:01:58 TP0] [fused_moe] using 2stage default for (256, 64, 7168, 256, 256, 8, 'ActivationType.Silu', 'torch.bfloat16', 'torch.float4_e2m1fn_x2', 'torch.float4_e2m1fn_x2', 'QuantType.per_1x32', True, False) 
Capturing batches (bs=64 avail_mem=63.86 GB):  79%|  | 41/52 [00:28<00:05,  2.07it/s]Capturing batches (bs=56 avail_mem=63.83 GB):  79%|  | 41/52 [00:28<00:05,  2.07it/s]Capturing batches (bs=56 avail_mem=63.83 GB):  81%|  | 42/52 [00:29<00:05,  1.92it/s]Capturing batches (bs=48 avail_mem=63.81 GB):  81%|  | 42/52 [00:29<00:05,  1.92it/s]Capturing batches (bs=48 avail_mem=63.81 GB):  83%| | 43/52 [00:30<00:05,  1.64it/s]Capturing batches (bs=40 avail_mem=63.80 GB):  83%| | 43/52 [00:30<00:05,  1.64it/s]Capturing batches (bs=40 avail_mem=63.80 GB):  85%| | 44/52 [00:30<00:04,  1.75it/s]Capturing batches (bs=32 avail_mem=63.78 GB):  85%| | 44/52 [00:30<00:04,  1.75it/s]/opt/venv/lib/python3.10/site-packages/torch/_dynamo/variables/functions.py:1652: UserWarning: Dynamo detected a call to a `functools.lru_cache`-wrapped function. Dynamo ignores the cache wrapper and directly traces the wrapped function. Silent incorrectness is only a *potential* risk, not something we have observed. Enable TORCH_LOGS="+dynamo" for a DEBUG stack trace.
  torch._dynamo.utils.warn_once(msg)
/opt/venv/lib/python3.10/site-packages/torch/_dynamo/variables/functions.py:1652: UserWarning: Dynamo detected a call to a `functools.lru_cache`-wrapped function. Dynamo ignores the cache wrapper and directly traces the wrapped function. Silent incorrectness is only a *potential* risk, not something we have observed. Enable TORCH_LOGS="+dynamo" for a DEBUG stack trace.
  torch._dynamo.utils.warn_once(msg)
/opt/venv/lib/python3.10/site-packages/torch/_dynamo/variables/functions.py:1652: UserWarning: Dynamo detected a call to a `functools.lru_cache`-wrapped function. Dynamo ignores the cache wrapper and directly traces the wrapped function. Silent incorrectness is only a *potential* risk, not something we have observed. Enable TORCH_LOGS="+dynamo" for a DEBUG stack trace.
  torch._dynamo.utils.warn_once(msg)
/opt/venv/lib/python3.10/site-packages/torch/_dynamo/variables/functions.py:1652: UserWarning: Dynamo detected a call to a `functools.lru_cache`-wrapped function. Dynamo ignores the cache wrapper and directly traces the wrapped function. Silent incorrectness is only a *potential* risk, not something we have observed. Enable TORCH_LOGS="+dynamo" for a DEBUG stack trace.
  torch._dynamo.utils.warn_once(msg)
/opt/venv/lib/python3.10/site-packages/torch/_dynamo/variables/functions.py:1652: UserWarning: Dynamo detected a call to a `functools.lru_cache`-wrapped function. Dynamo ignores the cache wrapper and directly traces the wrapped function. Silent incorrectness is only a *potential* risk, not something we have observed. Enable TORCH_LOGS="+dynamo" for a DEBUG stack trace.
  torch._dynamo.utils.warn_once(msg)
/opt/venv/lib/python3.10/site-packages/torch/_dynamo/variables/functions.py:1652: UserWarning: Dynamo detected a call to a `functools.lru_cache`-wrapped function. Dynamo ignores the cache wrapper and directly traces the wrapped function. Silent incorrectness is only a *potential* risk, not something we have observed. Enable TORCH_LOGS="+dynamo" for a DEBUG stack trace.
  torch._dynamo.utils.warn_once(msg)
/opt/venv/lib/python3.10/site-packages/torch/_dynamo/variables/functions.py:1652: UserWarning: Dynamo detected a call to a `functools.lru_cache`-wrapped function. Dynamo ignores the cache wrapper and directly traces the wrapped function. Silent incorrectness is only a *potential* risk, not something we have observed. Enable TORCH_LOGS="+dynamo" for a DEBUG stack trace.
  torch._dynamo.utils.warn_once(msg)
/opt/venv/lib/python3.10/site-packages/torch/_dynamo/variables/functions.py:1652: UserWarning: Dynamo detected a call to a `functools.lru_cache`-wrapped function. Dynamo ignores the cache wrapper and directly traces the wrapped function. Silent incorrectness is only a *potential* risk, not something we have observed. Enable TORCH_LOGS="+dynamo" for a DEBUG stack trace.
  torch._dynamo.utils.warn_once(msg)
[aiter] [fused_moe] using 2stage default for (256, 32, 7168, 256, 256, 8, 'ActivationType.Silu', 'torch.bfloat16', 'torch.float4_e2m1fn_x2', 'torch.float4_e2m1fn_x2', 'QuantType.per_1x32', True, False) 
[2025-11-06 11:02:21 TP6] [fused_moe] using 2stage default for (256, 32, 7168, 256, 256, 8, 'ActivationType.Silu', 'torch.bfloat16', 'torch.float4_e2m1fn_x2', 'torch.float4_e2m1fn_x2', 'QuantType.per_1x32', True, False) 
[aiter] [fused_moe] using 2stage default for (256, 32, 7168, 256, 256, 8, 'ActivationType.Silu', 'torch.bfloat16', 'torch.float4_e2m1fn_x2', 'torch.float4_e2m1fn_x2', 'QuantType.per_1x32', True, False) 
[2025-11-06 11:02:23 TP4] [fused_moe] using 2stage default for (256, 32, 7168, 256, 256, 8, 'ActivationType.Silu', 'torch.bfloat16', 'torch.float4_e2m1fn_x2', 'torch.float4_e2m1fn_x2', 'QuantType.per_1x32', True, False) 
[aiter] [fused_moe] using 2stage default for (256, 32, 7168, 256, 256, 8, 'ActivationType.Silu', 'torch.bfloat16', 'torch.float4_e2m1fn_x2', 'torch.float4_e2m1fn_x2', 'QuantType.per_1x32', True, False) 
[2025-11-06 11:02:25 TP3] [fused_moe] using 2stage default for (256, 32, 7168, 256, 256, 8, 'ActivationType.Silu', 'torch.bfloat16', 'torch.float4_e2m1fn_x2', 'torch.float4_e2m1fn_x2', 'QuantType.per_1x32', True, False) 
[aiter] [fused_moe] using 2stage default for (256, 32, 7168, 256, 256, 8, 'ActivationType.Silu', 'torch.bfloat16', 'torch.float4_e2m1fn_x2', 'torch.float4_e2m1fn_x2', 'QuantType.per_1x32', True, False) 
[2025-11-06 11:02:25 TP2] [fused_moe] using 2stage default for (256, 32, 7168, 256, 256, 8, 'ActivationType.Silu', 'torch.bfloat16', 'torch.float4_e2m1fn_x2', 'torch.float4_e2m1fn_x2', 'QuantType.per_1x32', True, False) 
[aiter] [fused_moe] using 2stage default for (256, 32, 7168, 256, 256, 8, 'ActivationType.Silu', 'torch.bfloat16', 'torch.float4_e2m1fn_x2', 'torch.float4_e2m1fn_x2', 'QuantType.per_1x32', True, False) 
[2025-11-06 11:02:28 TP1] [fused_moe] using 2stage default for (256, 32, 7168, 256, 256, 8, 'ActivationType.Silu', 'torch.bfloat16', 'torch.float4_e2m1fn_x2', 'torch.float4_e2m1fn_x2', 'QuantType.per_1x32', True, False) 
[aiter] [fused_moe] using 2stage default for (256, 32, 7168, 256, 256, 8, 'ActivationType.Silu', 'torch.bfloat16', 'torch.float4_e2m1fn_x2', 'torch.float4_e2m1fn_x2', 'QuantType.per_1x32', True, False) 
[2025-11-06 11:02:28 TP7] [fused_moe] using 2stage default for (256, 32, 7168, 256, 256, 8, 'ActivationType.Silu', 'torch.bfloat16', 'torch.float4_e2m1fn_x2', 'torch.float4_e2m1fn_x2', 'QuantType.per_1x32', True, False) 
[aiter] [fused_moe] using 2stage default for (256, 32, 7168, 256, 256, 8, 'ActivationType.Silu', 'torch.bfloat16', 'torch.float4_e2m1fn_x2', 'torch.float4_e2m1fn_x2', 'QuantType.per_1x32', True, False) 
[2025-11-06 11:02:29 TP5] [fused_moe] using 2stage default for (256, 32, 7168, 256, 256, 8, 'ActivationType.Silu', 'torch.bfloat16', 'torch.float4_e2m1fn_x2', 'torch.float4_e2m1fn_x2', 'QuantType.per_1x32', True, False) 
[aiter] [fused_moe] using 2stage default for (256, 32, 7168, 256, 256, 8, 'ActivationType.Silu', 'torch.bfloat16', 'torch.float4_e2m1fn_x2', 'torch.float4_e2m1fn_x2', 'QuantType.per_1x32', True, False) 
[2025-11-06 11:02:30 TP0] [fused_moe] using 2stage default for (256, 32, 7168, 256, 256, 8, 'ActivationType.Silu', 'torch.bfloat16', 'torch.float4_e2m1fn_x2', 'torch.float4_e2m1fn_x2', 'QuantType.per_1x32', True, False) 
Capturing batches (bs=32 avail_mem=63.78 GB):  87%| | 45/52 [03:26<06:11, 53.14s/it]Capturing batches (bs=24 avail_mem=63.66 GB):  87%| | 45/52 [03:26<06:11, 53.14s/it]ler_TP4: /app/triton/third_party/amd/lib/TritonAMDGPUDialectToLLVM/ScaledUpcastToLLVM.cpp:73: virtual llvm::LogicalResult {anonymous}::ScaledUpcastFp4Pattern::matchAndRewrite(mlir::triton::amdgpu::ScaledUpcastFp4Op, mlir::ConvertOpToLLVMPattern<mlir::triton::amdgpu::ScaledUpcastFp4Op>::OpAdaptor, mlir::ConversionPatternRewriter&) const: Assertion `inputVals.size() % 4 == 0' failed.
#blocked = #ttg.blocked<{sizePerThread = [1, 1, 2], threadsPerWarp = [1, 4, 16], warpsPerCTA = [4, 1, 1], order = [2, 1, 0]}>
#blocked1 = #ttg.blocked<{sizePerThread = [1, 2], threadsPerWarp = [1, 64], warpsPerCTA = [4, 1], order = [1, 0]}>
#blocked2 = #ttg.blocked<{sizePerThread = [1, 1, 1], threadsPerWarp = [1, 4, 16], warpsPerCTA = [4, 1, 1], order = [2, 1, 0]}>
#blocked3 = #ttg.blocked<{sizePerThread = [1, 1], threadsPerWarp = [2, 32], warpsPerCTA = [4, 1], order = [1, 0]}>
#blocked4 = #ttg.blocked<{sizePerThread = [1, 1, 2], threadsPerWarp = [1, 32, 2], warpsPerCTA = [1, 1, 4], order = [1, 2, 0]}>
#blocked5 = #ttg.blocked<{sizePerThread = [2, 1], threadsPerWarp = [2, 32], warpsPerCTA = [4, 1], order = [1, 0]}>
#blocked6 = #ttg.blocked<{sizePerThread = [8, 1], threadsPerWarp = [8, 8], warpsPerCTA = [1, 4], order = [0, 1]}>
#blocked7 = #ttg.blocked<{sizePerThread = [1, 1, 1, 2], threadsPerWarp = [1, 4, 16, 1], warpsPerCTA = [4, 1, 1, 1], order = [3, 2, 1, 0]}>
#blocked8 = #ttg.blocked<{sizePerThread = [1, 1], threadsPerWarp = [1, 64], warpsPerCTA = [4, 1], order = [1, 0]}>
#blocked9 = #ttg.blocked<{sizePerThread = [1, 2, 1], threadsPerWarp = [1, 2, 32], warpsPerCTA = [1, 4, 1], order = [2, 1, 0]}>
#linear = #ttg.linear<{register = [], lane = [[0, 0, 0], [0, 0, 0], [0, 0, 0], [0, 0, 0], [0, 1, 0], [0, 2, 0]], warp = [[1, 0, 0], [2, 0, 0]], block = []}>
#linear1 = #ttg.linear<{register = [[0, 1], [0, 2]], lane = [[1, 0], [2, 0], [4, 0], [8, 0], [16, 0], [0, 0]], warp = [[0, 0], [0, 0]], block = []}>
#linear2 = #ttg.linear<{register = [[0, 0]], lane = [[0, 0], [0, 0], [0, 0], [0, 0], [0, 1], [0, 2]], warp = [[1, 0], [2, 0]], block = []}>
#shared = #ttg.swizzled_shared<{vec = 1, perPhase = 1, maxPhase = 1, order = [1, 0]}>
#smem = #ttg.shared_memory
module attributes {"ttg.num-ctas" = 1 : i32, "ttg.num-warps" = 4 : i32, ttg.target = "hip:gfx950", "ttg.threads-per-warp" = 64 : i32} {
  tt.func public @_batched_gemm_afp4_wfp4_pre_quant_kernel(%arg0: !tt.ptr<bf16> {tt.divisibility = 16 : i32}, %arg1: !tt.ptr<i8> {tt.divisibility = 16 : i32}, %arg2: !tt.ptr<bf16> {tt.divisibility = 16 : i32}, %arg3: !tt.ptr<i8> {tt.divisibility = 16 : i32}, %arg4: i32, %arg5: i32 {tt.divisibility = 16 : i32}, %arg6: i32 {tt.divisibility = 16 : i32}, %arg7: i32 {tt.divisibility = 16 : i32}, %arg8: i32 {tt.divisibility = 16 : i32}, %arg9: i32 {tt.divisibility = 16 : i32}, %arg10: i32 {tt.divisibility = 16 : i32}, %arg11: i32 {tt.divisibility = 16 : i32}, %arg12: i32 {tt.divisibility = 16 : i32}, %arg13: i32 {tt.divisibility = 16 : i32}, %arg14: i32 {tt.divisibility = 16 : i32}, %arg15: i32) attributes {noinline = false} {
    %cst = arith.constant dense<127> : tensor<4x4x1xi8, #blocked>
    %cst_0 = arith.constant dense<0x7FC0> : tensor<4x128xbf16, #blocked1>
    %cst_1 = arith.constant dense<2097152> : tensor<4x4x1xi32, #blocked>
    %cst_2 = arith.constant dense<4> : tensor<4x4x16xi8, #blocked2>
    %c31_i32 = arith.constant 31 : i32
    %cst_3 = arith.constant dense<0.000000e+00> : tensor<4x32xf32, #blocked3>
    %c32_i32 = arith.constant 32 : i32
    %c4_i32 = arith.constant 4 : i32
    %true = arith.constant true
    %c0_i32 = arith.constant 0 : i32
    %cst_4 = arith.constant dense<-8388608> : tensor<4x4x1xi32, #blocked>
    %cst_5 = arith.constant dense<2.000000e+00> : tensor<4x4x1xf32, #blocked>
    %cst_6 = arith.constant dense<0.000000e+00> : tensor<4x4x1xf32, #blocked>
    %cst_7 = arith.constant dense<-2147483648> : tensor<4x4x32xi32, #blocked>
    %cst_8 = arith.constant dense<23> : tensor<4x4x32xi32, #blocked>
    %cst_9 = arith.constant dense<255> : tensor<4x4x32xi32, #blocked>
    %cst_10 = arith.constant dense<8388607> : tensor<4x4x32xi32, #blocked>
    %cst_11 = arith.constant dense<1> : tensor<4x4x32xi32, #blocked>
    %cst_12 = arith.constant dense<127> : tensor<4x4x32xi32, #blocked>
    %cst_13 = arith.constant dense<4194304> : tensor<4x4x32xi32, #blocked>
    %cst_14 = arith.constant dense<126> : tensor<4x4x32xi32, #blocked>
    %cst_15 = arith.constant dense<2> : tensor<4x4x32xi32, #blocked>
    %cst_16 = arith.constant dense<21> : tensor<4x4x32xi32, #blocked>
    %cst_17 = arith.constant dense<28> : tensor<4x4x32xi32, #blocked>
    %cst_18 = arith.constant dense<-1.270000e+02> : tensor<4x4x1xf32, #blocked>
    %cst_19 = arith.constant dense<7> : tensor<4x32xi16, #ttg.slice<{dim = 2, parent = #blocked4}>>
    %cst_20 = arith.constant dense<-1> : tensor<4x32xi8, #ttg.slice<{dim = 2, parent = #blocked4}>>
    %cst_21 = arith.constant dense<0x7FC0> : tensor<128x32xbf16, #blocked5>
    %cst_22 = arith.constant dense<7> : tensor<4x4x32xi32, #blocked>
    %cst_23 = arith.constant dense<1.270000e+02> : tensor<4x4x1xf32, #blocked>
    %cst_24 = arith.constant dense<1.270000e+02> : tensor<4x4x1xf32, #linear>
    %cst_25 = arith.constant dense<-1.270000e+02> : tensor<4x4x1xf32, #linear>
    %cst_26 = arith.constant dense<2.000000e+00> : tensor<4x4x1xf32, #linear>
    %cst_27 = arith.constant dense<-8388608> : tensor<4x4x1xi32, #linear>
    %cst_28 = arith.constant dense<2097152> : tensor<4x4x1xi32, #linear>
    %cst_29 = arith.constant dense<127> : tensor<4x4x1xi8, #linear>
    %cst_30 = arith.constant dense<7> : tensor<4x4xi16, #ttg.slice<{dim = 2, parent = #blocked}>>
    %cst_31 = arith.constant dense<-1> : tensor<4x4xi8, #ttg.slice<{dim = 2, parent = #blocked}>>
    llvm.intr.assume %true : i1
    llvm.intr.assume %true : i1
    llvm.intr.assume %true : i1
    llvm.intr.assume %true : i1
    llvm.intr.assume %true : i1
    llvm.intr.assume %true : i1
    llvm.intr.assume %true : i1
    llvm.intr.assume %true : i1
    llvm.intr.assume %true : i1
    llvm.intr.assume %true : i1
    llvm.intr.assume %true : i1
    llvm.intr.assume %true : i1
    %0 = tt.get_program_id x : i32
    %1 = tt.get_program_id y : i32
    %2 = arith.addi %arg5, %c31_i32 : i32
    %3 = arith.divsi %2, %c32_i32 : i32
    %4 = arith.extsi %arg7 : i32 to i64
    %5 = arith.extsi %arg9 : i32 to i64
    %6 = arith.extsi %arg11 : i32 to i64
    %7 = arith.extsi %0 : i32 to i64
    %8 = arith.divsi %1, %3 : i32
    %9 = arith.remsi %1, %3 : i32
    llvm.intr.assume %true : i1
    llvm.intr.assume %true : i1
    llvm.intr.assume %true : i1
    %10 = arith.cmpi sgt, %arg6, %c0_i32 : i32
    scf.if %10 {
      %11 = arith.muli %8, %c4_i32 : i32
      %12 = tt.make_range {end = 4 : i32, start = 0 : i32} : tensor<4xi32, #ttg.slice<{dim = 1, parent = #blocked1}>>
      %13 = tt.make_range {end = 4 : i32, start = 0 : i32} : tensor<4xi32, #ttg.slice<{dim = 1, parent = #blocked3}>>
      %14 = tt.splat %11 : i32 -> tensor<4xi32, #ttg.slice<{dim = 1, parent = #blocked1}>>
      %15 = arith.addi %14, %12 : tensor<4xi32, #ttg.slice<{dim = 1, parent = #blocked1}>>
      %16 = tt.splat %arg4 : i32 -> tensor<4xi32, #ttg.slice<{dim = 1, parent = #blocked1}>>
      %17 = arith.remsi %15, %16 : tensor<4xi32, #ttg.slice<{dim = 1, parent = #blocked1}>>
      %18 = arith.muli %7, %4 : i64
      %19 = tt.expand_dims %17 {axis = 1 : i32} : tensor<4xi32, #ttg.slice<{dim = 1, parent = #blocked1}>> -> tensor<4x1xi32, #blocked1>
      %20 = tt.splat %arg8 : i32 -> tensor<4x1xi32, #blocked1>
      %21 = arith.muli %19, %20 : tensor<4x1xi32, #blocked1>
      %22 = arith.extsi %21 : tensor<4x1xi32, #blocked1> to tensor<4x1xi64, #blocked1>
      %23 = tt.make_range {end = 128 : i32, startler_TP6: /app/triton/third_party/amd/lib/TritonAMDGPUDialectToLLVM/ScaledUpcastToLLVM.cpp:73: virtual llvm::LogicalResult {anonymous}::ScaledUpcastFp4Pattern::matchAndRewrite(mlir::triton::amdgpu::ScaledUpcastFp4Op, mlir::ConvertOpToLLVMPattern<mlir::triton::amdgpu::ScaledUpcastFp4Op>::OpAdaptor, mlir::ConversionPatternRewriter&) const: Assertion `inputVals.size() % 4 == 0' failed.
 = 0 : i32} : tensor<128xi32, #ttg.slice<{dim = 0, parent = #blocked1}>>
      %24 = tt.expand_dims %23 {axis = 0 : i32} : tensor<128xi32, #ttg.slice<{dim = 0, parent = #blocked1}>> -> tensor<1x128xi32, #blocked1>
      %25 = arith.extsi %24 : tensor<1x128xi32, #blocked1> to tensor<1x128xi64, #blocked1>
      %26 = tt.broadcast %22 : tensor<4x1xi64, #blocked1> -> tensor<4x128xi64, #blocked1>
      %27 = tt.broadcast %25 : tensor<1x128xi64, #blocked1> -> tensor<4x128xi64, #blocked1>
      %28 = arith.addi %26, %27 : tensor<4x128xi64, #blocked1>
      %29 = tt.addptr %arg0, %18 : !tt.ptr<bf16>, i64
      %30 = arith.muli %9, %c32_i32 : i32
      %31 = tt.make_range {end = 32 : i32, start = 0 : i32} : tensor<32xi32, #ttg.slice<{dim = 0, parent = #blocked6}>>
      %32 = tt.make_range {end = 32 : i32, start = 0 : i32} : tensor<32xi32, #ttg.slice<{dim = 0, parent = #blocked3}>>
      %33 = tt.make_range {end = 32 : i32, start = 0 : i32} : tensor<32xi32, #ttg.slice<{dim = 1, parent = #linear1}>>
      %34 = tt.splat %30 : i32 -> tensor<32xi32, #ttg.slice<{dim = 0, parent = #blocked6}>>
      %35 = tt.splat %30 : i32 -> tensor<32xi32, #ttg.slice<{dim = 1, parent = #linear1}>>
      %36 = arith.addi %34, %31 : tensor<32xi32, #ttg.slice<{dim = 0, parent = #blocked6}>>
      %37 = arith.addi %35, %33 : tensor<32xi32, #ttg.slice<{dim = 1, parent = #linear1}>>
      %38 = tt.splat %arg5 : i32 -> tensor<32xi32, #ttg.slice<{dim = 0, parent = #blocked6}>>
      %39 = tt.splat %arg5 : i32 -> tensor<32xi32, #ttg.slice<{dim = 1, parent = #linear1}>>
      %40 = arith.remsi %36, %38 : tensor<32xi32, #ttg.slice<{dim = 0, parent = #blocked6}>>
      %41 = arith.remsi %37, %39 : tensor<32xi32, #ttg.slice<{dim = 1, parent = #linear1}>>
      %42 = arith.muli %7, %5 : i64
      %43 = tt.make_range {end = 64 : i32, start = 0 : i32} : tensor<64xi32, #ttg.slice<{dim = 1, parent = #blocked6}>>
      %44 = tt.expand_dims %43 {axis = 1 : i32} : tensor<64xi32, #ttg.slice<{dim = 1, parent = #blocked6}>> -> tensor<64x1xi32, #blocked6>
      %45 = arith.extsi %44 : tensor<64x1xi32, #blocked6> to tensor<64x1xi64, #blocked6>
      %46 = tt.expand_dims %40 {axis = 0 : i32} : tensor<32xi32, #ttg.slice<{dim = 0, parent = #blocked6}>> -> tensor<1x32xi32, #blocked6>
      %47 = tt.splat %arg10 : i32 -> tensor<1x32xi32, #blocked6>
      %48 = arith.muli %46, %47 : tensor<1x32xi32, #blocked6>
      %49 = arith.extsi %48 : tensor<1x32xi32, #blocked6> to tensor<1x32xi64, #blocked6>
      %50 = tt.broadcast %45 : tensor<64x1xi64, #blocked6> -> tensor<64x32xi64, #blocked6>
      %51 = tt.broadcast %49 : tensor<1x32xi64, #blocked6> -> tensor<64x32xi64, #blocked6>
      %52 = arith.addi %50, %51 : tensor<64x32xi64, #blocked6>
      %53 = tt.addptr %arg1, %42 : !tt.ptr<i8>, i64
      %54 = arith.extsi %arg14 : i32 to i64
      %55 = arith.muli %7, %54 : i64
      %56 = tt.addptr %arg3, %55 : !tt.ptr<i8>, i64
      %57 = tt.expand_dims %41 {axis = 1 : i32} : tensor<32xi32, #ttg.slice<{dim = 1, parent = #linear1}>> -> tensor<32x1xi32, #linear1>
      %58 = tt.splat %arg15 : i32 -> tensor<32x1xi32, #linear1>
      %59 = arith.muli %57, %58 : tensor<32x1xi32, #linear1>
      %60 = arith.extsi %59 : tensor<32x1xi32, #linear1> to tensor<32x1xi64, #linear1>
      %61 = tt.make_range {end = 4 : i32, start = 0 : i32} : tensor<4xi32, #ttg.slice<{dim = 0, parent = #linear1}>>
      %62 = tt.broadcast %60 : tensor<32x1xi64, #linear1> -> tensor<32x4xi64, #linear1>
      %63 = tt.expand_dims %61 {axis = 0 : i32} : tensor<4xi32, #ttg.slice<{dim = 0, parent = #linear1}>> -> tensor<1x4xi32, #linear1>
      %64 = tt.broadcast %63 : tensor<1x4xi32, #linear1> -> tensor<32x4xi32, #linear1>
      %65 = arith.extsi %64 : tensor<32x4xi32, #linear1> to tensor<32x4xi64, #linear1>
      %66 = arith.addi %65, %62 : tensor<32x4xi64, #linear1>
      %67 = tt.splat %56 : !tt.ptr<i8> -> tensor<32x4x!tt.ptr<i8>#, blocked#linear = 1#>ttg
      %68 = .tt.addptrblocked<{sizePerThread = [1, 1, 2], threadsPerWarp = [1, 4, 16], warpsPerCTA = [4, 1, 1], order = [2, 1, 0]}> 
%#67, blocked%661 :  = tensor<32x4x#!tt.ptr<i8>ttg, #linear1.blocked<{sizePerThread = [1, 2], threadsPerWarp = [1, 64], warpsPerCTA = [4, 1], order = [1, 0]}>>, 
tensor<32#x4blockedx2i = 64#, #ttglinear1.blocked<{sizePerThread = [1, 1, 1], threadsPerWarp = [1, 4, 16], warpsPerCTA = [4, 1, 1], order = [2, 1, 0]}>>

      %69 = #blockedtt.load3 =  #%68ttg .blocked<{sizePerThread = [1, 1], threadsPerWarp = [2, 32], warpsPerCTA = [4, 1], order = [1, 0]}>:
 #blocked4 = tensor<32#ttg.blocked<{sizePerThread = [1, 1, 2], threadsPerWarp = [1, 32, 2], warpsPerCTA = [1, 1, 4], order = [1, 2, 0]}>x
#blocked5 = 4x#!ttttg.ptr<i8>, #.blocked<{sizePerThread = [2, 1], threadsPerWarp = [2, 32], warpsPerCTA = [4, 1], order = [1, 0]}>linear1>

      #blocked6 = %70#ttg.blocked<{sizePerThread = [8, 1], threadsPerWarp = [8, 8], warpsPerCTA = [1, 4], order = [0, 1]}> = 
#blockedtt.trans7 =  %69# {ttgorder = .blocked<{sizePerThread = [1, 1, 1, 2], threadsPerWarp = [1, 4, 16, 1], warpsPerCTA = [4, 1, 1, 1], order = [3, 2, 1, 0]}>array<
#blocked8 = i#32ttg: .blocked<{sizePerThread = [1, 1], threadsPerWarp = [1, 64], warpsPerCTA = [4, 1], order = [1, 0]}>1
#blocked, 9 = 0#>ttg} : .blocked<{sizePerThread = [1, 2, 1], threadsPerWarp = [1, 2, 32], warpsPerCTA = [1, 4, 1], order = [2, 1, 0]}>tensor<
#32linearx4 = x#i8, #linear1> ttg-> tensor<4x32x.linear<{register = [], lane = [[0, 0, 0], [0, 0, 0], [0, 0, 0], [0, 0, 0], [0, 1, 0], [0, 2, 0]], warp = [[1, 0, 0], [2, 0, 0]], block = []}>i
#8, linear#ttg.slice<{dim = 2, parent = #blocked4}>1 = >
      #ttg%.linear<{register = [[0, 1], [0, 2]], lane = [[1, 0], [2, 0], [4, 0], [8, 0], [16, 0], [0, 0]], warp = [[0, 0], [0, 0]], block = []}>71 = 
tt.splat#linear2 =  #ttg%29 : .linear<{register = [[0, 0]], lane = [[0, 0], [0, 0], [0, 0], [0, 0], [0, 1], [0, 2]], warp = [[1, 0], [2, 0]], block = []}>!tt
.ptr<bf16> -> #sharedtensor< = 4x#ttg128x.swizzled_shared<{vec = 1, perPhase = 1, maxPhase = 1, order = [1, 0]}>!
#smemtt = .#ttgptr<bf16>, .shared_memory#blocked
1>module
      %72 =  attributestt.addptr  {%"71, %28t t: g.tensor<4xnu128mx-ctas!tt.ptr<bf16>, "#blocked = 1>1,  : tensor<i4x32128x, i64, #"ttg.blocked1>
      %73 = nutt.load m-war%ps72" :  = tensor<44x : 128xi!tt32.ptr<bf16>, , ttg.target#blocked1> = 
      "%74 = htt.splat ip%:gfx9553 : 0!tt.ptr<i8> "-> , tensor<64"ttg.threads-per-warpx" = 3264x : !tt.ptr<i8>, i32#blocked6>}
      %75 =  tt.addptr {%
74,   %tt.func52  public:  tensor<@64_batched_gemm_afp4_wfp4_pre_quant_kernelx32x(!tt.ptr<i8>, #blocked6>, %tensor<arg064x32x: i64, #blocked6>
      !tt%76 = .ptr<bf16>tt.load %75 { tt.divisibility = cacheModifier16  : = icg32 : }tensor<, 64%arg1: x32x!tt!tt.ptr<i8>.ptr<i8>, #blocked6> {
      tt.divisibility = %77 = 16ttg.convert_layout :  i%7632 }:,  %tensor<64x32xarg2i: 8, #blocked!tt.ptr<bf16> {6> tt.divisibility = ->16  : tensor<64ix32x32i}8, , #blocked3>%arg3: 
      %78 = !tttt.reshape.ptr<i8>  {%73tt.divisibility  = :16  : tensor<i432}, x%128xarg4: bf16, i32#blocked1> , ->%arg5:  itensor<324 {xtt.divisibility4 = x3216x : ibf16, #blocked32}, >%arg6: 
      %79i = 32math.absf { tt.divisibility = %7816  : :i 32}, %tensor<arg7: 4i32 {xtt.divisibility = 4x32x16bf16 : , #blockedi32>
      %80 = }, %arg8: arith.extfi 32%79 { tt.divisibility = :16  : tensor<i4x4x32x32bf16, #blocked}>,  %toarg9 : tensor<4i32x4x32 {xtt.divisibility = f3216,  : i32}, #blocked%>
      arg10%81 = : "i32 {ttt.divisibility = t.re16duce : i"32}, (%%80arg11: )i32 < {{tt.divisibility = axis = 162 :  : ii3232}}, > (%{
arg12: i32       {^bb0tt.divisibility( = %arg16: 16f32 : i32}, , %%arg13: arg17: f32i)32: {
tt.divisibility         = %16209 =  : arith.maxnumfi 32}, %%arg14: arg16i,32  {%tt.divisibility = arg1716  : :i 32}, %f32
        arg15: tt.reduce.returni32 )% attributes209 { noinline = :false }f32 
{
          }%)cst :  = (arith.constanttensor<4x 4x32dense<x127f32, #blocked>> : ) -> tensor<tensor<44xx44xxf32, 1#ttgx.slice<{dim = 2, parent = #blocked}>i>8
,       #blocked%82 = >ttg.convert_layout %81 : 
tensor<4x4    x%cst_0 = f32, arith.constant#ttg.slice<{dim = 2, parent = #blocked}> >dense< -> 0x7FC0tensor<4x>4 : xf32, tensor<#ttg4.slice<{dim = 2, parent = #linear}>x>128
x      bf16, %83 = #blockedtt.expand_dims1> 
%82     {%axiscst_1 =  = 2arith.constant :  idense<322097152} : >tensor<4 : tensor<x44xf32, x#ttg.slice<{dim = 2, parent = #linear}>4> -> x1tensor<4x4x1xxf32, i32, #linear>#blocked
      %>84 = 
tt.expand_dims     %81% {cst_2 = axis = arith.constant2  : dense<i4>32 : } : tensor<tensor<4x44xxf32, 4x#ttg.slice<{dim = 2, parent = #blocked}>16>x -> tensor<4x4ix1x8f32, , #blocked>
      %85 = #blockedtt.bitcast2> 
    %%c31_i32 = 83arith.constant  : 31tensor<4x4x1 : xif3232, 
#linear>     ->% cst_3 = tensor<4x4x1arith.constantx idense<32, 0.000000e+00#linear>>
      % : 86 = tensor<tt.bitcast %84 : 4tensor<4x4x1xxf32, #blocked>32 x->f32 , #blockedtensor<43>x
4x1    x%c32_i32i = 32, #blocked>arith.constant
      % 87 = 32arith.addi %85, % : cst_28i : 32
tensor<4x4x1x    i32, #linear>%c4_i32 = 
      arith.constant% 88 = 4arith.addi %86,  : %icst_132
     : %true = tensor<4x4x1arith.constantx i32, true
    %c0_i32#blocked = >
      %89 = arith.constanttt.bitcast %87 :  tensor<4x40x1x : i32, #linear> -> tensor<4x4xi132x
    %cst_4 = iarith.constant32,  #dense<linear-8388608>>
       : %90 = tensor<tt.bitcast %88 : 4xtensor<4x4x14x1xix32i, 32#blocked> -> , #blocked>tensor<4x4x1
    xi32%cst_5, #blocked>
       = %91 = arith.constantarith.andi  dense<%892.000000e+00>, :  tensor<%4cst_27x 4:x 1tensor<4x4x1xxi32f32, #linear>, 
      #blocked%>
    %cst_6 = 92 = arith.constantarith.andi  dense<%90, %0.000000e+00>cst_4 :  : tensor<4x4tensor<x1xi324, #blocked>
x      4%93 = x1tt.bitcast %91 : xtensor<4x4x1f32, xi32, ##blocked>linear> -> tensor<4
    x4%xcst_71 = xarith.constantf32 , #dense<linear-2147483648>> : 
tensor<      4x%94 = 4tt.bitcast x%92 : 32tensor<4xx4xi132, xi32, #blocked>#blocked>
 ->     tensor<4x%4cst_8x = 1arith.constantx f32, #blocked>dense<
      %95 = 23math.log2>  : %93tensor< 4x:4x 32tensor<4x4xx1ix32, f32, ##blocked>linear>
      %96 = 
math.log2     %cst_9%94 =  arith.constant:  dense<tensor<4x4x1x255>f32, # : blockedtensor<>4x4x
32      %97 = xmath.floori 32, #blocked>%95
     %cst_10: =  arith.constanttensor<4x 4dense<x83886071>x : f32, #linear>tensor<
      %98 = 4xmath.floor4 %96x : 32tensor<4x4x1xxif32, #blocked>
      %9932, #blocked> = 
    arith.subf% cst_11 = %97arith.constant,  dense<%1cst_26>  : :tensor< 4x4tensor<4x4x1xx32f32, x#ilinear>32, #
blocked>      %100 = 
arith.subf %98, %    cst_5% : cst_12tensor<4x4x1xf32, #blocked> = 
      arith.constant% 101 = dense<tt.clampf127>  : %99tensor<,4x4 x%32cst_25x,i 32, #blocked>%
    cst_24, %propagateNancst_13  = = arith.constantnone  : dense<tensor<4x4x1x4194304f32, #linear>>
      % : 102 = tensor<tt.clampf %100, %4xcst_18, 4x%32cst_23, propagateNan = xnonei 32: , #blocked>tensor<4
    %xcst_144 = x1xarith.constantf32 , #blocked>
      %dense<103 = 126>arith.fptoui :  tensor<%1014x 4:x 32tensor<4xx4x1ix32, f32, #linear>#blocked>
     %tocst_15 =  arith.constanttensor< 4dense<x2>4x1 : xtensor<i8, #linear>4x
      %104 = 4xarith.fptoui %102 :32 xtensor<4x4x1ixf32, #blocked32>,  #blocked>to 
tensor<4x4x1    x%i8, #blocked>
      %105 = cst_16arith.addi %103,  = %arith.constantcst_29  : dense<tensor<21>4x : 4x1tensor<x4ix84, #linear>
x      %32106 = xarith.addi %104, i32, %#blockedcst> :
    %cst_17 =  arith.constanttensor<4x4x1 xdense<i8, #blocked>
28>      % : 107 = tensor<arith.subf %4x4x32cst_6, x%102i : 32, #blocked>tensor<4x4x1
    xf32, #blocked>
      %%108 = cst_18math.exp2 =  arith.constant% 107dense< -1.270000e+02:>  : tensor<4x4x1tensor<x4f32, #blocked>x
4      %109 = xarith.extf %781 : xtensor<f324, x4x32#blockedx>
    bf16, #blocked>% tocst_19 =  arith.constanttensor<4x4x 32dense<xf32, #blocked7>>
      %110 =  : tt.broadcasttensor< 4%108x : 32tensor<4x4x1xxf32, #blocked> -> itensor<4x4x32xf32, #blocked>16
      %, 111#ttg = .slice<{dim = 2, parent = #blocked4}>arith.mulf> 
    %109%,cst_20 =  arith.constant% 110dense< -1>: :  tensor<tensor<4x44x32xxf32, #blocked>32
      %112 = xtt.bitcast i%1118 : , tensor<4x4x32x#ttgf32, #blocked> ->.slice<{dim = 2, parent = #blocked4}> tensor<4x4x32>x
i32, #blocked>    
%      cst_21 = %113 = arith.constantarith.andi  dense<%112,0x7FC0> % : cst_7 : tensor<tensor<4x4128xx3232xxi32, #blocked>bf16
,       %114 = #arith.shruiblocked 5%112>,
     %cst_22 = %arith.constantcst_8  dense<:7>  : tensor<4x4x32tensor<x4i32, #blocked>x4x
      %115 = 32arith.andi %114, %xcst_9 : itensor<4x432, x32#blocked>x
i32    , #blocked>
      %116 = %arith.andi %112, %cst_23 = cst_10 : tensor<4x4x32xi32, #arith.constantblocked> 
dense<      1.270000e+02>%117 =  : arith.addi tensor<4x%115,4 %xcst_111 : tensor<4x4x32xxf32i, 32, #blocked>
#blocked      %118 = >arith.subi
    % cst_24 = %arith.constantcst_12 ,dense< %1.270000e+02117>  : :tensor< 4xtensor<4x44x32xx1i32, x#f32blocked, >#linear>
    
      %%119 = cst_25arith.cmpi  = ultarith.constant,  dense<%-1.270000e+02>115 : ,tensor< %4x4cst_12x : 1tensor<4x4x32xxf32i32, #, blocked>#
      linear%120 = >arith.shrui %116, %cst_11 : 
    tensor<4x4x32x%i32, #blocked>
      cst_26 = %121 = arith.constantarith.ori  dense<%1202.000000e+00>, :  tensor<%cst_134x 4x:1 xtensor<4x4x32xi32, #blocked>
      %122 = f32arith.shrui , %121, %118 :# tensor<4x4xlinear>32
    xi32, #blocked>
%      cst_27% = 123arith.constant =  arith.selectdense< -8388608>% : 119tensor<, 4x4%122x, 1%116x : itensor<4x4x3232x, i1, #blocked>#, lineartensor<4x4x32>xi32, #blocked>
    
      %%124 = cst_28 = arith.maxuiarith.constant  %115dense<,2097152 >% : cst_14tensor< 4:x 4tensor<4xx14x32xxii32, 32, #blocked>#linear>
      
%125 =     arith.subi %%124cst_29 = , %cst_14arith.constant  :dense< tensor<4127x4x32x>i32, #blocked> : 
      tensor<%126 = 4xarith.shli4x 1%125x, %icst_158, #linear> 
:    % cst_30 = tensor<4xarith.constant4x32 xdense<i7>32, # : blocked>
      tensor<%4x127 = 4arith.shrui x%123, %icst_16 : tensor<4x4x3216, x#i32, #blocked>
      %128ttg = .slice<{dim = 2, parent = #blocked}>arith.ori >
    %126,%cst_31 =  %127 : arith.constanttensor< 4x4x32dense<xi32, #blocked>-1>
      %129 =  : arith.addi %tensor<1284, %cst_11x4 : xtensor<i4x48, x#ttg32.slice<{dim = 2, parent = #blocked}>xi32, #blocked>
      %130 = >arith.shrui 
%129, %    cst_11 : llvm.intr.assumetensor<4x4x32 xi32, #blocked>%true
       %:131  = iarith.minui1 
%130    ,llvm.intr.assume  %%cst_22true  ::  tensor<4iler_TP5: /app/triton/third_party/amd/lib/TritonAMDGPUDialectToLLVM/ScaledUpcastToLLVM.cpp:73: virtual llvm::LogicalResult {anonymous}::ScaledUpcastFp4Pattern::matchAndRewrite(mlir::triton::amdgpu::ScaledUpcastFp4Op, mlir::ConvertOpToLLVMPattern<mlir::triton::amdgpu::ScaledUpcastFp4Op>::OpAdaptor, mlir::ConversionPatternRewriter&) const: Assertion `inputVals.size() % 4 == 0' failed.
x4x321xi32, #blocked>

      %132 =     arith.shruillvm.intr.assume  %113, %%truecst_17  : : itensor<4x41x32
    xllvm.intr.assume i32, #%blocked>true
      %133 =  : arith.ori i%132, 1%131 : 
    tensor<4x4xllvm.intr.assume 32%truexi32, #blocked>
      %134 =  arith.trunci:  %133i 1:
     tensor<4x4x32llvm.intr.assume x%i32, #blocked>true  : toi 1tensor<
    4x4xllvm.intr.assume32 xi8, #blocked%>true
       : %135i = 1tt.reshape
     %134llvm.intr.assume  : %truetensor<4x :4x32 xi8, #iblocked1>
     -> llvm.intr.assumetensor<4x4x16 x%true2 :xi8, #blocked 7i>1

          %outLHSllvm.intr.assume , %true% outRHS: =  tt.spliti 1%135
     :llvm.intr.assume  tensor<%true4 :x4x16x 2ixi8, #blocked17
    > -> llvm.intr.assume tensor<4x4x%true16 : xi8, #blockedi2>1

          %136 = %arith.shli 0% = outRHStt.get_program_id,  %cst_2x :  :tensor<4x4x16 #xiblockedi8, #blocked32 = 2
#>
          ttg%%.137 = 1blocked<{sizePerThread = [1, 1, 2], threadsPerWarp = [1, 4, 16], warpsPerCTA = [4, 1, 1], order = [2, 1, 0]}>arith.ori  = 
%outLHS, tt.get_program_id #blocked%136y1   = : : #tensor<4x4x16ittgxi32.8
blocked<{sizePerThread = [1, 2], threadsPerWarp = [1, 64], warpsPerCTA = [4, 1], order = [1, 0]}>,     
#blocked2>
      %138 = %#blockedtt.reshape %13722 =  :  = #tensor<4x4xarith.addittg16 .blocked<{sizePerThread = [1, 1, 1], threadsPerWarp = [1, 4, 16], warpsPerCTA = [4, 1, 1], order = [2, 1, 0]}>x%
i8arg5#blocked, #blocked2> ->,3   = tensor<4x%#64c31_i32ttgxi8, # .blocked<{sizePerThread = [1, 1], threadsPerWarp = [2, 32], warpsPerCTA = [4, 1], order = [1, 0]}>blocked8>:
#blocked
 4 =       i#%139 = 32ttgtt.reshape 
.blocked<{sizePerThread = [1, 1, 2], threadsPerWarp = [1, 32, 2], warpsPerCTA = [1, 1, 4], order = [1, 2, 0]}>%    
#blocked105%35 =   = #ttg.blocked<{sizePerThread = [2, 1], threadsPerWarp = [2, 32], warpsPerCTA = [4, 1], order = [1, 0]}>: arith.divsi
#blocked6 = tensor< #4%2ttgx4x1,.blocked<{sizePerThread = [8, 1], threadsPerWarp = [8, 8], warpsPerCTA = [1, 4], order = [0, 1]}>xi8, #linear 
#blocked7 = >%#ttg.blocked<{sizePerThread = [1, 1, 1, 2], threadsPerWarp = [1, 4, 16, 1], warpsPerCTA = [4, 1, 1, 1], order = [3, 2, 1, 0]}> -> c32_i32
tensor< #4:blockedx 8 = 4i#x32ttg.blocked<{sizePerThread = [1, 1], threadsPerWarp = [1, 64], warpsPerCTA = [4, 1], order = [1, 0]}>i

8    #blocked9, %4 = # = #ttg.blocked<{sizePerThread = [1, 2, 1], threadsPerWarp = [1, 2, 32], warpsPerCTA = [1, 4, 1], order = [2, 1, 0]}>ttgarith.extsi
. #linearslice<{dim = 2, parent = #blocked}>% = >arg7#
 ttg      :.linear<{register = [], lane = [[0, 0, 0], [0, 0, 0], [0, 0, 0], [0, 0, 0], [0, 1, 0], [0, 2, 0]], warp = [[1, 0, 0], [2, 0, 0]], block = []}>%140 =  
tt.reshapei# %10632linear1 =   #:tottg  .linear<{register = [[0, 1], [0, 2]], lane = [[1, 0], [2, 0], [4, 0], [8, 0], [16, 0], [0, 0]], warp = [[0, 0], [0, 0]], block = []}>tensor<4x4x1xi
i8, #blocked> -> tensor<4x64#linear4
2x     = i%#8, #linear2>5ttg.linear<{register = [[0, 0]], lane = [[0, 0], [0, 0], [0, 0], [0, 0], [0, 1], [0, 2]], warp = [[1, 0], [2, 0]], block = []}>
 = 
      arith.extsi#%141 =  sharedttg.convert_layout % = %arg9#ttg140 .swizzled_shared<{vec = 1, perPhase = 1, maxPhase = 1, order = [1, 0]}> :
#smem:  =  i32#ttgtensor<4x4 to .xi8, #lineari64shared_memory2>

 ->     moduletensor<% attributes4x46 =  {xarith.extsi"i8,  t#%tg.nttgarg11um-ct. asslice<{dim = 2, parent = #blocked}>:">  = 
i1      32 : %142 =  toiarith.extui 32 i, %64"141
t     tg.:%num-war 7 = pstensor<4x4arith.extsi" = x 4i% : 8, 0i#ttg.slice<{dim = 2, parent = #blocked}> : 32>i,  32ttg.targetto to =   "tensor<4x4xihi64i16, 
p#    :ttg.slice<{dim = 2, parent = #blocked}>%gfx950>8"
      % = , 143 = arith.divsi"arith.shli t %t%1g142,., t %h%3rcst_30 ea :d: s-per-warp i32
    "tensor<4x4%9 =  = xarith.remsi64i16,   : #ttg.slice<{dim = 2, parent = #blocked}>>
      %i%132144 = ,}tt.bitcast   %3{% 
143:   :  tt.functensor<4i x432publicxi16, 
 #    @ttgllvm.intr.assume_batched_gemm_afp4_wfp4_pre_quant_kernel. (slice<{dim = 2, parent = #blocked}>%%> ->truearg0  : tensor<:!4 ttxi.41ptr<bf16>x
 {bf16,     tt.divisibility = #ttg.slice<{dim = 2, parent = #blocked}>llvm.intr.assume16>  : 
%i      true32%145 =  :}tt.expand_dims  , %i%1441arg1 {
: axis    ! = llvm.intr.assumett.ptr<i8>2  { : %tt.divisibility = itrue1632  : }:i32 :  }tensor<i, %4x4x1arg2: bf16, 
    !tt.ptr<bf16> {#%tt.divisibilityttg.slice<{dim = 2, parent = #blocked}>> -> 10 = tensor< = 164x4x1arith.cmpi : ixbf16,  32#sgt}blocked,, > %
%arg3      arg6: %146 = ,!tt.tt.broadcast ptr<i8> % {%145c0_i32tt.divisibility :   = tensor<4x4x1:16x  : bf16, ii32}#blocked32
, > ->     %tensor<4x4x32scf.ifarg4: xbf16,  i32#blocked%, >
      %147 = 10%tt.reshape % arg5146{
:  :       i32tensor<4x4x32% {x11 = tt.divisibility = bf16arith.muli16,   : i#blocked%32}, >8% ,arg6-> :  %i32tensor<4xc4_i32 {128 tt.divisibilityxbf16, #blocked: = 1 16>i : 
      %148 = 32
iamdgpu.scaled_upcast_fp4      32 %12 = }, %arg7: %138tt.make_rangei  {32 {scaleend = tt.divisibility =  416%147 :  : i {i32axis = 32}1, , % : startarg8: i = i32} 032: :  { i32tt.divisibility = tensor<4x64}16x  : i32}i8, #blocked8>:, %arg9: , i tensor<32tensor<4 {4xxtt.divisibility = 128i16x32 : bf16, i, #32}#ttg, blocked.slice<{dim = 1, parent = #blocked1}>%1>arg10>
: i32 {       tt.divisibility = ->%16 13 =  : tensor<4x128tt.make_rangeix {32}, bf16, #blocked1>end = %
      %4arg11149 =  : : arith.cmpiii 3232eq,  {,starttt.divisibility  =  = %016139 :  : ,ii 3232%}}cst_31 ,  :%:  arg12tensor<tensor<: 44i32 {x4xtt.divisibilityxi = i32168,  : , #i#ttg32ttg.slice<{dim = 1, parent = #blocked3}>}, .slice<{dim = 2, parent = #blocked}>>%arg13: >
      
i32 {%150 =       tt.divisibility = tt.expand_dims %16%14 : i149 = 32}, %arg14: i32 { {tt.splattt.divisibilityaxis  =  = %16211 :  :  ii:3232 }}i,  32%: arg15: i32 ->)tensor<  attributes4x4xtensor< {i1, 4noinline#x = ttg.slice<{dim = 2, parent = #blocked}>ifalse>32} ->,   #{tensor<4x4x1ttg
x.    islice<{dim = 1, parent = #blocked1}>%cst1, #blocked> = >
arith.constant
             %dense<%15127151 =  = >tt.broadcastarith.addi  :  %tensor<%15014,4  x: tensor<4x4x1%124x x1i1, #blocked:x> -> tensor< i4x4xtensor<8324xi32, , xi1, #blocked>
      %152 = ##blockedtt.reshape ttg>%.
151slice<{dim = 1, parent = #blocked1}>     : >%cst_0 = tensor<4x4x32
arith.constantx       i1, #blocked%dense<>16 = 0x7FC0 -> tt.splat>tensor<  : 4x%tensor<128arg44x :xi 1281ix, #blocked32 bf16, 1>
      -> #%tensor<blocked15341> = x
arith.selecti     32, %%152#cst_1, ttg = %.arith.constantcst_0slice<{dim = 1, parent = #blocked1}> , %148 : >dense<tensor<
2097152>4       : x%17tensor<128 = 4xarith.remsixi 4x1%15,1, #blocked1 x>%i, 1632tensor<4x128 , x:#bf16 blocked, tensor<>#4
blockedx    1i%cst_2>
      32,  = %154 = #arith.constantttg.local_allocttg  .dense<%153slice<{dim = 1, parent = #blocked1}>4> > : tensor<4x4:
x       16(%xtensor<4x12818 = i8, #xarith.muliblockedbf16, #blocked1> 2>)%
     -> 7%!,c31_i32 = ttg arith.constant.% memdesc<4x128xbf16, #shared, #smem>431
      %  : 155 = :i32
ttg.local_load      i64%%154
cst_3 =        arith.constant:%  19dense<! = 0.000000e+00ttgtt.expand_dims>.  : memdesc<4x128xbf16, #shared, #smem>%tensor< 174x-> {32 axisxtensor<4x128 = f32x1, #blocked3>
    %c32_i32 = bf16 : arith.constant, i #ttg3232.} : dot_op<{opIdx = 0, parent = #blocked3}> i32
    >:%
      %156 =  c4_i32 = arith.extui tensor<arith.constant%70 :4x  i32, 4tensor<# : 4x32ttg.ixslice<{dim = 1, parent = #blocked1}>32i>
    %8 true = , ->arith.constant#ttg  .tensor<trueslice<{dim = 2, parent = #blocked4}>4
    > x%to1c0_i32 =  xarith.constanttensor<i 4x32, 032#blocked : x1i32
i16, >    #
%ttg      cst_4.%20 =  = slice<{dim = 2, parent = #blocked4}>tt.splatarith.constant>  
      %157 = %dense<arith.shliarg8-8388608 %156, % >cst_19: :  : tensor<4x32 tensor<4x4x1xixi16, 32i# 32ttg->, . #slice<{dim = 2, parent = #blocked4}>tensor<blocked>
      4>%158 = x
    tt.bitcast %157 : 1%tensor<xcst_54xi = 3232arith.constantx,  i16, #dense<#2.000000e+00blockedttg.slice<{dim = 2, parent = #blocked4}>>1>> ->  : 
tensor<4x32xtensor<4x4x      bf161%21, x = #f32arith.mulittg.slice<{dim = 2, parent = #blocked4}>, #blocked >>%
      %159 = 
    19, tt.expand_dims %cst_6 = %20%arith.constant 158 : {dense< axis = 0.000000e+00>tensor<42 : x : i32} : tensor<1tensor<4x324xxxibf16, 4x132#ttg.slice<{dim = 2, parent = #blocked4}>x, > -> f32, ##tensor<4x32x1blockedblockedx>1bf16, 
    %cst_7 = >#arith.constant
blocked4>       
      dense<%22 = %160 = -2147483648>arith.extsitt.broadcast :   tensor<%%421159x  4:: x tensor<4x32x132tensor<xx4bf16, ix#321xblocked4, #blocked>i32, > 
#->    blocked1> %cst_8 =  to tensor<4x32x32arith.constanttensor<xbf16,  4#dense<xblocked4>231x
      %161 = >itt.trans : 64 tensor<, %1604x4x# {32blockedorder = x1>array<i32, #blocked>
i
      32:     %0, %232cst_9 =  = , arith.constanttt.make_range1  {>} : dense<endtensor<255 = 4x32x>12832 :  : xbf16, #blocked4>tensor<i -> 432tensor<4x32x32x, x4start = bf16x0, #blocked32 : 9xi>
i32, 32      #blocked>}%
 : 162 =     %cst_10 = tensor<tt.reshape arith.constant128%161 x : dense<itensor<8388607324x32>,  : #xtensor<ttg324.xxslice<{dim = 0, parent = #blocked1}>bf164>, x
#blocked9>32       x%->i24 32 = tensor<, tt.expand_dims128# x32xbf16blocked%, >23#
 {blocked5>    axis
% =       cst_110% =  : 163 = arith.constantiamdgpu.scaled_upcast_fp4 32 dense<} : %1tensor<77 >128scale : tensor<x %1624i {x4x32axis32,  = x#0 : i32ttgi, .32#slice<{dim = 0, parent = #blocked1}>}blocked> : > tensor<
->64x32     x%tensor<icst_1218, #blocked3>,  = xtensor<arith.constant128128 xxdense<i32, 32127>#x : tensor<blockedbf1641, #blocked5> -> x>tensor<4
128x      x32xbf16, #blocked5>
      %164 = 32%arith.cmpix25 i = eq32arith.extsi, ,  %70#%24 : ,blockedtensor<1 >x%
    128cst_20%x : cst_13 = itensor<arith.constant32, 4x32 #blockedxdense<1> to i8, 4194304>tensor<# : 1ttg.slice<{dim = 2, parent = #blocked4}>tensor<x>4128
xx      4i%165 = x64, #blockedtt.expand_dims 321>
%164x       {axis = i32, #blocked>%2
26 =  : i    tt.broadcast32% } : cst_14 = %tensor<arith.constant224x32  xdense<: i1126>tensor<,  : tensor<4x4x4#ttg.slice<{dim = 2, parent = #blocked4}>> -> 32xtensor<4x32xx11ixx32ii, 64, 1, #blocked4>#blocked>#
      %166 = 
    blockedtt.broadcast%1 cst_15>% =  165arith.constant->   : dense<tensor<4tensor<4x2>x32x1x : 128i1, #blockedtensor<x44i>x64 4, #blocked-> x1tensor<4x32x32x32>ix
1, #blocked4>i      
32%27      ,  = %#tt.broadcast167 = blocked tt.trans>% 
    %cst_16 = 25%166arith.constant :  { tensor<orderdense<1 = 21>xarray< : tensor<4x4128ixx32: 32i0x64, #blocked, i32, #blocked>12
>,      1%cst_17 = ->>arith.constant } tensor< : dense<4tensor<28>x4x32x : 12832tensor<xx4x4ii1, #blockedx64432, > -> x#tensor<iblocked4x32x3232, 1x#>
i1, #blocked      blocked9>
      >%%
28168 =      = tt.reshape%arith.addi cst_18 =  %arith.constant%167 26, dense< :-1.270000e+02% >27tensor< :  4x32x32tensor<:x4 ixtensor<1, #blocked9> -> tensor<44128xxx321128xxi1, #blocked5>
xi64      f32, %, #blocked>#blocked1>
169
           = %%arith.selectcst_1929  =  = %168, %arith.constanttt.addptrcst_21  , %163 : dense<%tensor<7arg0128x>,32 :  xi1, #blocked5>, tensor<128x32xtensor<%bf16, #418blockedx 5>
32:      x %i!17016tt = , .ttg.local_alloc#ptr<bf16> ttg,%. 169slice<{dim = 2, parent = #blocked4}>i64 >
:
           %%30(cst_20 =  = tensor<arith.constantarith.muli 128x32 %xdense<9bf16, -1>,# :  blockedtensor<%5>)4c32_i32 -> x !ttg.memdesc<128x32xbf16, #shared, #smem>32: 
      %171 = xittg.local_load i32%8
170,        :#% ttg31!.slice<{dim = 2, parent = #blocked4}> = ttg>tt.make_range.memdesc<128x32xbf16, #shared, #smem>
     { %cst_21end->  =  = tensor<arith.constant32128x  : 32dense<ix0x7FC0>32bf16,  : , #ttgtensor<start.128 = dot_op<{opIdx = 1, parent = #blocked3}>x0>
      32 : %172 = xitt.dotbf16, 32}  #:%155blocked ,5tensor< >32%171,
    x %i%cst_22 = 32cst_3arith.constant,  : # dense<ttgtensor<4x1287>.x : tensor<slice<{dim = 0, parent = #blocked6}>bf16, 4>#ttgx4
.x      dot_op<{opIdx = 0, parent = #blocked3}>32%> x32* i = tensor<32tt.make_range128,  {x32#endxblocked = bf16>32, 
     : #ttg%i.dot_op<{opIdx = 1, parent = #blocked3}>cst_23 = 32, >arith.constantstart   = ->dense<0 1.270000e+02 : tensor<>i4x32x : 32f32tensor<}, 4 :#blocked3>x 
      %173 = 4tensor<arith.addfx32 1x%172xi32, ,f32# , ttg%#.slice<{dim = 0, parent = #blocked3}>cst_3blocked> >
:
           %tensor<%334cst_24 = x32x = tt.make_rangef32arith.constant {,  end#dense< = blocked3>1.270000e+02>32
 :  :       tensor<i%432174 = x4x, arith.truncf1start =  x0%173f32, #linear> :  
i:    32 %} tensor<4x32cst_25:x =  f32, arith.constanttensor<#blocked3> 32x dense<ito-1.270000e+0232,  >#tensor<4x32x : ttgbf16, #blocked3tensor<.>4x4x1slice<{dim = 1, parent = #linear1}>
      %175 = x>arith.extsif32, 
 #      %13linear% >34:
 =      tt.splat tensor<4x%cst_26%i = 30 32arith.constant:,   #ttg.slice<{dim = 1, parent = #blocked3}>dense<i> to2.000000e+00>32  :  tensor<tensor<-> 44xtensor<x4x32i64, 1x#ttg.slice<{dim = 1, parent = #blocked3}>xf32, #linear>
i>    32
%,       cst_27#% = ttg176arith.constant. =  slice<{dim = 0, parent = #blocked6}>arith.extsidense<> -8388608>
%11 :        : tensor<%i4x4x13532 to x = i64itt.splat
      %17732  = , #linear>%tt.splat
30      :%176 : % i64 -> cst_28 = itensor<4xarith.constant32i64,   ->#ttg.slice<{dim = 1, parent = #blocked3}>dense< >
      %178 = 2097152tensor<arith.addi>32  : x%177, tensor<i%175432 : x4, tensor<4xx#i1ttg64, x.slice<{dim = 1, parent = #linear1}>>#ttg.slice<{dim = 1, parent = #blocked3}>i
>32      
      , %%179 = #36arith.extsilinear =  >arith.addi%
 32 : tensor<    %32x%cst_29 = 34, i32, arith.constant%# 31ttgdense< : .slice<{dim = 0, parent = #blocked3}>127>tensor<> : 32x to tensor<itensor<43232x, x4x1#i64, xttg#i.ttg8slice<{dim = 0, parent = #blocked6}>.slice<{dim = 0, parent = #blocked3}>>, >
      %180 = #linear>
arith.extsi 
          %30 :%% cst_30 = 37i32 to arith.constant = i64 arith.addi 
      dense<%%181 = 7>35tt.splat %180 :  : ,i64 ->tensor<  4x4%tensor<x3332i x16:i,  64, #ttgtensor<#.32xttg.slice<{dim = 0, parent = #blocked3}>slice<{dim = 2, parent = #blocked}>i>>32, 

#ttg.slice<{dim = 1, parent = #linear1}>          >%182 = %
arith.addi cst_31 =       %181, arith.constant%%179 38 =  : dense<tt.splat tensor<-1%32x>arg5i64,  :  #ttg.slice<{dim = 0, parent = #blocked3}>>
      %183 = tensor<:arith.muli4  x4i%7, xi32%68  , ->: #ttg i.tensor<64slice<{dim = 2, parent = #blocked}>32
      >x%
    i184llvm.intr.assume32,  =  #ttgtt.addptr%.slice<{dim = 0, parent = #blocked6}> true>% 
arg2:      , % i39%1 = 183
tt.splat      :llvm.intr.assume % %truearg5!tt  .ptr<bf16>: :,i  1i32i64
      
 %185 =     ->tt.expand_dims %178llvm.intr.assume   {%true : tensor<axisi32 = 1x1
i :     32illvm.intr.assume, 32} :  #ttgtensor<4xi64, #ttg..slice<{dim = 1, parent = #blocked3}>slice<{dim = 1, parent = #linear1}>>>% 
true->        tensor<%:440 x = i1arith.remsi1x 
    i%36,llvm.intr.assume 64,  %#%trueblocked3>38 
      % :186:  =  i1arith.extsi tensor<
    %32llvm.intr.assume arg13x% : itruei32 to i64
      32,  %187#: = ttg i1tt.expand_dims.
     slice<{dim = 0, parent = #blocked6}>llvm.intr.assume %175>% {
trueaxis       :  = %i1411 :  = 
    i32} : arith.remsi llvm.intr.assume tensor<4x%%truei6437 , , : i#ttg.slice<{dim = 1, parent = #blocked3}>%1>39
      llvm.intr.assume ->:%true   : tensor<4x1xi64, tensor<i#321blockedx
3>i    
32llvm.intr.assume      %188 = ,  %truearith.muli %186, %176#  ttg::.  slice<{dim = 1, parent = #linear1}>ii64
      %189 = >
1tt.splat %186 :       
    i%llvm.intr.assume6442 %true ->  =  : tensor<arith.mulii4 1x%
17    x,llvm.intr.assumei64,   #blocked3>%%true : 
5i1      %190 =  :
    arith.muli %189,  %%187i0 64 = :
tt.get_program_id        tensor<4x1%xx43 i64,  = :#tt.make_range blocked {i3>
      %191 = end32tt.addptr  = 
%184, %188 64    : : % i1 = !tt.32tt.get_program_idptr<bf16>,  , start = yi0 64 : :
i       %192 = 32i32tt.expand_dims}
  :     %182tensor<%2 =  {64xarith.addiaxisi  = 32%0, arg5 : #ttg,i. 32} : slice<{dim = 1, parent = #blocked6}>%tensor<>c31_i3232
 x      :i% 64, 44i# = 32ttg.slice<{dim = 0, parent = #blocked3}>> -> tt.expand_dims
    tensor< %1%3x43 = 32xi64,  {arith.divsi#blocked3>
      axis %193 =  = %2tt.broadcast %1,190 :   : i32%tensor<4x1x}c32_i32i64,   #blocked3> -> : :tensor<tensor< 464ixx3232i
x32    i64, #blocked3>, %4
# =       ttgarith.extsi%194 = .slice<{dim = 1, parent = #blocked6}> tt.expand_dims > %%179-> arg7 {tensor< axis = 64:0x  : 1i32i32} : x tensor<32xi64, ito#32 ttg, i.#64
    %5 = slice<{dim = 0, parent = #blocked3}>blocked6>arith.extsi> -> 
 tensor<1      %x32x%45 = arg9 iarith.extsi:64  , %i32 to#44 blocked3> : i
      tensor<64%64
    %6195x =  = 1xarith.extsi tt.broadcasti% 32, arg11 :%194#blocked  6i32 to :>i  64tensor<to
1     x32xtensor<%i64647, x = #1xarith.extsiblockedi 3> -> 64, %0 : tensor<#i4blocked32x6 32>to xi64, #blocked3>
      
i64
%196 =           tt.addptr %%8 = %191, %180 : 46 = arith.divsi !tt.expand_dims%tt 1.%,ptr<bf16>40 ,  {%iaxis364 =  :
0        : i%i32197 = 32
arith.addi }    % %9 = 195, %193:arith.remsi :   tensor<4tensor<%1x32xi64, #blocked3>
32,      %198 = x arith.extsi i%3%32,  arg4#: ttg : .slice<{dim = 0, parent = #blocked6}>i32i>
32      ->llvm.intr.assumeto   itensor<%641true
x       32x: %199 = iitt.splat321 , 
    %198 :#blockedllvm.intr.assume % i64 -> 6truetensor<> 4
:x       1x%i1i64, #blocked3>
      %200 = 47
arith.cmpi =      tt.splatllvm.intr.assumeslt, %185, %199  % %true:arg10 :   : itensor<4i1x1xi64, #blocked3>
      32 -> 
    %201 = tensor<%arith.extsi 110 = %xarith.cmpiarg5 :32xi  32, sgti32 to i#,64blocked 
      %202 = 6>%tt.splat 
arg6%      ,201%  : 48%i = c0_i3264arith.muli  ->  %46, %:tensor<1x32xi64, #blocked3>
      47 %203 : i32 = tensor<
    arith.cmpi 1scf.ifslt, x %192, 32%10%202x  i{
:32       , %tensor<#111x32xi64, #blocked3>
      blocked = %6arith.muli204 = >
 tt.broadcast      % %8%20049 = , arith.extsi :  %tensor<4%c4_i32x48 1 :x: i i32
      %12 = 1, #blocked3> -> tensor<tt.make_rangetensor<1 {4xend = x32x32x4ii : 1, #blocked3>
      %20532i32 = , , tt.broadcast #start%blocked = 2036> 0 : to  : tensor<1xtensor<1i3232x}x32x ii:164 , , tensor<##4blocked3> -> blockedxtensor<46i32, x>#32x
      ttg.slice<{dim = 1, parent = #blocked1}>i%>150
      , #blocked3>
       = %13%206 = tt.broadcast  = arith.andi%tt.make_range 45 {%204, %205 :  : endtensor<4tensor< = x64432xix : 1, #blocked3>1i32, 
xstart      i = %640207 = ,  : tt.splat #blockedi32} : %6tensor<196>4  x: ->i32, !tt #ttg.slice<{dim = 1, parent = #blocked3}>.ptr<bf16>tensor<> -> 64
tensor<x      432%14 = x32xxtt.splat!tt.ptr<bf16>i , 64%#, 11blocked# 3blocked:>6 
      %208 = >i32tt.addptr 
 %      ->207% , %197 : 51tensor<tensor<4x32x = 4!tttt.broadcastxi32. , ptr<bf16>, #blocked3>, %49#ttgtensor<4 .slice<{dim = 1, parent = #blocked1}>x32:>x 
itensor<      64, #blocked3>1%
x15      32x = tt.storeiarith.addi  64, #%14%blocked, 2086%, > ->12%  174tensor<:, 64 %206xtensor<4x 32i:x32,  i#tensor<4x32x64, ttg!#.tt.ptr<bf16>, #blockedblocked6slice<{dim = 1, parent = #blocked1}>3>>>
      %16 = 

tt.splat           }%%
    52arg4 : tt.return = i32 ->
arith.addi    tensor<}%4
50x},i32, 
 #
%ttg.slice<{dim = 1, parent = #blocked1}>{-#51>
 
      %17 =   :arith.remsi %15, %16 external :_resources: {tensor< 
64tensor<    x4xi32, mlir_reproducer32xi#ttg.slice<{dim = 1, parent = #blocked1}>: {64>
, 
      #blocked6      %18 = pipeline>arith.muli: 
 "      %7,b% u53%i = 4ltt.addptr : ti i64n%
.marg1,      %od 19ul% = e(optim42 : tt.expand_dimsi! ze-amd-lds-usage{lds-litt%17m. {iptr<i8>axist=0 target-arch=, = gfx950}, trit 1oi : n-scf-to-cf, con64iv
32e      }r% t54:-index-t =  o-llvarith.extsi tensor<4m{index-b%xitwarg14ii 32, d: #ttg.tislice<{dim = 1, parent = #blocked1}>h=0},32>   allocate-amdgpu-shto->ared  -memory, itensor<convert-644t
xri      1xton-amdgpu-t%io-llvm{a5532r = , carith.muli#h=gfx blocked9%157>0 ftz=true}, canoni, 
      c%%ali5420 = ze{  max- : tt.splatii ter64%ations=10 
arg8 max-      :n% um-re56i32 -> writes=-1 region-simplif = tensor<4x1xi32ytt.addptr, = #n%blockedoarg31r,>m 
      %21 = a%arith.muli l55%19, % te 20s: t :-converge!tt nce=false top-down.ptr<i8>,tensor<4= xtrue}, cse, i1convert-cf-to-llvm64x{
i32, ind      #e%blockedx571>-bi = 
twidth=0},tt.expand_dims       con %vert-arith-to-ll%22vm41 = { {arith.extsiindex-axis =  b1%i : 21 :twidth=0}, i tensor<4c32xa} :1n xotensor<i32, n32#ixblockedcalize{ i1 max32>-,  i#to terationsttgtensor<=10 max-num-r.slice<{dim = 1, parent = #linear1}>4ew>xrites= 1-1->x  i64, #blocked1>
      %23 = rtensor<tt.make_rangeegion-simplify=32 {normaxend = l test-co1x128nvergence=fai : l32i32se , , t#startolinear = p1>0-down
 : i32}=       t%:r58 u = tensor<e},tt.splat128 cse, symbol- xd%icarg1532e , ,:# enable-l ttgii.slice<{dim = 0, parent = #blocked1}>ne-inf32>o 
, conve->      r %ttensor<24-32 = bxtt.expand_dims u1%ix23li32, #linear {t1axisi> = n
0-       : i32func-to-llv%} : m59tensor<{ = 128xfarith.muliit 32, z%#ttg.slice<{dim = 0, parent = #blocked1}>=true})57> ",-> , tensor<
%1      58xdisable_threading 128xi: :32, false #,tensor<blocked1>
32
      %25 =       xarith.extsiverify_each1 : truex%24 : tensor<1x
    }i32, 128x
  }#i
linear32#-}1>, #blocked1> to 

tensor<      1%60 = xarith.extsi 128x%i64, #blocked59/tmp/torchinductor_root/ms/cms52sse2shmzp2fqvzvsd5vrrsdaqqga5xo6xhkisdsdkrc5lnn.py:18:01> : : 
      tensor<error: %32Failures have been detected while processing an MLIR pass pipeline26x
 = 1/tmp/torchinductor_root/ms/cms52sse2shmzp2fqvzvsd5vrrsdaqqga5xo6xhkisdsdkrc5lnn.py:18:0tt.broadcastx:  inote: %2232Pipeline failed while executing [`ConvertTritonAMDGPUToLLVM` on 'builtin.module' operation]: reproducer generated at `std::errs, please share the reproducer above with Triton project.`
 :, #linear1 >tensor<4 tox1x i64, #blocked1>tensor< -> 32tensor<4x1xxi64, 128x#linear1>i
      64, #blocked1>%
      61% = 27 = tt.make_rangett.broadcast  {%end = 25 : 4tensor<1 : ix128xi64, #32, blocked1> -> start = tensor<04 : xi128x32} : itensor<64, 4#xblocked1>i
      32%28 = , arith.addi #ttg.slice<{dim = 0, parent = #linear1}>%26, %>27
 :       tensor<%462x = 128xtt.broadcasti 64, #blocked1>%
      60% : 29tensor<32 = xtt.addptr1x i64%, arg0#linear1> -> ,tensor< 32%18x 4x:i 64, !tt.ptr<bf16>,#linear1>
       i64%63 = 
      tt.expand_dims%30  = %61arith.muli { axis = %09 : , i32%} c32_i32:  tensor<:4 xi32i
32,       %31 = #ttgtt.make_range.slice<{dim = 0, parent = #linear1}> {> -> end = tensor<321 : x4xii32, #linear132, >start = 
0       : %i3264}  = : tt.broadcasttensor< 32x%i3263,  #ttg:.slice<{dim = 0, parent = #blocked6}> >tensor<
      1%x32 = 4xtt.make_rangei32,  {#linearend = 1> ->32  : i32tensor<, 32start = x04x : ii32, 32} : #lineartensor<1>32x
i      [rank4]:E1106 11:04:58.374000 212 torch/_inductor/runtime/triton_heuristics.py:750] [22/4] Triton compilation failed: _batched_gemm_afp4_wfp4_pre_quant_kernel_0
[rank4]:E1106 11:04:58.374000 212 torch/_inductor/runtime/triton_heuristics.py:750] [22/4] def _batched_gemm_afp4_wfp4_pre_quant_kernel(
[rank4]:E1106 11:04:58.374000 212 torch/_inductor/runtime/triton_heuristics.py:750] [22/4]     a_ptr,
[rank4]:E1106 11:04:58.374000 212 torch/_inductor/runtime/triton_heuristics.py:750] [22/4]     b_ptr,
[rank4]:E1106 11:04:58.374000 212 torch/_inductor/runtime/triton_heuristics.py:750] [22/4]     c_ptr,
[rank4]:E1106 11:04:58.374000 212 torch/_inductor/runtime/triton_heuristics.py:750] [22/4]     b_scales_ptr,
[rank4]:E1106 11:04:58.374000 212 torch/_inductor/runtime/triton_heuristics.py:750] [22/4]     M,
[rank4]:E1106 11:04:58.374000 212 torch/_inductor/runtime/triton_heuristics.py:750] [22/4]     N,
[rank4]:E1106 11:04:58.374000 212 torch/_inductor/runtime/triton_heuristics.py:750] [22/4]     K,
[rank4]:E1106 11:04:58.374000 212 torch/_inductor/runtime/triton_heuristics.py:750] [22/4]     stride_ab,
[rank4]:E1106 11:04:58.374000 212 torch/_inductor/runtime/triton_heuristics.py:750] [22/4]     stride_am,
[rank4]:E1106 11:04:58.374000 212 torch/_inductor/runtime/triton_heuristics.py:750] [22/4]     stride_ak,
[rank4]:E1106 11:04:58.374000 212 torch/_inductor/runtime/triton_heuristics.py:750] [22/4]     stride_bb,
[rank4]:E1106 11:04:58.374000 212 torch/_inductor/runtime/triton_heuristics.py:750] [22/4]     stride_bk,
[rank4]:E1106 11:04:58.374000 212 torch/_inductor/runtime/triton_heuristics.py:750] [22/4]     stride_bn,
[rank4]:E1106 11:04:58.374000 212 torch/_inductor/runtime/triton_heuristics.py:750] [22/4]     stride_cb,
[rank4]:E1106 11:04:58.374000 212 torch/_inductor/runtime/triton_heuristics.py:750] [22/4]     stride_ck,
[rank4]:E1106 11:04:58.374000 212 torch/_inductor/runtime/triton_heuristics.py:750] [22/4]     stride_cm,
[rank4]:E1106 11:04:58.374000 212 torch/_inductor/runtime/triton_heuristics.py:750] [22/4]     stride_cn,
[rank4]:E1106 11:04:58.374000 212 torch/_inductor/runtime/triton_heuristics.py:750] [22/4]     stride_bsb,
[rank4]:E1106 11:04:58.374000 212 torch/_inductor/runtime/triton_heuristics.py:750] [22/4]     stride_bsn,
[rank4]:E1106 11:04:58.374000 212 torch/_inductor/runtime/triton_heuristics.py:750] [22/4]     stride_bsk,
[rank4]:E1106 11:04:58.374000 212 torch/_inductor/runtime/triton_heuristics.py:750] [22/4]     # Meta-parameters
[rank4]:E1106 11:04:58.374000 212 torch/_inductor/runtime/triton_heuristics.py:750] [22/4]     BLOCK_SIZE_M: tl.constexpr,
[rank4]:E1106 11:04:58.374000 212 torch/_inductor/runtime/triton_heuristics.py:750] [22/4]     BLOCK_SIZE_N: tl.constexpr,
[rank4]:E1106 11:04:58.374000 212 torch/_inductor/runtime/triton_heuristics.py:750] [22/4]     BLOCK_SIZE_K: tl.constexpr,
[rank4]:E1106 11:04:58.374000 212 torch/_inductor/runtime/triton_heuristics.py:750] [22/4]     GROUP_SIZE_M: tl.constexpr,
[rank4]:E1106 11:04:58.374000 212 torch/_inductor/runtime/triton_heuristics.py:750] [22/4]     NUM_KSPLIT: tl.constexpr,
[rank4]:E1106 11:04:58.374000 212 torch/_inductor/runtime/triton_heuristics.py:750] [22/4]     SPLITK_BLOCK_SIZE: tl.constexpr,
[rank4]:E1106 11:04:58.374000 212 torch/_inductor/runtime/triton_heuristics.py:750] [22/4]     EVEN_K: tl.constexpr,
[rank4]:E1106 11:04:58.374000 212 torch/_inductor/runtime/triton_heuristics.py:750] [22/4]     GRID_MN: tl.constexpr,
[rank4]:E1106 11:04:58.374000 212 torch/_inductor/runtime/triton_heuristics.py:750] [22/4]     cache_modifier: tl.constexpr,
[rank4]:E1106 11:04:58.374000 212 torch/_inductor/runtime/triton_heuristics.py:750] [22/4] ):
[rank4]:E1106 11:04:58.374000 212 torch/_inductor/runtime/triton_heuristics.py:750] [22/4]     """Kernel for computing the matmul C = A x B.
[rank4]:E1106 11:04:58.374000 212 torch/_inductor/runtime/triton_heuristics.py:750] [22/4]     A and B inputs are in the microscale fp4 (mxfp4) format.
[rank4]:E1106 11:04:58.374000 212 torch/_inductor/runtime/triton_heuristics.py:750] [22/4]     A_scales and B_scales are in e8m0 format.
[rank4]:E1106 11:04:58.374000 212 torch/_inductor/runtime/triton_heuristics.py:750] [22/4]     A has shape (M, K), B has shape (K, N) and C has shape (M, N)
[rank4]:E1106 11:04:58.374000 212 torch/_inductor/runtime/triton_heuristics.py:750] [22/4]     """
[rank4]:E1106 11:04:58.374000 212 torch/_inductor/runtime/triton_heuristics.py:750] [22/4] 
[rank4]:E1106 11:04:58.374000 212 torch/_inductor/runtime/triton_heuristics.py:750] [22/4]     tl.assume(stride_ab > 0)
[rank4]:E1106 11:04:58.374000 212 torch/_inductor/runtime/triton_heuristics.py:750] [22/4]     tl.assume(stride_am > 0)
[rank4]:E1106 11:04:58.374000 212 torch/_inductor/runtime/triton_heuristics.py:750] [22/4]     tl.assume(stride_ak > 0)
[rank4]:E1106 11:04:58.374000 212 torch/_inductor/runtime/triton_heuristics.py:750] [22/4]     tl.assume(stride_bb > 0)
[rank4]:E1106 11:04:58.374000 212 torch/_inductor/runtime/triton_heuristics.py:750] [22/4]     tl.assume(stride_bk > 0)
[rank4]:E1106 11:04:58.374000 212 torch/_inductor/runtime/triton_heuristics.py:750] [22/4]     tl.assume(stride_bn > 0)
[rank4]:E1106 11:04:58.374000 212 torch/_inductor/runtime/triton_heuristics.py:750] [22/4]     tl.assume(stride_cb > 0)
[rank4]:E1106 11:04:58.374000 212 torch/_inductor/runtime/triton_heuristics.py:750] [22/4]     tl.assume(stride_cm > 0)
[rank4]:E1106 11:04:58.374000 212 torch/_inductor/runtime/triton_heuristics.py:750] [22/4]     tl.assume(stride_cn > 0)
[rank4]:E1106 11:04:58.374000 212 torch/_inductor/runtime/triton_heuristics.py:750] [22/4]     tl.assume(stride_bsb > 0)
[rank4]:E1106 11:04:58.374000 212 torch/_inductor/runtime/triton_heuristics.py:750] [22/4]     tl.assume(stride_bsk > 0)
[rank4]:E1106 11:04:58.374000 212 torch/_inductor/runtime/triton_heuristics.py:750] [22/4]     tl.assume(stride_bsn > 0)
[rank4]:E1106 11:04:58.374000 212 torch/_inductor/runtime/triton_heuristics.py:750] [22/4] 
[rank4]:E1106 11:04:58.374000 212 torch/_inductor/runtime/triton_heuristics.py:750] [22/4]     # -----------------------------------------------------------
[rank4]:E1106 11:04:58.374000 212 torch/_inductor/runtime/triton_heuristics.py:750] [22/4]     # Map program ids `pid` to the block of C it should compute.
[rank4]:E1106 11:04:58.374000 212 torch/_inductor/runtime/triton_heuristics.py:750] [22/4]     # This is done in a grouped ordering to promote L2 data reuse.
[rank4]:E1106 11:04:58.374000 212 torch/_inductor/runtime/triton_heuristics.py:750] [22/4]     pid_batch = tl.program_id(axis=0)
[rank4]:E1106 11:04:58.374000 212 torch/_inductor/runtime/triton_heuristics.py:750] [22/4]     pid_unified = tl.program_id(axis=1)
[rank4]:E1106 11:04:58.374000 212 torch/_inductor/runtime/triton_heuristics.py:750] [22/4]     pid_k = pid_unified % NUM_KSPLIT
[rank4]:E1106 11:04:58.374000 212 torch/_inductor/runtime/triton_heuristics.py:750] [22/4]     pid = pid_unified // NUM_KSPLIT
[rank4]:E1106 11:04:58.374000 212 torch/_inductor/runtime/triton_heuristics.py:750] [22/4]     num_pid_m = tl.cdiv(M, BLOCK_SIZE_M)
[rank4]:E1106 11:04:58.374000 212 torch/_inductor/runtime/triton_heuristics.py:750] [22/4]     num_pid_n = tl.cdiv(N, BLOCK_SIZE_N)
[rank4]:E1106 11:04:58.374000 212 torch/_inductor/runtime/triton_heuristics.py:750] [22/4] 
[rank4]:E1106 11:04:58.374000 212 torch/_inductor/runtime/triton_heuristics.py:750] [22/4]     # Cast batch id and batch dimension strides to int64 to avoid int32 overflow during offset calculation
[rank4]:E1106 11:04:58.374000 212 torch/_inductor/runtime/triton_heuristics.py:750] [22/4]     # Note: If you're attempting to cast strides to int64 to prevent integer overflow, use `tl.cast` instead of `.to()`.
[rank4]:E1106 11:04:58.374000 212 torch/_inductor/runtime/triton_heuristics.py:750] [22/4]     # See https://github.com/ROCm/aiter/pull/597 for rationale
[rank4]:E1106 11:04:58.374000 212 torch/_inductor/runtime/triton_heuristics.py:750] [22/4]     stride_ab = tl.cast(stride_ab, tl.int64)
[rank4]:E1106 11:04:58.374000 212 torch/_inductor/runtime/triton_heuristics.py:750] [22/4]     stride_bb = tl.cast(stride_bb, tl.int64)
[rank4]:E1106 11:04:58.374000 212 torch/_inductor/runtime/triton_heuristics.py:750] [22/4]     stride_cb = tl.cast(stride_cb, tl.int64)
[rank4]:E1106 11:04:58.374000 212 torch/_inductor/runtime/triton_heuristics.py:750] [22/4]     pid_batch = tl.cast(pid_batch, tl.int64)
[rank4]:E1106 11:04:58.374000 212 torch/_inductor/runtime/triton_heuristics.py:750] [22/4] 
[rank4]:E1106 11:04:58.374000 212 torch/_inductor/runtime/triton_heuristics.py:750] [22/4]     if NUM_KSPLIT == 1:
[rank4]:E1106 11:04:58.374000 212 torch/_inductor/runtime/triton_heuristics.py:750] [22/4]         remap_xcd(pid, GRID_MN)
[rank4]:E1106 11:04:58.374000 212 torch/_inductor/runtime/triton_heuristics.py:750] [22/4] 
[rank4]:E1106 11:04:58.374000 212 torch/_inductor/runtime/triton_heuristics.py:750] [22/4]         pid_m, pid_n = pid_grid(pid, num_pid_m, num_pid_n, GROUP_SIZE_M=GROUP_SIZE_M)
[rank4]:E1106 11:04:58.374000 212 torch/_inductor/runtime/triton_heuristics.py:750] [22/4]     else:
[rank4]:E1106 11:04:58.374000 212 torch/_inductor/runtime/triton_heuristics.py:750] [22/4]         pid_m = pid // num_pid_n
[rank4]:E1106 11:04:58.374000 212 torch/_inductor/runtime/triton_heuristics.py:750] [22/4]         pid_n = pid % num_pid_n
[rank4]:E1106 11:04:58.374000 212 torch/_inductor/runtime/triton_heuristics.py:750] [22/4] 
[rank4]:E1106 11:04:58.374000 212 torch/_inductor/runtime/triton_heuristics.py:750] [22/4]     tl.assume(pid_batch >= 0)
[rank4]:E1106 11:04:58.374000 212 torch/_inductor/runtime/triton_heuristics.py:750] [22/4]     tl.assume(pid_m >= 0)
[rank4]:E1106 11:04:58.374000 212 torch/_inductor/runtime/triton_heuristics.py:750] [22/4]     tl.assume(pid_n >= 0)
[rank4]:E1106 11:04:58.374000 212 torch/_inductor/runtime/triton_heuristics.py:750] [22/4]     # We assume 32 elements along K share the same scale.
[rank4]:E1106 11:04:58.374000 212 torch/_inductor/runtime/triton_heuristics.py:750] [22/4]     SCALE_GROUP_SIZE: tl.constexpr = 32
[rank4]:E1106 11:04:58.374000 212 torch/_inductor/runtime/triton_heuristics.py:750] [22/4] 
[rank4]:E1106 11:04:58.374000 212 torch/_inductor/runtime/triton_heuristics.py:750] [22/4]     if (pid_k * SPLITK_BLOCK_SIZE // 2) < K:
[rank4]:E1106 11:04:58.374000 212 torch/_inductor/runtime/triton_heuristics.py:750] [22/4] 
[rank4]:E1106 11:04:58.374000 212 torch/_inductor/runtime/triton_heuristics.py:750] [22/4]         num_k_iter = tl.cdiv(SPLITK_BLOCK_SIZE // 2, BLOCK_SIZE_K // 2)
[rank4]:E1106 11:04:58.374000 212 torch/_inductor/runtime/triton_heuristics.py:750] [22/4] 
[rank4]:E1106 11:04:58.374000 212 torch/_inductor/runtime/triton_heuristics.py:750] [22/4]         # Create pointers for first block of A and B input matrices
[rank4]:E1106 11:04:58.374000 212 torch/_inductor/runtime/triton_heuristics.py:750] [22/4]         # The BLOCK sizes are of the elements and in fp4 we pack 2 per uint8 container.
[rank4]:E1106 11:04:58.374000 212 torch/_inductor/runtime/triton_heuristics.py:750] [22/4]         offs_k_bf16 = tl.arange(0, BLOCK_SIZE_K)
[rank4]:E1106 11:04:58.374000 212 torch/_inductor/runtime/triton_heuristics.py:750] [22/4]         offs_k_split_bf16 = pid_k * SPLITK_BLOCK_SIZE + offs_k_bf16
[rank4]:E1106 11:04:58.374000 212 torch/_inductor/runtime/triton_heuristics.py:750] [22/4]         offs_am = (pid_m * BLOCK_SIZE_M + tl.arange(0, BLOCK_SIZE_M)) % M
[rank4]:E1106 11:04:58.374000 212 torch/_inductor/runtime/triton_heuristics.py:750] [22/4]         a_ptrs = a_ptr + (
[rank4]:E1106 11:04:58.374000 212 torch/_inductor/runtime/triton_heuristics.py:750] [22/4]             pid_batch * stride_ab
[rank4]:E1106 11:04:58.374000 212 torch/_inductor/runtime/triton_heuristics.py:750] [22/4]             + offs_am[:, None] * stride_am
[rank4]:E1106 11:04:58.374000 212 torch/_inductor/runtime/triton_heuristics.py:750] [22/4]             + offs_k_split_bf16[None, :] * stride_ak
[rank4]:E1106 11:04:58.374000 212 torch/_inductor/runtime/triton_heuristics.py:750] [22/4]         )
[rank4]:E1106 11:04:58.374000 212 torch/_inductor/runtime/triton_heuristics.py:750] [22/4] 
[rank4]:E1106 11:04:58.374000 212 torch/_inductor/runtime/triton_heuristics.py:750] [22/4]         offs_k = tl.arange(0, BLOCK_SIZE_K // 2)
[rank4]:E1106 11:04:58.374000 212 torch/_inductor/runtime/triton_heuristics.py:750] [22/4]         offs_k_split = pid_k * (SPLITK_BLOCK_SIZE // 2) + offs_k
[rank4]:E1106 11:04:58.374000 212 torch/_inductor/runtime/triton_heuristics.py:750] [22/4]         offs_bn = (pid_n * BLOCK_SIZE_N + tl.arange(0, BLOCK_SIZE_N)) % N
[rank4]:E1106 11:04:58.374000 212 torch/_inductor/runtime/triton_heuristics.py:750] [22/4]         b_ptrs = b_ptr + (
[rank4]:E1106 11:04:58.374000 212 torch/_inductor/runtime/triton_heuristics.py:750] [22/4]             pid_batch * stride_bb
[rank4]:E1106 11:04:58.374000 212 torch/_inductor/runtime/triton_heuristics.py:750] [22/4]             + offs_k_split[:, None] * stride_bk
[rank4]:E1106 11:04:58.374000 212 torch/_inductor/runtime/triton_heuristics.py:750] [22/4]             + offs_bn[None, :] * stride_bn
[rank4]:E1106 11:04:58.374000 212 torch/_inductor/runtime/triton_heuristics.py:750] [22/4]         )
[rank4]:E1106 11:04:58.374000 212 torch/_inductor/runtime/triton_heuristics.py:750] [22/4]         # Create pointers for the first block of A and B scales
[rank4]:E1106 11:04:58.374000 212 torch/_inductor/runtime/triton_heuristics.py:750] [22/4]         offs_ks = (pid_k * (SPLITK_BLOCK_SIZE // SCALE_GROUP_SIZE)) + tl.arange(
[rank4]:E1106 11:04:58.374000 212 torch/_inductor/runtime/triton_heuristics.py:750] [22/4]             0, BLOCK_SIZE_K // SCALE_GROUP_SIZE
[rank4]:E1106 11:04:58.374000 212 torch/_inductor/runtime/triton_heuristics.py:750] [22/4]         )
[rank4]:E1106 11:04:58.374000 212 torch/_inductor/runtime/triton_heuristics.py:750] [22/4]         # B scales are N x K even though B operand is K x N.
[rank4]:E1106 11:04:58.374000 212 torch/_inductor/runtime/triton_heuristics.py:750] [22/4]         b_scale_ptrs = (
[rank4]:E1106 11:04:58.374000 212 torch/_inductor/runtime/triton_heuristics.py:750] [22/4]             b_scales_ptr
[rank4]:E1106 11:04:58.374000 212 torch/_inductor/runtime/triton_heuristics.py:750] [22/4]             + pid_batch * stride_bsb
[rank4]:E1106 11:04:58.374000 212 torch/_inductor/runtime/triton_heuristics.py:750] [22/4]             + offs_bn[:, None] * stride_bsn
[rank4]:E1106 11:04:58.374000 212 torch/_inductor/runtime/triton_heuristics.py:750] [22/4]             + offs_ks[None, :] * stride_bsk
[rank4]:E1106 11:04:58.374000 212 torch/_inductor/runtime/triton_heuristics.py:750] [22/4]         )
[rank4]:E1106 11:04:58.374000 212 torch/_inductor/runtime/triton_heuristics.py:750] [22/4] 
[rank4]:E1106 11:04:58.374000 212 torch/_inductor/runtime/triton_heuristics.py:750] [22/4]         accumulator = tl.zeros((BLOCK_SIZE_M, BLOCK_SIZE_N), dtype=tl.float32)
[rank4]:E1106 11:04:58.374000 212 torch/_inductor/runtime/triton_heuristics.py:750] [22/4] 
[rank4]:E1106 11:04:58.374000 212 torch/_inductor/runtime/triton_heuristics.py:750] [22/4]         for k in range(pid_k * num_k_iter, (pid_k + 1) * num_k_iter):
[rank4]:E1106 11:04:58.374000 212 torch/_inductor/runtime/triton_heuristics.py:750] [22/4]             b_scales = tl.load(b_scale_ptrs)
[rank4]:E1106 11:04:58.374000 212 torch/_inductor/runtime/triton_heuristics.py:750] [22/4]             # a_scales = tl.full((BLOCK_SIZE_M, BLOCK_SIZE_K//SCALE_GROUP_SIZE), 127, dtype=tl.uint8)
[rank4]:E1106 11:04:58.374000 212 torch/_inductor/runtime/triton_heuristics.py:750] [22/4]             # b_scales = tl.full((BLOCK_SIZE_N, BLOCK_SIZE_K//SCALE_GROUP_SIZE), 127, dtype=tl.uint8)
[rank4]:E1106 11:04:58.374000 212 torch/_inductor/runtime/triton_heuristics.py:750] [22/4]             # Load the next block of A and B, generate a mask by checking the K dimension.
[rank4]:E1106 11:04:58.374000 212 torch/_inductor/runtime/triton_heuristics.py:750] [22/4]             # If it is out of bounds, set it to 0.
[rank4]:E1106 11:04:58.374000 212 torch/_inductor/runtime/triton_heuristics.py:750] [22/4]             if EVEN_K:
[rank4]:E1106 11:04:58.374000 212 torch/_inductor/runtime/triton_heuristics.py:750] [22/4]                 a_bf16 = tl.load(a_ptrs)
[rank4]:E1106 11:04:58.374000 212 torch/_inductor/runtime/triton_heuristics.py:750] [22/4]                 b = tl.load(b_ptrs, cache_modifier=cache_modifier)
[rank4]:E1106 11:04:58.374000 212 torch/_inductor/runtime/triton_heuristics.py:750] [22/4]             else:
[rank4]:E1106 11:04:58.374000 212 torch/_inductor/runtime/triton_heuristics.py:750] [22/4]                 a_bf16 = tl.load(
[rank4]:E1106 11:04:58.374000 212 torch/_inductor/runtime/triton_heuristics.py:750] [22/4]                     a_ptrs, mask=offs_k[None, :] < K - k * BLOCK_SIZE_K, other=0
[rank4]:E1106 11:04:58.374000 212 torch/_inductor/runtime/triton_heuristics.py:750] [22/4]                 )
[rank4]:E1106 11:04:58.374000 212 torch/_inductor/runtime/triton_heuristics.py:750] [22/4]                 b = tl.load(
[rank4]:E1106 11:04:58.374000 212 torch/_inductor/runtime/triton_heuristics.py:750] [22/4]                     b_ptrs, mask=offs_k[:, None] < K - k * (BLOCK_SIZE_K // 2), other=0
[rank4]:E1106 11:04:58.374000 212 torch/_inductor/runtime/triton_heuristics.py:750] [22/4]                 )
[rank4]:E1106 11:04:58.374000 212 torch/_inductor/runtime/triton_heuristics.py:750] [22/4] 
[rank4]:E1106 11:04:58.374000 212 torch/_inductor/runtime/triton_heuristics.py:750] [22/4]             a, a_scales = _mxfp4_quant_op(a_bf16, BLOCK_SIZE_K, BLOCK_SIZE_M, 32)
[rank4]:E1106 11:04:58.374000 212 torch/_inductor/runtime/triton_heuristics.py:750] [22/4] 
[rank4]:E1106 11:04:58.374000 212 torch/_inductor/runtime/triton_heuristics.py:750] [22/4]             accumulator += tl.dot_scaled(a, a_scales, "e2m1", b, b_scales, "e2m1")
[rank4]:E1106 11:04:58.374000 212 torch/_inductor/runtime/triton_heuristics.py:750] [22/4] 
[rank4]:E1106 11:04:58.374000 212 torch/_inductor/runtime/triton_heuristics.py:750] [22/4]             # Advance the ptrs to the next K block.
[rank4]:E1106 11:04:58.374000 212 torch/_inductor/runtime/triton_heuristics.py:750] [22/4]             a_ptrs += BLOCK_SIZE_K * stride_ak
[rank4]:E1106 11:04:58.374000 212 torch/_inductor/runtime/triton_heuristics.py:750] [22/4]             b_ptrs += (BLOCK_SIZE_K // 2) * stride_bk
[rank4]:E1106 11:04:58.374000 212 torch/_inductor/runtime/triton_heuristics.py:750] [22/4]             b_scale_ptrs += (BLOCK_SIZE_K // SCALE_GROUP_SIZE) * stride_bsk
[rank4]:E1106 11:04:58.374000 212 torch/_inductor/runtime/triton_heuristics.py:750] [22/4] 
[rank4]:E1106 11:04:58.374000 212 torch/_inductor/runtime/triton_heuristics.py:750] [22/4]         c = accumulator.to(c_ptr.type.element_ty)
[rank4]:E1106 11:04:58.374000 212 torch/_inductor/runtime/triton_heuristics.py:750] [22/4] 
…
    llvm.intr.assume %true : i1
    llvm.intr.assume %true : i1
    llvm.intr.assume %true : i1
    llvm.intr.assume %true : i1
    llvm.intr.assume %true : i1
    llvm.intr.assume %true : i1
    llvm.intr.assume %true : i1
    llvm.intr.assume %true : i1
    llvm.intr.assume %true : i1
    llvm.intr.assume %true : i1
    %0 = tt.get_program_id x : i32
    %1 = tt.get_program_id y : i32
    %2 = arith.addi %arg5, %c31_i32 : i32
    %3 = arith.divsi %2, %c32_i32 : i32
    %4 = arith.extsi %arg7 : i32 to i64
    %5 = arith.extsi %arg9 : i32 to i64
    %6 = arith.extsi %arg11 : i32 to i64
    %7 = arith.extsi %0 : i32 to i64
    %8 = arith.divsi %1, %3 : i32
    %9 = arith.remsi %1, %3 : i32
    llvm.intr.assume %true : i1
    llvm.intr.assume %true : i1
    llvm.intr.assume %true : i1
    %10 = arith.cmpi sgt, %arg6, %c0_i32 : i32
    scf.if %10 {
      %11 = arith.muli %8, %c4_i32 : i32
      %12 = tt.make_range {end = 4 : i32, start = 0 : i32} : tensor<4xi32, #ttg.slice<{dim = 1, parent = #blocked1}>>
      %13 = tt.make_range {end = 4 : i32, start = 0 : i32} : tensor<4xi32, #ttg.slice<{dim = 1, parent = #blocked3}>>
      %14 = tt.splat %11 : i32 -> tensor<4xi32, #ttg.slice<{dim = 1, parent = #blocked1}>>
      %15 = arith.addi %14, %12 : tensor<4xi32, #ttg.slice<{dim = 1, parent = #blocked1}>>
      %16 = tt.splat %arg4 : i32 -> tensor<4xi32, #ttg.slice<{dim = 1, parent = #blocked1}>>
      %17 = arith.remsi %15, %16 : tensor<4xi32, #ttg.slice<{dim = 1, parent = #blocked1}>>
      %18 = arith.muli %7, %4 : i64
      %19 = tt.expand_dims %17 {axis = 1 : i32} : tensor<4xi32, #ttg.slice<{dim = 1, parent = #blocked1}>> -> tensor<4x1xi32, #blocked1>
      %20 = tt.splat %arg8 : i32 -> tensor<4x1xi32, #blocked1>
      %21 = arith.muli %19, %20 : tensor<4x1xi32, #blocked1>
      %22 = arith.extsi %21 : tensor<4x1xi32, #blocked1> to tensor<4x1xi64, #blocked1>
      %23 = tt.make_range {end = 128 : i32, start = 0 : i32} : tensor<128xi32, #ttg.slice<{dim = 0, parent = #blocked1}>>
      %24 = tt.expand_dims %23 {axis = 0 : i32} : tensor<128xi32, #ttg.slice<{dim = 0, parent = #blocked1}>> -> tensor<1x128xi32, #blocked1>
      %25 = arith.extsi %24 : tensor<1x128xi32, #blocked1> to tensor<1x128xi64, #blocked1>
      %26 = tt.broadcast %22 : tensor<4x1xi64, #blocked1> -> tensor<4x128xi64, #blocked1>
      %27 = tt.broadcast %25 : tensor<1x128xi64, #blocked1> -> tensor<4x128xi64, #blocked1>
      %28 = arith.addi %26, %27 : tensor<4x128xi64, #blocked1>
      %29 = tt.addptr %arg0, %18 : !tt.ptr<bf16>, i64
      %30 = arith.muli %9, %c32_i32 : i32
      %31 = tt.make_range {end = 32 : i32, start = 0 : i32} : tensor<32xi32, #ttg.slice<{dim = 0, parent = #blocked6}>>
      %32 = tt.make_range {end = 32 : i32, start = 0 : i32} : tensor<32xi32, #ttg.slice<{dim = 0, parent = #blocked3}>>
      %33 = tt.make_range {end = 32 : i32, start = 0 : i32} : tensor<32xi32, #ttg.slice<{dim = 1, parent = #linear1}>>
      %34 = tt.splat %30 : i32 -> tensor<32xi32, #ttg.slice<{dim = 0, parent = #blocked6}>>
      %35 = tt.splat %30 : i32 -> tensor<32xi32, #ttg.slice<{dim = 1, parent = #linear1}>>
      %36 = arith.addi %34, %31 : tensor<32xi32, #ttg.slice<{dim = 0, parent = #blocked6}>>
      %37 = arith.addi %35, %33 : tensor<32xi32, #ttg.slice<{dim = 1, parent = #linear1}>>
      %38 = tt.splat %arg5 : i32 -> tensor<32xi32, #ttg.slice<{dim = 0, parent = #blocked6}>>
      %39 = tt.splat %arg5 : i32 -> tensor<32xi32, #ttg.slice<{dim = 1, parent = #linear1}>>
      %40 = arith.remsi %36, %38 : tensor<32xi32, #ttg.slice<{dim = 0, parent = #blocked6}>>
      %41 = arith.remsi %37, %39 : tensor<32xi32, #ttg.slice<{dim = 1, parent = #linear1}>>
      %42 = arith.muli %7, %5 : i64
      %43 = tt.make_range {end = 64 : i32, start = 0 : i32} : tensor<64xi32, #ttg.slice<{dim = 1, parent = #blocked6}>>
      %44 = tt.expand_dims %43 {axis = 1 : i32} : tensor<64xi32, #ttg.slice<{dim = 1, parent = #blocked6}>> -> tensor<64x1xi32, #blocked6>
      %45 = arith.extsi %44 : tensor<64x1xi32, #blocked6> to tensor<64x1xi64, #blocked6>
      %46 = tt.expand_dims %40 {axis = 0 : i32} : tensor<32xi32, #ttg.slice<{dim = 0, parent = #blocked6}>> -> tensor<1x32xi32, #blocked6>
      %47 = tt.splat %arg10 : i32 -> tensor<1x32xi32, #blocked6>
      %48 = arith.muli %46, %47 : tensor<1x32xi32, #blocked6>
      %49 = arith.extsi %48 : tensor<1x32xi32, #blocked6> to tensor<1x32xi64, #blocked6>
      %50 = tt.broadcast %45 : tensor<64x1xi64, #blocked6> -> tensor<64x32xi64, #blocked6>
      %51 = tt.broadcast %49 : tensor<1x32xi64, #blocked6> -> tensor<64x32xi64, #blocked6>
      %52 = arith.addi %50, %51 : tensor<64x32xi64, #blocked6>
      %53 = tt.addptr %arg1, %42 : !tt.ptr<i8>, i64
      %54 = arith.extsi %arg14 : i32 to i64
      %55 = arith.muli %7, %54 : i64
      %56 = tt.addptr %arg3, %55 : !tt.ptr<i8>, i64
      %57 = tt.expand_dims %41 {axis = 1 : i32} : tensor<32xi32, #ttg.slice<{dim = 1, parent = #linear1}>> -> tensor<32x1xi32, #linear1>
      %58 = tt.splat %arg15 : i32 -> tensor<32x1xi32, #linear1>
      %59 = arith.muli %57, %58 : tensor<32x1xi32, #linear1>
      %60 = arith.extsi %59 : tensor<32x1xi32, #linear1> to tensor<32x1xi64, #linear1>
      %61 = tt.make_range {end = 4 : i32, start = 0 : i32} : tensor<4xi32, #ttg.slice<{dim = 0, parent = #linear1}>>
      %62 = tt.broadcast %60 : tensor<32x1xi64, #linear1> -> tensor<32x4xi64, #linear1>
      %63 = tt.expand_dims %61 {axis = 0 : i32} : tensor<4xi32, #ttg.slice<{dim = 0, parent = #linear1}>> -> tensor<1x4xi32, #linear1>
      %64 = tt.broadcast %63 : tensor<1x4xi32, #linear1> -> tensor<32x4xi32, #linear1>
      %65 = arith.extsi %64 : tensor<32x4xi32, #linear1> to tensor<32x4xi64, #linear1>
      %66 = arith.addi %65, %62 : tensor<32x4xi64, #linear1>
      %67 = tt.splat %56 : !tt.ptr<i8> -> tensor<32x4x!tt.ptr<i8>, #linear1>
      %68 = tt.addptr %67, %66 : tensor<32x4x!tt.ptr<i8>, #linear1>, tensor<32x4xi64, #linear1>
      %69 = tt.load %68 : tensor<32x4x!tt.ptr<i8>, #linear1>
      %70 = tt.trans %69 {order = array<i32: 1, 0>} : tensor<32x4xi8, #linear1> -> tensor<4x32xi8, #ttg.slice<{dim = 2, parent = #blocked4}>>
      %71 = tt.splat %29 : !tt.ptr<bf16> -> tensor<4x128x!tt.ptr<bf16>, #blocked1>
      %72 = tt.addptr %71, %28 : tensor<4x128x!tt.ptr<bf16>, #blocked1>, tensor<4x128xi64, #blocked1>
      %73 = tt.load %72 : tensor<4x128x!tt.ptr<bf16>, #blocked1>
      %74 = tt.splat %53 : !tt.ptr<i8> -> tensor<64x32x!tt.ptr<i8>, #blocked6>
      %75 = tt.addptr %74, %52 : tensor<64x32x!tt.ptr<i8>, #blocked6>, tensor<64x32xi64, #blocked6>
      %76 = tt.load %75 cacheModifier = cg : tensor<64x32x!tt.ptr<i8>, #blocked6>
      %77 = ttg.convert_layout %76 : tensor<64x32xi8, #blocked6> -> tensor<64x32xi8, #blocked3>
      %78 = tt.reshape %73 : tensor<4x128xbf16, #blocked1> -> tensor<4x4x32xbf16, #blocked>
      %79 = math.absf %78 : tensor<4x4x32xbf16, #blocked>
      %80 = arith.extf %79 : tensor<4x4x32xbf16, #blocked> to tensor<4x4x32xf32, #blocked>
      %81 = "tt.reduce"(%80) <{axis = 2 : i32}> ({
      ^bb0(%arg16: f32, %arg17: f32):
        %209 = arith.maxnumf %arg16, %arg17 : f32
        tt.reduce.return %209 : f32
      }) : (tensor<4x4x32xf32, #blocked>) -> tensor<4x4xf32, #ttg.slice<{dim = 2, parent = #blocked}>>
      %82 = ttg.convert_layout %81 : tensor<4x4xf32, #ttg.slice<{dim = 2, parent = #blocked}>> -> tensor<4x4xf32, #ttg.slice<{dim = 2, parent = #linear}>>
      %83 = tt.expand_dims %82 {axis = 2 : i32} : tensor<4x4xf32, #ttg.slice<{dim = 2, parent = #linear}>> -> tensor<4x4x1xf32, #linear>
      %84 = tt.expand_dims %81 {axis = 2 : i32} : tensor<4x4xf32, #ttg.slice<{dim = 2, parent = #blocked}>> -> tensor<4x4x1xf32, #blocked>
      %85 = tt.bitcast %83 : tensor<4x4x1xf32, #linear> -> tensor<4x4x1xi32, #linear>
      %86 = tt.bitcast %84 : tensor<4x4x1xf32, #blocked> -> tensor<4x4x1xi32, #blocked>
      %87 = arith.addi %85, %cst_28 : tensor<4x4x1xi32, #linear>
      %88 = arith.addi %86, %cst_1 : tensor<4x4x1xi32, #blocked>
      %89 = tt.bitcast %87 : tensor<4x4x1xi32, #linear> -> tensor<4x4x1xi32, #linear>
      %90 = tt.bitcast %88 : tensor<4x4x1xi32, #blocked> -> tensor<4x4x1xi32, #blocked>
      %91 = arith.andi %89, %cst_27 : tensor<4x4x1xi32, #linear>
      %92 = arith.andi %90, %cst_4 : tensor<4x4x1xi32, #blocked>
      %93 = tt.bitcast %91 : tensor<4x4x1xi32, #linear> -> tensor<4x4x1xf32, #linear>
      %94 = tt.bitcast %92 : tensor<4x4x1xi32, #blocked> -> tensor<4x4x1xf32, #blocked>
      %95 = math.log2 %93 : tensor<4x4x1xf32, #linear>
      %96 = math.log2 %94 : tensor<4x4x1xf32, #blocked>
      %97 = math.floor %95 : tensor<4x4x1xf32, #linear>
      %98 = math.floor %96 : tensor<4x4x1xf32, #blocked>
      %99 = arith.subf %97, %cst_26 : tensor<4x4x1xf32, #linear>
      %100 = arith.subf %98, %cst_5 : tensor<4x4x1xf32, #blocked>
      %101 = tt.clampf %99, %cst_25, %cst_24, propagateNan = none : tensor<4x4x1xf32, #linear>
      %102 = tt.clampf %100, %cst_18, %cst_23, propagateNan = none : tensor<4x4x1xf32, #blocked>
      %103 = arith.fptoui %101 : tensor<4x4x1xf32, #linear> to tensor<4x4x1xi8, #linear>
      %104 = arith.fptoui %102 : tensor<4x4x1xf32, #blocked> to tensor<4x4x1xi8, #blocked>
      %105 = arith.addi %103, %cst_29 : tensor<4x4x1xi8, #linear>
      %106 = arith.addi %104, %cst : tensor<4x4x1xi8, #blocked>
      %107 = arith.subf %cst_6, %102 : tensor<4x4x1xf32, #blocked>
      %108 = math.exp2 %107 : tensor<4x4x1xf32, #blocked>
      %109 = arith.extf %78 : tensor<4x4x32xbf16, #blocked> to tensor<4x4x32xf32, #blocked>
      %110 = tt.broadcast %108 : tensor<4x4x1xf32, #blocked> -> tensor<4x4x32xf32, #blocked>
      %111 = arith.mulf %109, %110 : tensor<4x4x32xf32, #blocked>
      %112 = tt.bitcast %111 : tensor<4x4x32xf32, #blocked> -> tensor<4x4x32xi32, #blocked>
      %113 = arith.andi %112, %cst_7 : tensor<4x4x32xi32, #blocked>
      %114 = arith.shrui %112, %cst_8 : tensor<4x4x32xi32, #blocked>
      %115 = arith.andi %114, %cst_9 : tensor<4x4x32xi32, #blocked>
      %116 = arith.andi %112, %cst_10 : tensor<4x4x32xi32, #blocked>
      %117 = arith.addi %115, %cst_11 : tensor<4x4x32xi32, #blocked>
      %118 = arith.subi %cst_12, %117 : tensor<4x4x32xi32, #blocked>
      %119 = arith.cmpi ult, %115, %cst_12 : tensor<4x4x32xi32, #blocked>
      %120 = arith.shrui %116, %cst_11 : tensor<4x4x32xi32, #blocked>
      %121 = arith.ori %120, %cst_13 : tensor<4x4x32xi32, #blocked>
      %122 = arith.shrui %121, %118 : tensor<4x4x32xi32, #blocked>
      %123 = arith.select %119, %122, %116 : tensor<4x4x32xi1, #blocked>, tensor<4x4x32xi32, #blocked>
      %124 = arith.maxui %115, %cst_14 : tensor<4x4x32xi32, #blocked>
      %125 = arith.subi %124, %cst_14 : tensor<4x4x32xi32, #blocked>
      %126 = arith.shli %125, %cst_15 : tensor<4x4x32xi32, #blocked>
      %127 = arith.shrui %123, %cst_16 : tensor<4x4x32xi32, #blocked>
      %128 = arith.ori %126, %127 : tensor<4x4x32xi32, #blocked>
      %129 = arith.addi %128, %cst_11 : tensor<4x4x32xi32, #blocked>
      %130 = arith.shrui %129, %cst_11 : tensor<4x4x32xi32, #blocked>
      %131 = arith.minui %130, %cst_22 : tensor<4x4x32xi32, #blocked>
      %132 = arith.shrui %113, %cst_17 : tensor<4x4x32xi32, #blocked>
      %133 = arith.ori %132, %131 : tensor<4x4x32xi32, #blocked>
      %134 = arith.trunci %133 : tensor<4x4x32xi32, #blocked> to tensor<4x4x32xi8, #blocked>
      %135 = tt.reshape %134 : tensor<4x4x32xi8, #blocked> -> tensor<4x4x16x2xi8, #blocked7>
      %outLHS, %outRHS = tt.split %135 : tensor<4x4x16x2xi8, #blocked7> -> tensor<4x4x16xi8, #blocked2>
      %136 = arith.shli %outRHS, %cst_2 : tensor<4x4x16xi8, #blocked2>
      %137 = arith.ori %outLHS, %136 : tensor<4x4x16xi8, #blocked2>
      %138 = tt.reshape %137 : tensor<4x4x16xi8, #blocked2> -> tensor<4x64xi8, #blocked8>
      %139 = tt.reshape %105 : tensor<4x4x1xi8, #linear> -> tensor<4x4xi8, #ttg.slice<{dim = 2, parent = #blocked}>>
      %140 = tt.reshape %106 : tensor<4x4x1xi8, #blocked> -> tensor<4x4xi8, #linear2>
      %141 = ttg.convert_layout %140 : tensor<4x4xi8, #linear2> -> tensor<4x4xi8, #ttg.slice<{dim = 2, parent = #blocked}>>
      %142 = arith.extui %141 : tensor<4x4xi8, #ttg.slice<{dim = 2, parent = #blocked}>> to tensor<4x4xi16, #ttg.slice<{dim = 2, parent = #blocked}>>
      %143 = arith.shli %142, %cst_30 : tensor<4x4xi16, #ttg.slice<{dim = 2, parent = #blocked}>>
      %144 = tt.bitcast %143 : tensor<4x4xi16, #ttg.slice<{dim = 2, parent = #blocked}>> -> tensor<4x4xbf16, #ttg.slice<{dim = 2, parent = #blocked}>>
      %145 = tt.expand_dims %144 {axis = 2 : i32} : tensor<4x4xbf16, #ttg.slice<{dim = 2, parent = #blocked}>> -> tensor<4x4x1xbf16, #blocked>
      %146 = tt.broadcast %145 : tensor<4x4x1xbf16, #blocked> -> tensor<4x4x32xbf16, #blocked>
      %147 = tt.reshape %146 : tensor<4x4x32xbf16, #blocked> -> tensor<4x128xbf16, #blocked1>
      %148 = amdgpu.scaled_upcast_fp4 %138 scale %147 {axis = 1 : i32} : tensor<4x64xi8, #blocked8>, tensor<4x128xbf16, #blocked1> -> tensor<4x128xbf16, #blocked1>
      %149 = arith.cmpi eq, %139, %cst_31 : tensor<4x4xi8, #ttg.slice<{dim = 2, parent = #blocked}>>
      %150 = tt.expand_dims %149 {axis = 2 : i32} : tensor<4x4xi1, #ttg.slice<{dim = 2, parent = #blocked}>> -> tensor<4x4x1xi1, #blocked>
      %151 = tt.broadcast %150 : tensor<4x4x1xi1, #blocked> -> tensor<4x4x32xi1, #blocked>
      %152 = tt.reshape %151 : tensor<4x4x32xi1, #blocked> -> tensor<4x128xi1, #blocked1>
      %153 = arith.select %152, %cst_0, %148 : tensor<4x128xi1, #blocked1>, tensor<4x128xbf16, #blocked1>
      %154 = ttg.local_alloc %153 : (tensor<4x128xbf16, #blocked1>) -> !ttg.memdesc<4x128xbf16, #shared, #smem>
      %155 = ttg.local_load %154 : !ttg.memdesc<4x128xbf16, #shared, #smem> -> tensor<4x128xbf16, #ttg.dot_op<{opIdx = 0, parent = #blocked3}>>
      %156 = arith.extui %70 : tensor<4x32xi8, #ttg.slice<{dim = 2, parent = #blocked4}>> to tensor<4x32xi16, #ttg.slice<{dim = 2, parent = #blocked4}>>
      %157 = arith.shli %156, %cst_19 : tensor<4x32xi16, #ttg.slice<{dim = 2, parent = #blocked4}>>
      %158 = tt.bitcast %157 : tensor<4x32xi16, #ttg.slice<{dim = 2, parent = #blocked4}>> -> tensor<4x32xbf16, #ttg.slice<{dim = 2, parent = #blocked4}>>
      %159 = tt.expand_dims %158 {axis = 2 : i32} : tensor<4x32xbf16, #ttg.slice<{dim = 2, parent = #blocked4}>> -> tensor<4x32x1xbf16, #blocked4>
      %160 = tt.broadcast %159 : tensor<4x32x1xbf16, #blocked4> -> tensor<4x32x32xbf16, #blocked4>
      %161 = tt.trans %160 {order = array<i32: 0, 2, 1>} : tensor<4x32x32xbf16, #blocked4> -> tensor<4x32x32xbf16, #blocked9>
      %162 = tt.reshape %161 : tensor<4x32x32xbf16, #blocked9> -> tensor<128x32xbf16, #blocked5>
      %163 = amdgpu.scaled_upcast_fp4 %77 scale %162 {axis = 0 : i32} : tensor<64x32xi8, #blocked3>, tensor<128x32xbf16, #blocked5> -> tensor<128x32xbf16, #blocked5>
      %164 = arith.cmpi eq, %70, %cst_20 : tensor<4x32xi8, #ttg.slice<{dim = 2, parent = #blocked4}>>
      %165 = tt.expand_dims %164 {axis = 2 : i32} : tensor<4x32xi1, #ttg.slice<{dim = 2, parent = #blocked4}>> -> tensor<4x32x1xi1, #blocked4>
      %166 = tt.broadcast %165 : tensor<4x32x1xi1, #blocked4> -> tensor<4x32x32xi1, #blocked4>
      %167 = tt.trans %166 {order = array<i32: 0, 2, 1>} : tensor<4x32x32xi1, #blocked4> -> tensor<4x32x32xi1, #blocked9>
      %168 = tt.reshape %167 : tensor<4x32x32xi1, #blocked9> -> tensor<128x32xi1, #blocked5>
      %169 = arith.select %168, %cst_21, %163 : tensor<128x32xi1, #blocked5>, tensor<128x32xbf16, #blocked5>
      %170 = ttg.local_alloc %169 : (tensor<128x32xbf16, #blocked5>) -> !ttg.memdesc<128x32xbf16, #shared, #smem>
      %171 = ttg.local_load %170 : !ttg.memdesc<128x32xbf16, #shared, #smem> -> tensor<128x32xbf16, #ttg.dot_op<{opIdx = 1, parent = #blocked3}>>
      %172 = tt.dot %155, %171, %cst_3 : tensor<4x128xbf16, #ttg.dot_op<{opIdx = 0, parent = #blocked3}>> * tensor<128x32xbf16, #ttg.dot_op<{opIdx = 1, parent = #blocked3}>> -> tensor<4x32xf32, #blocked3>
      %173 = arith.addf %172, %cst_3 : tensor<4x32xf32, #blocked3>
      %174 = arith.truncf %173 : tensor<4x32xf32, #blocked3> to tensor<4x32xbf16, #blocked3>
      %175 = arith.extsi %13 : tensor<4xi32, #ttg.slice<{dim = 1, parent = #blocked3}>> to tensor<4xi64, #ttg.slice<{dim = 1, parent = #blocked3}>>
      %176 = arith.extsi %11 : i32 to i64
      %177 = tt.splat %176 : i64 -> tensor<4xi64, #ttg.slice<{dim = 1, parent = #blocked3}>>
      %178 = arith.addi %177, %175 : tensor<4xi64, #ttg.slice<{dim = 1, parent = #blocked3}>>
      %179 = arith.extsi %32 : tensor<32xi32, #ttg.slice<{dim = 0, parent = #blocked3}>> to tensor<32xi64, #ttg.slice<{dim = 0, parent = #blocked3}>>
      %180 = arith.extsi %30 : i32 to i64
      %181 = tt.splat %180 : i64 -> tensor<32xi64, #ttg.slice<{dim = 0, parent = #blocked3}>>
      %182 = arith.addi %181, %179 : tensor<32xi64, #ttg.slice<{dim = 0, parent = #blocked3}>>
      %183 = arith.muli %7, %6 : i64
      %184 = tt.addptr %arg2, %183 : !tt.ptr<bf16>, i64
      %185 = tt.expand_dims %178 {axis = 1 : i32} : tensor<4xi64, #ttg.slice<{dim = 1, parent = #blocked3}>> -> tensor<4x1xi64, #blocked3>
      %186 = arith.extsi %arg13 : i32 to i64
      %187 = tt.expand_dims %175 {axis = 1 : i32} : tensor<4xi64, #ttg.slice<{dim = 1, parent = #blocked3}>> -> tensor<4x1xi64, #blocked3>
      %188 = arith.muli %186, %176 : i64
      %189 = tt.splat %186 : i64 -> tensor<4x1xi64, #blocked3>
      %190 = arith.muli %189, %187 : tensor<4x1xi64, #blocked3>
      %191 = tt.addptr %184, %188 : !tt.ptr<bf16>, i64
      %192 = tt.expand_dims %182 {axis = 0 : i32} : tensor<32xi64, #ttg.slice<{dim = 0, parent = #blocked3}>> -> tensor<1x32xi64, #blocked3>
      %193 = tt.broadcast %190 : tensor<4x1xi64, #blocked3> -> tensor<4x32xi64, #blocked3>
      %194 = tt.expand_dims %179 {axis = 0 : i32} : tensor<32xi64, #ttg.slice<{dim = 0, parent = #blocked3}>> -> tensor<1x32xi64, #blocked3>
      %195 = tt.broadcast %194 : tensor<1x32xi64, #blocked3> -> tensor<4x32xi64, #blocked3>
      %196 = tt.addptr %191, %180 : !tt.ptr<bf16>, i64
      %197 = arith.addi %195, %193 : tensor<4x32xi64, #blocked3>
      %198 = arith.extsi %arg4 : i32 to i64
      %199 = tt.splat %198 : i64 -> tensor<4x1xi64, #blocked3>
      %200 = arith.cmpi slt, %185, %199 : tensor<4x1xi64, #blocked3>
      %201 = arith.extsi %arg5 : i32 to i64
      %202 = tt.splat %201 : i64 -> tensor<1x32xi64, #blocked3>
      %203 = arith.cmpi slt, %192, %202 : tensor<1x32xi64, #blocked3>
      %204 = tt.broadcast %200 : tensor<4x1xi1, #blocked3> -> tensor<4x32xi1, #blocked3>
      %205 = tt.broadcast %203 : tensor<1x32xi1, #blocked3> -> tensor<4x32xi1, #blocked3>
      %206 = arith.andi %204, %205 : tensor<4x32xi1, #blocked3>
      %207 = tt.splat %196 : !tt.ptr<bf16> -> tensor<4x32x!tt.ptr<bf16>, #blocked3>
      %208 = tt.addptr %207, %197 : tensor<4x32x!tt.ptr<bf16>, #blocked3>, tensor<4x32xi64, #blocked3>
      tt.store %208, %174, %206 : tensor<4x32x!tt.ptr<bf16>, #blocked3>
    }
    tt.return
  }
}

{-#
  external_resources: {
    mlir_reproducer: {
      pipeline: "builtin.module(optimize-amd-lds-usage{lds-limit=0 target-arch=gfx950}, triton-scf-to-cf, convert-index-to-llvm{index-bitwidth=0}, allocate-amdgpu-shared-memory, convert-triton-amdgpu-to-llvm{arch=gfx950 ftz=true}, canonicalize{  max-iterations=10 max-num-rewrites=-1 region-simplify=normal test-convergence=false top-down=true}, cse, convert-cf-to-llvm{index-bitwidth=0}, convert-arith-to-llvm{index-bitwidth=0}, canonicalize{  max-iterations=10 max-num-rewrites=-1 region-simplify=normal test-convergence=false top-down=true}, cse, symbol-dce, enable-line-info, convert-builtin-func-to-llvm{ftz=true})",
      disable_threading: false,
      verify_each: true
    }
  }
#-}
/tmp/torchinductor_root/gg/cggjcwuvlva23hwbisj5n2gi3dnle4fcbt2uza4aedccsgx47q6u.py:18:0: error: Failures have been detected while processing an MLIR pass pipeline
/tmp/torchinductor_root/gg/cggjcwuvlva23hwbisj5n2gi3dnle4fcbt2uza4aedccsgx47q6u.py:18:0: note: Pipeline failed while executing [`ConvertTritonAMDGPUToLLVM` on 'builtin.module' operation]: reproducer generated at `std::errs, please share the reproducer above with Triton project.`
[rank0]:E1106 11:04:58.628000 208 torch/_inductor/runtime/triton_heuristics.py:750] [22/4] Triton compilation failed: _batched_gemm_afp4_wfp4_pre_quant_kernel_0
[rank0]:E1106 11:04:58.628000 208 torch/_inductor/runtime/triton_heuristics.py:750] [22/4] def _batched_gemm_afp4_wfp4_pre_quant_kernel(
[rank0]:E1106 11:04:58.628000 208 torch/_inductor/runtime/triton_heuristics.py:750] [22/4]     a_ptr,
[rank0]:E1106 11:04:58.628000 208 torch/_inductor/runtime/triton_heuristics.py:750] [22/4]     b_ptr,
[rank0]:E1106 11:04:58.628000 208 torch/_inductor/runtime/triton_heuristics.py:750] [22/4]     c_ptr,
[rank0]:E1106 11:04:58.628000 208 torch/_inductor/runtime/triton_heuristics.py:750] [22/4]     b_scales_ptr,
[rank0]:E1106 11:04:58.628000 208 torch/_inductor/runtime/triton_heuristics.py:750] [22/4]     M,
[rank0]:E1106 11:04:58.628000 208 torch/_inductor/runtime/triton_heuristics.py:750] [22/4]     N,
[rank0]:E1106 11:04:58.628000 208 torch/_inductor/runtime/triton_heuristics.py:750] [22/4]     K,
[rank0]:E1106 11:04:58.628000 208 torch/_inductor/runtime/triton_heuristics.py:750] [22/4]     stride_ab,
[rank0]:E1106 11:04:58.628000 208 torch/_inductor/runtime/triton_heuristics.py:750] [22/4]     stride_am,
[rank0]:E1106 11:04:58.628000 208 torch/_inductor/runtime/triton_heuristics.py:750] [22/4]     stride_ak,
[rank0]:E1106 11:04:58.628000 208 torch/_inductor/runtime/triton_heuristics.py:750] [22/4]     stride_bb,
[rank0]:E1106 11:04:58.628000 208 torch/_inductor/runtime/triton_heuristics.py:750] [22/4]     stride_bk,
[rank0]:E1106 11:04:58.628000 208 torch/_inductor/runtime/triton_heuristics.py:750] [22/4]     stride_bn,
[rank0]:E1106 11:04:58.628000 208 torch/_inductor/runtime/triton_heuristics.py:750] [22/4]     stride_cb,
[rank0]:E1106 11:04:58.628000 208 torch/_inductor/runtime/triton_heuristics.py:750] [22/4]     stride_ck,
[rank0]:E1106 11:04:58.628000 208 torch/_inductor/runtime/triton_heuristics.py:750] [22/4]     stride_cm,
[rank0]:E1106 11:04:58.628000 208 torch/_inductor/runtime/triton_heuristics.py:750] [22/4]     stride_cn,
[rank0]:E1106 11:04:58.628000 208 torch/_inductor/runtime/triton_heuristics.py:750] [22/4]     stride_bsb,
[rank0]:E1106 11:04:58.628000 208 torch/_inductor/runtime/triton_heuristics.py:750] [22/4]     stride_bsn,
[rank0]:E1106 11:04:58.628000 208 torch/_inductor/runtime/triton_heuristics.py:750] [22/4]     stride_bsk,
[rank0]:E1106 11:04:58.628000 208 torch/_inductor/runtime/triton_heuristics.py:750] [22/4]     # Meta-parameters
[rank0]:E1106 11:04:58.628000 208 torch/_inductor/runtime/triton_heuristics.py:750] [22/4]     BLOCK_SIZE_M: tl.constexpr,
[rank0]:E1106 11:04:58.628000 208 torch/_inductor/runtime/triton_heuristics.py:750] [22/4]     BLOCK_SIZE_N: tl.constexpr,
[rank0]:E1106 11:04:58.628000 208 torch/_inductor/runtime/triton_heuristics.py:750] [22/4]     BLOCK_SIZE_K: tl.constexpr,
[rank0]:E1106 11:04:58.628000 208 torch/_inductor/runtime/triton_heuristics.py:750] [22/4]     GROUP_SIZE_M: tl.constexpr,
[rank0]:E1106 11:04:58.628000 208 torch/_inductor/runtime/triton_heuristics.py:750] [22/4]     NUM_KSPLIT: tl.constexpr,
[rank0]:E1106 11:04:58.628000 208 torch/_inductor/runtime/triton_heuristics.py:750] [22/4]     SPLITK_BLOCK_SIZE: tl.constexpr,
[rank0]:E1106 11:04:58.628000 208 torch/_inductor/runtime/triton_heuristics.py:750] [22/4]     EVEN_K: tl.constexpr,
[rank0]:E1106 11:04:58.628000 208 torch/_inductor/runtime/triton_heuristics.py:750] [22/4]     GRID_MN: tl.constexpr,
[rank0]:E1106 11:04:58.628000 208 torch/_inductor/runtime/triton_heuristics.py:750] [22/4]     cache_modifier: tl.constexpr,
[rank0]:E1106 11:04:58.628000 208 torch/_inductor/runtime/triton_heuristics.py:750] [22/4] ):
[rank0]:E1106 11:04:58.628000 208 torch/_inductor/runtime/triton_heuristics.py:750] [22/4]     """Kernel for computing the matmul C = A x B.
[rank0]:E1106 11:04:58.628000 208 torch/_inductor/runtime/triton_heuristics.py:750] [22/4]     A and B inputs are in the microscale fp4 (mxfp4) format.
[rank0]:E1106 11:04:58.628000 208 torch/_inductor/runtime/triton_heuristics.py:750] [22/4]     A_scales and B_scales are in e8m0 format.
[rank0]:E1106 11:04:58.628000 208 torch/_inductor/runtime/triton_heuristics.py:750] [22/4]     A has shape (M, K), B has shape (K, N) and C has shape (M, N)
[rank0]:E1106 11:04:58.628000 208 torch/_inductor/runtime/triton_heuristics.py:750] [22/4]     """
[rank0]:E1106 11:04:58.628000 208 torch/_inductor/runtime/triton_heuristics.py:750] [22/4] 
[rank0]:E1106 11:04:58.628000 208 torch/_inductor/runtime/triton_heuristics.py:750] [22/4]     tl.assume(stride_ab > 0)
[rank0]:E1106 11:04:58.628000 208 torch/_inductor/runtime/triton_heuristics.py:750] [22/4]     tl.assume(stride_am > 0)
[rank0]:E1106 11:04:58.628000 208 torch/_inductor/runtime/triton_heuristics.py:750] [22/4]     tl.assume(stride_ak > 0)
[rank0]:E1106 11:04:58.628000 208 torch/_inductor/runtime/triton_heuristics.py:750] [22/4]     tl.assume(stride_bb > 0)
[rank0]:E1106 11:04:58.628000 208 torch/_inductor/runtime/triton_heuristics.py:750] [22/4]     tl.assume(stride_bk > 0)
[rank0]:E1106 11:04:58.628000 208 torch/_inductor/runtime/triton_heuristics.py:750] [22/4]     tl.assume(stride_bn > 0)
[rank0]:E1106 11:04:58.628000 208 torch/_inductor/runtime/triton_heuristics.py:750] [22/4]     tl.assume(stride_cb > 0)
[rank0]:E1106 11:04:58.628000 208 torch/_inductor/runtime/triton_heuristics.py:750] [22/4]     tl.assume(stride_cm > 0)
[rank0]:E1106 11:04:58.628000 208 torch/_inductor/runtime/triton_heuristics.py:750] [22/4]     tl.assume(stride_cn > 0)
[rank0]:E1106 11:04:58.628000 208 torch/_inductor/runtime/triton_heuristics.py:750] [22/4]     tl.assume(stride_bsb > 0)
[rank0]:E1106 11:04:58.628000 208 torch/_inductor/runtime/triton_heuristics.py:750] [22/4]     tl.assume(stride_bsk > 0)
[rank0]:E1106 11:04:58.628000 208 torch/_inductor/runtime/triton_heuristics.py:750] [22/4]     tl.assume(stride_bsn > 0)
[rank0]:E1106 11:04:58.628000 208 torch/_inductor/runtime/triton_heuristics.py:750] [22/4] 
[rank0]:E1106 11:04:58.628000 208 torch/_inductor/runtime/triton_heuristics.py:750] [22/4]     # -----------------------------------------------------------
[rank0]:E1106 11:04:58.628000 208 torch/_inductor/runtime/triton_heuristics.py:750] [22/4]     # Map program ids `pid` to the block of C it should compute.
[rank0]:E1106 11:04:58.628000 208 torch/_inductor/runtime/triton_heuristics.py:750] [22/4]     # This is done in a grouped ordering to promote L2 data reuse.
[rank0]:E1106 11:04:58.628000 208 torch/_inductor/runtime/triton_heuristics.py:750] [22/4]     pid_batch = tl.program_id(axis=0)
[rank0]:E1106 11:04:58.628000 208 torch/_inductor/runtime/triton_heuristics.py:750] [22/4]     pid_unified = tl.program_id(axis=1)
[rank0]:E1106 11:04:58.628000 208 torch/_inductor/runtime/triton_heuristics.py:750] [22/4]     pid_k = pid_unified % NUM_KSPLIT
[rank0]:E1106 11:04:58.628000 208 torch/_inductor/runtime/triton_heuristics.py:750] [22/4]     pid = pid_unified // NUM_KSPLIT
[rank0]:E1106 11:04:58.628000 208 torch/_inductor/runtime/triton_heuristics.py:750] [22/4]     num_pid_m = tl.cdiv(M, BLOCK_SIZE_M)
[rank0]:E1106 11:04:58.628000 208 torch/_inductor/runtime/triton_heuristics.py:750] [22/4]     num_pid_n = tl.cdiv(N, BLOCK_SIZE_N)
[rank0]:E1106 11:04:58.628000 208 torch/_inductor/runtime/triton_heuristics.py:750] [22/4] 
[rank0]:E1106 11:04:58.628000 208 torch/_inductor/runtime/triton_heuristics.py:750] [22/4]     # Cast batch id and batch dimension strides to int64 to avoid int32 overflow during offset calculation
[rank0]:E1106 11:04:58.628000 208 torch/_inductor/runtime/triton_heuristics.py:750] [22/4]     # Note: If you're attempting to cast strides to int64 to prevent integer overflow, use `tl.cast` instead of `.to()`.
[rank0]:E1106 11:04:58.628000 208 torch/_inductor/runtime/triton_heuristics.py:750] [22/4]     # See https://github.com/ROCm/aiter/pull/597 for rationale
[rank0]:E1106 11:04:58.628000 208 torch/_inductor/runtime/triton_heuristics.py:750] [22/4]     stride_ab = tl.cast(stride_ab, tl.int64)
[rank0]:E1106 11:04:58.628000 208 torch/_inductor/runtime/triton_heuristics.py:750] [22/4]     stride_bb = tl.cast(stride_bb, tl.int64)
[rank0]:E1106 11:04:58.628000 208 torch/_inductor/runtime/triton_heuristics.py:750] [22/4]     stride_cb = tl.cast(stride_cb, tl.int64)
[rank0]:E1106 11:04:58.628000 208 torch/_inductor/runtime/triton_heuristics.py:750] [22/4]     pid_batch = tl.cast(pid_batch, tl.int64)
[rank0]:E1106 11:04:58.628000 208 torch/_inductor/runtime/triton_heuristics.py:750] [22/4] 
[rank0]:E1106 11:04:58.628000 208 torch/_inductor/runtime/triton_heuristics.py:750] [22/4]     if NUM_KSPLIT == 1:
[rank0]:E1106 11:04:58.628000 208 torch/_inductor/runtime/triton_heuristics.py:750] [22/4]         remap_xcd(pid, GRID_MN)
[rank0]:E1106 11:04:58.628000 208 torch/_inductor/runtime/triton_heuristics.py:750] [22/4] 
[rank0]:E1106 11:04:58.628000 208 torch/_inductor/runtime/triton_heuristics.py:750] [22/4]         pid_m, pid_n = pid_grid(pid, num_pid_m, num_pid_n, GROUP_SIZE_M=GROUP_SIZE_M)
[rank0]:E1106 11:04:58.628000 208 torch/_inductor/runtime/triton_heuristics.py:750] [22/4]     else:
[rank0]:E1106 11:04:58.628000 208 torch/_inductor/runtime/triton_heuristics.py:750] [22/4]         pid_m = pid // num_pid_n
[rank0]:E1106 11:04:58.628000 208 torch/_inductor/runtime/triton_heuristics.py:750] [22/4]         pid_n = pid % num_pid_n
[rank0]:E1106 11:04:58.628000 208 torch/_inductor/runtime/triton_heuristics.py:750] [22/4] 
[rank0]:E1106 11:04:58.628000 208 torch/_inductor/runtime/triton_heuristics.py:750] [22/4]     tl.assume(pid_batch >= 0)
[rank0]:E1106 11:04:58.628000 208 torch/_inductor/runtime/triton_heuristics.py:750] [22/4]     tl.assume(pid_m >= 0)
[rank0]:E1106 11:04:58.628000 208 torch/_inductor/runtime/triton_heuristics.py:750] [22/4]     tl.assume(pid_n >= 0)
[rank0]:E1106 11:04:58.628000 208 torch/_inductor/runtime/triton_heuristics.py:750] [22/4]     # We assume 32 elements along K share the same scale.
[rank0]:E1106 11:04:58.628000 208 torch/_inductor/runtime/triton_heuristics.py:750] [22/4]     SCALE_GROUP_SIZE: tl.constexpr = 32
[rank0]:E1106 11:04:58.628000 208 torch/_inductor/runtime/triton_heuristics.py:750] [22/4] 
[rank0]:E1106 11:04:58.628000 208 torch/_inductor/runtime/triton_heuristics.py:750] [22/4]     if (pid_k * SPLITK_BLOCK_SIZE // 2) < K:
[rank0]:E1106 11:04:58.628000 208 torch/_inductor/runtime/triton_heuristics.py:750] [22/4] 
[rank0]:E1106 11:04:58.628000 208 torch/_inductor/runtime/triton_heuristics.py:750] [22/4]         num_k_iter = tl.cdiv(SPLITK_BLOCK_SIZE // 2, BLOCK_SIZE_K // 2)
[rank0]:E1106 11:04:58.628000 208 torch/_inductor/runtime/triton_heuristics.py:750] [22/4] 
[rank0]:E1106 11:04:58.628000 208 torch/_inductor/runtime/triton_heuristics.py:750] [22/4]         # Create pointers for first block of A and B input matrices
[rank0]:E1106 11:04:58.628000 208 torch/_inductor/runtime/triton_heuristics.py:750] [22/4]         # The BLOCK sizes are of the elements and in fp4 we pack 2 per uint8 container.
[rank0]:E1106 11:04:58.628000 208 torch/_inductor/runtime/triton_heuristics.py:750] [22/4]         offs_k_bf16 = tl.arange(0, BLOCK_SIZE_K)
[rank0]:E1106 11:04:58.628000 208 torch/_inductor/runtime/triton_heuristics.py:750] [22/4]         offs_k_split_bf16 = pid_k * SPLITK_BLOCK_SIZE + offs_k_bf16
[rank0]:E1106 11:04:58.628000 208 torch/_inductor/runtime/triton_heuristics.py:750] [22/4]         offs_am = (pid_m * BLOCK_SIZE_M + tl.arange(0, BLOCK_SIZE_M)) % M
[rank0]:E1106 11:04:58.628000 208 torch/_inductor/runtime/triton_heuristics.py:750] [22/4]         a_ptrs = a_ptr + (
[rank0]:E1106 11:04:58.628000 208 torch/_inductor/runtime/triton_heuristics.py:750] [22/4]             pid_batch * stride_ab
[rank0]:E1106 11:04:58.628000 208 torch/_inductor/runtime/triton_heuristics.py:750] [22/4]             + offs_am[:, None] * stride_am
[rank0]:E1106 11:04:58.628000 208 torch/_inductor/runtime/triton_heuristics.py:750] [22/4]             + offs_k_split_bf16[None, :] * stride_ak
[rank0]:E1106 11:04:58.628000 208 torch/_inductor/runtime/triton_heuristics.py:750] [22/4]         )
[rank0]:E1106 11:04:58.628000 208 torch/_inductor/runtime/triton_heuristics.py:750] [22/4] 
[rank0]:E1106 11:04:58.628000 208 torch/_inductor/runtime/triton_heuristics.py:750] [22/4]         offs_k = tl.arange(0, BLOCK_SIZE_K // 2)
[rank0]:E1106 11:04:58.628000 208 torch/_inductor/runtime/triton_heuristics.py:750] [22/4]         offs_k_split = pid_k * (SPLITK_BLOCK_SIZE // 2) + offs_k
[rank0]:E1106 11:04:58.628000 208 torch/_inductor/runtime/triton_heuristics.py:750] [22/4]         offs_bn = (pid_n * BLOCK_SIZE_N + tl.arange(0, BLOCK_SIZE_N)) % N
[rank0]:E1106 11:04:58.628000 208 torch/_inductor/runtime/triton_heuristics.py:750] [22/4]         b_ptrs = b_ptr + (
[rank0]:E1106 11:04:58.628000 208 torch/_inductor/runtime/triton_heuristics.py:750] [22/4]             pid_batch * stride_bb
[rank0]:E1106 11:04:58.628000 208 torch/_inductor/runtime/triton_heuristics.py:750] [22/4]             + offs_k_split[:, None] * stride_bk
[rank0]:E1106 11:04:58.628000 208 torch/_inductor/runtime/triton_heuristics.py:750] [22/4]             + offs_bn[None, :] * stride_bn
[rank0]:E1106 11:04:58.628000 208 torch/_inductor/runtime/triton_heuristics.py:750] [22/4]         )
[rank0]:E1106 11:04:58.628000 208 torch/_inductor/runtime/triton_heuristics.py:750] [22/4]         # Create pointers for the first block of A and B scales
[rank0]:E1106 11:04:58.628000 208 torch/_inductor/runtime/triton_heuristics.py:750] [22/4]         offs_ks = (pid_k * (SPLITK_BLOCK_SIZE // SCALE_GROUP_SIZE)) + tl.arange(
[rank0]:E1106 11:04:58.628000 208 torch/_inductor/runtime/triton_heuristics.py:750] [22/4]             0, BLOCK_SIZE_K // SCALE_GROUP_SIZE
[rank0]:E1106 11:04:58.628000 208 torch/_inductor/runtime/triton_heuristics.py:750] [22/4]         )
[rank0]:E1106 11:04:58.628000 208 torch/_inductor/runtime/triton_heuristics.py:750] [22/4]         # B scales are N x K even though B operand is K x N.
[rank0]:E1106 11:04:58.628000 208 torch/_inductor/runtime/triton_heuristics.py:750] [22/4]         b_scale_ptrs = (
[rank0]:E1106 11:04:58.628000 208 torch/_inductor/runtime/triton_heuristics.py:750] [22/4]             b_scales_ptr
[rank0]:E1106 11:04:58.628000 208 torch/_inductor/runtime/triton_heuristics.py:750] [22/4]             + pid_batch * stride_bsb
[rank0]:E1106 11:04:58.628000 208 torch/_inductor/runtime/triton_heuristics.py:750] [22/4]             + offs_bn[:, None] * stride_bsn
[rank0]:E1106 11:04:58.628000 208 torch/_inductor/runtime/triton_heuristics.py:750] [22/4]             + offs_ks[None, :] * stride_bsk
[rank0]:E1106 11:04:58.628000 208 torch/_inductor/runtime/triton_heuristics.py:750] [22/4]         )
[rank0]:E1106 11:04:58.628000 208 torch/_inductor/runtime/triton_heuristics.py:750] [22/4] 
[rank0]:E1106 11:04:58.628000 208 torch/_inductor/runtime/triton_heuristics.py:750] [22/4]         accumulator = tl.zeros((BLOCK_SIZE_M, BLOCK_SIZE_N), dtype=tl.float32)
[rank0]:E1106 11:04:58.628000 208 torch/_inductor/runtime/triton_heuristics.py:750] [22/4] 
[rank0]:E1106 11:04:58.628000 208 torch/_inductor/runtime/triton_heuristics.py:750] [22/4]         for k in range(pid_k * num_k_iter, (pid_k + 1) * num_k_iter):
[rank0]:E1106 11:04:58.628000 208 torch/_inductor/runtime/triton_heuristics.py:750] [22/4]             b_scales = tl.load(b_scale_ptrs)
[rank0]:E1106 11:04:58.628000 208 torch/_inductor/runtime/triton_heuristics.py:750] [22/4]             # a_scales = tl.full((BLOCK_SIZE_M, BLOCK_SIZE_K//SCALE_GROUP_SIZE), 127, dtype=tl.uint8)
[rank0]:E1106 11:04:58.628000 208 torch/_inductor/runtime/triton_heuristics.py:750] [22/4]             # b_scales = tl.full((BLOCK_SIZE_N, BLOCK_SIZE_K//SCALE_GROUP_SIZE), 127, dtype=tl.uint8)
[rank0]:E1106 11:04:58.628000 208 torch/_inductor/runtime/triton_heuristics.py:750] [22/4]             # Load the next block of A and B, generate a mask by checking the K dimension.
[rank0]:E1106 11:04:58.628000 208 torch/_inductor/runtime/triton_heuristics.py:750] [22/4]             # If it is out of bounds, set it to 0.
[rank0]:E1106 11:04:58.628000 208 torch/_inductor/runtime/triton_heuristics.py:750] [22/4]             if EVEN_K:
[rank0]:E1106 11:04:58.628000 208 torch/_inductor/runtime/triton_heuristics.py:750] [22/4]                 a_bf16 = tl.load(a_ptrs)
[rank0]:E1106 11:04:58.628000 208 torch/_inductor/runtime/triton_heuristics.py:750] [22/4]                 b = tl.load(b_ptrs, cache_modifier=cache_modifier)
[rank0]:E1106 11:04:58.628000 208 torch/_inductor/runtime/triton_heuristics.py:750] [22/4]             else:
[rank0]:E1106 11:04:58.628000 208 torch/_inductor/runtime/triton_heuristics.py:750] [22/4]                 a_bf16 = tl.load(
[rank0]:E1106 11:04:58.628000 208 torch/_inductor/runtime/triton_heuristics.py:750] [22/4]                     a_ptrs, mask=offs_k[None, :] < K - k * BLOCK_SIZE_K, other=0
[rank0]:E1106 11:04:58.628000 208 torch/_inductor/runtime/triton_heuristics.py:750] [22/4]                 )
[rank0]:E1106 11:04:58.628000 208 torch/_inductor/runtime/triton_heuristics.py:750] [22/4]                 b = tl.load(
[rank0]:E1106 11:04:58.628000 208 torch/_inductor/runtime/triton_heuristics.py:750] [22/4]                     b_ptrs, mask=offs_k[:, None] < K - k * (BLOCK_SIZE_K // 2), other=0
[rank0]:E1106 11:04:58.628000 208 torch/_inductor/runtime/triton_heuristics.py:750] [22/4]                 )
[rank0]:E1106 11:04:58.628000 208 torch/_inductor/runtime/triton_heuristics.py:750] [22/4] 
[rank0]:E1106 11:04:58.628000 208 torch/_inductor/runtime/triton_heuristics.py:750] [22/4]             a, a_scales = _mxfp4_quant_op(a_bf16, BLOCK_SIZE_K, BLOCK_SIZE_M, 32)
[rank0]:E1106 11:04:58.628000 208 torch/_inductor/runtime/triton_heuristics.py:750] [22/4] 
[rank0]:E1106 11:04:58.628000 208 torch/_inductor/runtime/triton_heuristics.py:750] [22/4]             accumulator += tl.dot_scaled(a, a_scales, "e2m1", b, b_scales, "e2m1")
[rank0]:E1106 11:04:58.628000 208 torch/_inductor/runtime/triton_heuristics.py:750] [22/4] 
[rank0]:E1106 11:04:58.628000 208 torch/_inductor/runtime/triton_heuristics.py:750] [22/4]             # Advance the ptrs to the next K block.
[rank0]:E1106 11:04:58.628000 208 torch/_inductor/runtime/triton_heuristics.py:750] [22/4]             a_ptrs += BLOCK_SIZE_K * stride_ak
[rank0]:E1106 11:04:58.628000 208 torch/_inductor/runtime/triton_heuristics.py:750] [22/4]             b_ptrs += (BLOCK_SIZE_K // 2) * stride_bk
[rank0]:E1106 11:04:58.628000 208 torch/_inductor/runtime/triton_heuristics.py:750] [22/4]             b_scale_ptrs += (BLOCK_SIZE_K // SCALE_GROUP_SIZE) * stride_bsk
[rank0]:E1106 11:04:58.628000 208 torch/_inductor/runtime/triton_heuristics.py:750] [22/4] 
[rank0]:E1106 11:04:58.628000 208 torch/_inductor/runtime/triton_heuristics.py:750] [22/4]         c = accumulator.to(c_ptr.type.element_ty)
[rank0]:E1106 11:04:58.628000 208 torch/_inductor/runtime/triton_heuristics.py:750] [22/4] 
[rank0]:E1106 11:04:58.628000 208 torch/_inductor/runtime/triton_heuristics.py:750] [22/4]         # Write back the block of the output matrix C with masks.
[rank0]:E1106 11:04:58.628000 208 torch/_inductor/runtime/triton_heuristics.py:750] [22/4]         offs_cm = pid_m * BLOCK_SIZE_M + tl.arange(0, BLOCK_SIZE_M).to(tl.int64)
[rank0]:E1106 11:04:58.628000 208 torch/_inductor/runtime/triton_heuristics.py:750] [22/4]         offs_cn = pid_n * BLOCK_SIZE_N + tl.arange(0, BLOCK_SIZE_N).to(tl.int64)
[rank0]:E1106 11:04:58.628000 208 torch/_inductor/runtime/triton_heuristics.py:750] [22/4]         c_ptrs = (
[rank0]:E1106 11:04:58.628000 208 torch/_inductor/runtime/triton_heuristics.py:750] [22/4]             c_ptr
[rank0]:E1106 11:04:58.628000 208 torch/_inductor/runtime/triton_heuristics.py:750] [22/4]             + pid_batch * stride_cb
[rank0]:E1106 11:04:58.628000 208 torch/_inductor/runtime/triton_heuristics.py:750] [22/4]             + stride_cm * offs_cm[:, None]
[rank0]:E1106 11:04:58.628000 208 torch/_inductor/runtime/triton_heuristics.py:750] [22/4]             + stride_cn * offs_cn[None, :]
[rank0]:E1106 11:04:58.628000 208 torch/_inductor/runtime/triton_heuristics.py:750] [22/4]             + pid_k * stride_ck
[rank0]:E1106 11:04:58.628000 208 torch/_inductor/runtime/triton_heuristics.py:750] [22/4]         )
[rank0]:E1106 11:04:58.628000 208 torch/_inductor/runtime/triton_heuristics.py:750] [22/4]         c_mask = (offs_cm[:, None] < M) & (offs_cn[None, :] < N)
[rank0]:E1106 11:04:58.628000 208 torch/_inductor/runtime/triton_heuristics.py:750] [22/4]         tl.store(c_ptrs, c, mask=c_mask)
[rank0]:E1106 11:04:58.628000 208 torch/_inductor/runtime/triton_heuristics.py:750] [22/4] 
[rank0]:E1106 11:04:58.628000 208 torch/_inductor/runtime/triton_heuristics.py:750] [22/4] metadata: {'signature': {'a_ptr': '*bf16', 'b_ptr': '*u8', 'c_ptr': '*bf16', 'b_scales_ptr': '*u8', 'M': 'i32', 'N': 'i32', 'K': 'i32', 'stride_ab': 'i32', 'stride_am': 'i32', 'stride_ak': 'constexpr', 'stride_bb': 'i32', 'stride_bk': 'constexpr', 'stride_bn': 'i32', 'stride_cb': 'i32', 'stride_ck': 'i32', 'stride_cm': 'i32', 'stride_cn': 'constexpr', 'stride_bsb': 'i32', 'stride_bsn': 'i32', 'stride_bsk': 'constexpr', 'BLOCK_SIZE_M': 'constexpr', 'BLOCK_SIZE_N': 'constexpr', 'BLOCK_SIZE_K': 'constexpr', 'GROUP_SIZE_M': 'constexpr', 'NUM_KSPLIT': 'constexpr', 'SPLITK_BLOCK_SIZE': 'constexpr', 'EVEN_K': 'constexpr', 'GRID_MN': 'constexpr', 'cache_modifier': 'constexpr'}, 'device': 0, 'constants': {'stride_ak': 1, 'stride_bk': 1, 'stride_cn': 1, 'stride_bsk': 1, 'BLOCK_SIZE_M': 4, 'BLOCK_SIZE_N': 32, 'BLOCK_SIZE_K': 128, 'GROUP_SIZE_M': 1, 'NUM_KSPLIT': 1, 'SPLITK_BLOCK_SIZE': 128, 'EVEN_K': True, 'GRID_MN': 96, 'cache_modifier': '.cg'}, 'configs': [{(0,): [['tt.divisibility', 16]], (1,): [['tt.divisibility', 16]], (2,): [['tt.divisibility', 16]], (3,): [['tt.divisibility', 16]], (5,): [['tt.divisibility', 16]], (6,): [['tt.divisibility', 16]], (7,): [['tt.divisibility', 16]], (8,): [['tt.divisibility', 16]], (10,): [['tt.divisibility', 16]], (12,): [['tt.divisibility', 16]], (13,): [['tt.divisibility', 16]], (14,): [['tt.divisibility', 16]], (15,): [['tt.divisibility', 16]], (17,): [['tt.divisibility', 16]]}], 'device_type': 'hip', 'num_warps': 4, 'num_stages': 1, 'debug': False, 'cc': 'gfx950'}
[rank0]:E1106 11:04:58.628000 208 torch/_inductor/runtime/triton_heuristics.py:750] [22/4] Traceback (most recent call last):
[rank0]:E1106 11:04:58.628000 208 torch/_inductor/runtime/triton_heuristics.py:750] [22/4]   File "/opt/venv/lib/python3.10/site-packages/torch/_inductor/runtime/triton_heuristics.py", line 748, in _precompile_config
[rank0]:E1106 11:04:58.628000 208 torch/_inductor/runtime/triton_heuristics.py:750] [22/4]     binary = triton.compile(*compile_args, **compile_kwargs)
[rank0]:E1106 11:04:58.628000 208 torch/_inductor/runtime/triton_heuristics.py:750] [22/4]   File "/opt/venv/lib/python3.10/site-packages/triton/compiler/compiler.py", line 322, in compile
[rank0]:E1106 11:04:58.628000 208 torch/_inductor/runtime/triton_heuristics.py:750] [22/4]     next_module = compile_ir(module, metadata)
[rank0]:E1106 11:04:58.628000 208 torch/_inductor/runtime/triton_heuristics.py:750] [22/4]   File "/opt/venv/lib/python3.10/site-packages/triton/backends/amd/compiler.py", line 450, in <lambda>
[rank0]:E1106 11:04:58.628000 208 torch/_inductor/runtime/triton_heuristics.py:750] [22/4]     stages["llir"] = lambda src, metadata: self.make_llir(src, metadata, options)
[rank0]:E1106 11:04:58.628000 208 torch/_inductor/runtime/triton_heuristics.py:750] [22/4]   File "/opt/venv/lib/python3.10/site-packages/triton/backends/amd/compiler.py", line 325, in make_llir
[rank0]:E1106 11:04:58.628000 208 torch/_inductor/runtime/triton_heuristics.py:750] [22/4]     pm.run(mod)
[rank0]:E1106 11:04:58.628000 208 torch/_inductor/runtime/triton_heuristics.py:750] [22/4] RuntimeError: PassManager::run failed
Capturing batches (bs=24 avail_mem=63.66 GB):  87%| | 45/52 [03:28<00:32,  4.63s/it]
[2025-11-06 11:04:59 TP0] Registering 5535 cuda graph addresses
[2025-11-06 11:04:59 TP1] Scheduler hit an exception: Traceback (most recent call last):
  File "/sgl-workspace/sglang/python/sglang/srt/model_executor/cuda_graph_runner.py", line 381, in __init__
    self.capture()
  File "/sgl-workspace/sglang/python/sglang/srt/model_executor/cuda_graph_runner.py", line 500, in capture
    ) = self.capture_one_batch_size(bs, forward)
  File "/sgl-workspace/sglang/python/sglang/srt/model_executor/cuda_graph_runner.py", line 692, in capture_one_batch_size
    run_once()
  File "/sgl-workspace/sglang/python/sglang/srt/model_executor/cuda_graph_runner.py", line 679, in run_once
    logits_output_or_pp_proxy_tensors = forward(
  File "/opt/venv/lib/python3.10/site-packages/torch/_dynamo/eval_frame.py", line 817, in compile_wrapper
    raise e.remove_dynamo_frames() from None  # see TORCHDYNAMO_VERBOSE=1
  File "/opt/venv/lib/python3.10/site-packages/torch/_inductor/compile_fx.py", line 979, in _compile_fx_inner
    raise InductorError(e, currentframe()).with_traceback(
  File "/opt/venv/lib/python3.10/site-packages/torch/_inductor/compile_fx.py", line 963, in _compile_fx_inner
    mb_compiled_graph = fx_codegen_and_compile(
  File "/opt/venv/lib/python3.10/site-packages/torch/_inductor/compile_fx.py", line 1646, in fx_codegen_and_compile
    return scheme.codegen_and_compile(gm, example_inputs, inputs_to_check, graph_kwargs)
  File "/opt/venv/lib/python3.10/site-packages/torch/_inductor/compile_fx.py", line 1506, in codegen_and_compile
    compiled_module = graph.compile_to_module()
  File "/opt/venv/lib/python3.10/site-packages/torch/_inductor/graph.py", line 2318, in compile_to_module
    return self._compile_to_module()
  File "/opt/venv/lib/python3.10/site-packages/torch/_inductor/graph.py", line 2328, in _compile_to_module
    mod = self._compile_to_module_lines(wrapper_code)
  File "/opt/venv/lib/python3.10/site-packages/torch/_inductor/graph.py", line 2396, in _compile_to_module_lines
    mod = PyCodeCache.load_by_key_path(
  File "/opt/venv/lib/python3.10/site-packages/torch/_inductor/codecache.py", line 3462, in load_by_key_path
    mod = _reload_python_module(key, path, set_sys_modules=in_toplevel)
  File "/opt/venv/lib/python3.10/site-packages/torch/_inductor/runtime/compile_tasks.py", line 31, in _reload_python_module
    exec(code, mod.__dict__, mod.__dict__)
  File "/tmp/torchinductor_root/kx/ckxb5ejabllpvvtggznwjk5s2trampl4knibqq4flpoifetq23dc.py", line 38, in <module>
    _batched_gemm_afp4_wfp4_pre_quant_kernel_0 = async_compile.triton('_batched_gemm_afp4_wfp4_pre_quant_kernel', '''
  File "/opt/venv/lib/python3.10/site-packages/torch/_inductor/async_compile.py", line 486, in triton
    kernel.precompile(
  File "/opt/venv/lib/python3.10/site-packages/torch/_inductor/runtime/triton_heuristics.py", line 437, in precompile
    self._precompile_worker()
  File "/opt/venv/lib/python3.10/site-packages/torch/_inductor/runtime/triton_heuristics.py", line 459, in _precompile_worker
    compile_results.append(self._precompile_config(c))
  File "/opt/venv/lib/python3.10/site-packages/torch/_inductor/runtime/triton_heuristics.py", line 748, in _precompile_config
    binary = triton.compile(*compile_args, **compile_kwargs)
  File "/opt/venv/lib/python3.10/site-packages/triton/compiler/compiler.py", line 322, in compile
    next_module = compile_ir(module, metadata)
  File "/opt/venv/lib/python3.10/site-packages/triton/backends/amd/compiler.py", line 450, in <lambda>
    stages["llir"] = lambda src, metadata: self.make_llir(src, metadata, options)
  File "/opt/venv/lib/python3.10/site-packages/triton/backends/amd/compiler.py", line 325, in make_llir
    pm.run(mod)
torch._inductor.exc.InductorError: RuntimeError: PassManager::run failed

Set TORCHDYNAMO_VERBOSE=1 for the internal stack trace (please do this especially if you're reporting a bug to PyTorch). For even more developer context, set TORCH_LOGS="+dynamo"


During handling of the above exception, another exception occurred:

Traceback (most recent call last):
  File "/sgl-workspace/sglang/python/sglang/srt/managers/scheduler.py", line 2791, in run_scheduler_process
    scheduler = Scheduler(
  File "/sgl-workspace/sglang/python/sglang/srt/managers/scheduler.py", line 319, in __init__
    self.tp_worker = TpModelWorker(
  File "/sgl-workspace/sglang/python/sglang/srt/managers/tp_worker.py", line 237, in __init__
    self._model_runner = ModelRunner(
  File "/sgl-workspace/sglang/python/sglang/srt/model_executor/model_runner.py", line 322, in __init__
    self.initialize(min_per_gpu_memory)
  File "/sgl-workspace/sglang/python/sglang/srt/model_executor/model_runner.py", line 479, in initialize
    self.init_device_graphs()
  File "/sgl-workspace/sglang/python/sglang/srt/model_executor/model_runner.py", line 1995, in init_device_graphs
    self.graph_runner = graph_runners[self.device](self)
  File "/sgl-workspace/sglang/python/sglang/srt/model_executor/cuda_graph_runner.py", line 383, in __init__
    raise Exception(
Exception: Capture cuda graph failed: RuntimeError: PassManager::run failed

Set TORCHDYNAMO_VERBOSE=1 for the internal stack trace (please do this especially if you're reporting a bug to PyTorch). For even more developer context, set TORCH_LOGS="+dynamo"

Possible solutions:
1. set --mem-fraction-static to a smaller value (e.g., 0.8 or 0.7)
2. set --cuda-graph-max-bs to a smaller value (e.g., 16)
3. disable torch compile by not using --enable-torch-compile
4. disable CUDA graph by --disable-cuda-graph. (Not recommended. Huge performance loss)
Open an issue on GitHub https://github.com/sgl-project/sglang/issues/new/choose 


[2025-11-06 11:04:59] Received sigquit from a child process. It usually means the child failed.
